dmfm_weights.pth (torch, 201775 bytes, 21 tensors)

batch_norm.weight f4 [56]
000000 00 00 80 3f 00 00 80 3f 00 00 80 3f 00 00 80 3f
       1.0 1.0 1.0 1.0
000010 00 00 80 3f 00 00 80 3f 00 00 80 3f 00 00 80 3f
       1.0 1.0 1.0 1.0
000020 00 00 80 3f 00 00 80 3f 00 00 80 3f 00 00 80 3f
       1.0 1.0 1.0 1.0
000030 00 00 80 3f 00 00 80 3f 00 00 80 3f 00 00 80 3f
       1.0 1.0 1.0 1.0
000040 00 00 80 3f 00 00 80 3f 00 00 80 3f 00 00 80 3f
       1.0 1.0 1.0 1.0
000050 00 00 80 3f 00 00 80 3f 00 00 80 3f 00 00 80 3f
       1.0 1.0 1.0 1.0
000060 00 00 80 3f 00 00 80 3f 00 00 80 3f 00 00 80 3f
       1.0 1.0 1.0 1.0
000070 00 00 80 3f 00 00 80 3f 00 00 80 3f 00 00 80 3f
       1.0 1.0 1.0 1.0
000080 00 00 80 3f 00 00 80 3f 00 00 80 3f 00 00 80 3f
       1.0 1.0 1.0 1.0
000090 00 00 80 3f 00 00 80 3f 00 00 80 3f 00 00 80 3f
       1.0 1.0 1.0 1.0
0000a0 00 00 80 3f 00 00 80 3f 00 00 80 3f 00 00 80 3f
       1.0 1.0 1.0 1.0
0000b0 00 00 80 3f 00 00 80 3f 00 00 80 3f 00 00 80 3f
       1.0 1.0 1.0 1.0
0000c0 00 00 80 3f 00 00 80 3f 00 00 80 3f 00 00 80 3f
       1.0 1.0 1.0 1.0
0000d0 00 00 80 3f 00 00 80 3f 00 00 80 3f 00 00 80 3f
       1.0 1.0 1.0 1.0

batch_norm.bias f4 [56]
000000 00 00 00 00 00 00 00 00 00 00 00 00 00 00 00 00
       0.0 0.0 0.0 0.0
000010 00 00 00 00 00 00 00 00 00 00 00 00 00 00 00 00
       0.0 0.0 0.0 0.0
000020 00 00 00 00 00 00 00 00 00 00 00 00 00 00 00 00
       0.0 0.0 0.0 0.0
000030 00 00 00 00 00 00 00 00 00 00 00 00 00 00 00 00
       0.0 0.0 0.0 0.0
000040 00 00 00 00 00 00 00 00 00 00 00 00 00 00 00 00
       0.0 0.0 0.0 0.0
000050 00 00 00 00 00 00 00 00 00 00 00 00 00 00 00 00
       0.0 0.0 0.0 0.0
000060 00 00 00 00 00 00 00 00 00 00 00 00 00 00 00 00
       0.0 0.0 0.0 0.0
000070 00 00 00 00 00 00 00 00 00 00 00 00 00 00 00 00
       0.0 0.0 0.0 0.0
000080 00 00 00 00 00 00 00 00 00 00 00 00 00 00 00 00
       0.0 0.0 0.0 0.0
000090 00 00 00 00 00 00 00 00 00 00 00 00 00 00 00 00
       0.0 0.0 0.0 0.0
0000a0 00 00 00 00 00 00 00 00 00 00 00 00 00 00 00 00
       0.0 0.0 0.0 0.0
0000b0 00 00 00 00 00 00 00 00 00 00 00 00 00 00 00 00
       0.0 0.0 0.0 0.0
0000c0 00 00 00 00 00 00 00 00 00 00 00 00 00 00 00 00
       0.0 0.0 0.0 0.0
0000d0 00 00 00 00 00 00 00 00 00 00 00 00 00 00 00 00
       0.0 0.0 0.0 0.0

batch_norm.running_mean f4 [56]
000000 00 00 00 00 00 00 00 00 00 00 00 00 00 00 00 00
       0.0 0.0 0.0 0.0
000010 00 00 00 00 00 00 00 00 00 00 00 00 00 00 00 00
       0.0 0.0 0.0 0.0
000020 00 00 00 00 00 00 00 00 00 00 00 00 00 00 00 00
       0.0 0.0 0.0 0.0
000030 00 00 00 00 00 00 00 00 00 00 00 00 00 00 00 00
       0.0 0.0 0.0 0.0
000040 00 00 00 00 00 00 00 00 00 00 00 00 00 00 00 00
       0.0 0.0 0.0 0.0
000050 00 00 00 00 00 00 00 00 00 00 00 00 00 00 00 00
       0.0 0.0 0.0 0.0
000060 00 00 00 00 00 00 00 00 00 00 00 00 00 00 00 00
       0.0 0.0 0.0 0.0
000070 00 00 00 00 00 00 00 00 00 00 00 00 00 00 00 00
       0.0 0.0 0.0 0.0
000080 00 00 00 00 00 00 00 00 00 00 00 00 00 00 00 00
       0.0 0.0 0.0 0.0
000090 00 00 00 00 00 00 00 00 00 00 00 00 00 00 00 00
       0.0 0.0 0.0 0.0
0000a0 00 00 00 00 00 00 00 00 00 00 00 00 00 00 00 00
       0.0 0.0 0.0 0.0
0000b0 00 00 00 00 00 00 00 00 00 00 00 00 00 00 00 00
       0.0 0.0 0.0 0.0
0000c0 00 00 00 00 00 00 00 00 00 00 00 00 00 00 00 00
       0.0 0.0 0.0 0.0
0000d0 00 00 00 00 00 00 00 00 00 00 00 00 00 00 00 00
       0.0 0.0 0.0 0.0

batch_norm.running_var f4 [56]
000000 00 00 80 3f 00 00 80 3f 00 00 80 3f 00 00 80 3f
       1.0 1.0 1.0 1.0
000010 00 00 80 3f 00 00 80 3f 00 00 80 3f 00 00 80 3f
       1.0 1.0 1.0 1.0
000020 00 00 80 3f 00 00 80 3f 00 00 80 3f 00 00 80 3f
       1.0 1.0 1.0 1.0
000030 00 00 80 3f 00 00 80 3f 00 00 80 3f 00 00 80 3f
       1.0 1.0 1.0 1.0
000040 00 00 80 3f 00 00 80 3f 00 00 80 3f 00 00 80 3f
       1.0 1.0 1.0 1.0
000050 00 00 80 3f 00 00 80 3f 00 00 80 3f 00 00 80 3f
       1.0 1.0 1.0 1.0
000060 00 00 80 3f 00 00 80 3f 00 00 80 3f 00 00 80 3f
       1.0 1.0 1.0 1.0
000070 00 00 80 3f 00 00 80 3f 00 00 80 3f 00 00 80 3f
       1.0 1.0 1.0 1.0
000080 00 00 80 3f 00 00 80 3f 00 00 80 3f 00 00 80 3f
       1.0 1.0 1.0 1.0
000090 00 00 80 3f 00 00 80 3f 00 00 80 3f 00 00 80 3f
       1.0 1.0 1.0 1.0
0000a0 00 00 80 3f 00 00 80 3f 00 00 80 3f 00 00 80 3f
       1.0 1.0 1.0 1.0
0000b0 00 00 80 3f 00 00 80 3f 00 00 80 3f 00 00 80 3f
       1.0 1.0 1.0 1.0
0000c0 00 00 80 3f 00 00 80 3f 00 00 80 3f 00 00 80 3f
       1.0 1.0 1.0 1.0
0000d0 00 00 80 3f 00 00 80 3f 00 00 80 3f 00 00 80 3f
       1.0 1.0 1.0 1.0

encoder.0.weight f4 [128, 56]
000000 63 dc 23 bd c4 a0 87 3d 63 8f 47 bd 31 bc b5 3d
       -0.0400051 0.066224605 -0.04872073 0.08873785
000010 86 27 9e bd df 10 06 3e 40 72 99 3d f4 b0 bf 3d
       -0.07722382 0.13092373 0.074924946 0.09359923
000020 d4 af a5 bb 55 6d 5a 3c 97 11 7c bd ab 8c 85 bd
       -0.0050563607 0.013331731 -0.061540212 -0.06520971
000030 e0 09 93 bb 79 67 e2 bb db 72 00 bd d9 3f 7e bd
       -0.004487261 -0.0069093076 -0.031359535 -0.06207261
000040 da 4b 84 3d 06 a8 fb 3d 97 94 79 bd ef 80 3a 3d
       0.0645978 0.12287907 -0.060932722 0.045533117
000050 70 57 3f bc 37 25 f8 bd fa e0 b0 bd 94 81 d5 bd
       -0.011678562 -0.12116473 -0.08636661 -0.10425106
000060 13 56 cd 3c fe 8f 02 3e 24 51 c5 3c 67 9b da 3d
       0.025065457 0.12750241 0.024086542 0.10674172
000070 34 75 af 3d 6b 5f ac 3d 74 ea 0c 3c 3a 96 98 bd
       0.085672766 0.08416637 0.00860082 -0.074505284
000080 1e ff fb bd 14 19 4e 3d 1e 51 19 3d 41 e8 1a bd
       -0.12304519 0.050316885 0.037430875 -0.03781915
000090 04 47 e4 3d c0 61 4d bd a9 fb c4 3d d6 ac ff bd
       0.11146358 -0.05014205 0.09618313 -0.12484138
0000a0 97 ce 74 bd 66 54 39 bd dd f9 05 be ab 6d bb bd
       -0.059767332 -0.045246504 -0.13083597 -0.09151777
0000b0 d4 e2 49 bd 8f 46 bb bd f5 ac b1 3d 51 b2 13 bd
       -0.049288586 -0.09144317 0.08675567 -0.036058728
0000c0 4b 4c 37 bd 20 65 08 be 5e b4 75 3d b8 5e db bd
       -0.044750493 -0.13319826 0.059986465 -0.107114255
0000d0 95 d6 c3 3d 36 eb f7 bd 0b 3f 6b bd f8 c2 5f 3c
       0.09562413 -0.1210541 -0.05743317 0.013657324
0000e0 4b 20 99 bd 5e 5f 43 bd c0 95 3b 3d 65 34 62 bd
       -0.074768625 -0.04769837 0.04579711 -0.05522575
0000f0 8f 08 97 3d 43 93 8d 3d be 9f ff bd e3 dc 96 3d
       0.07374679 0.069128536 -0.1248164 0.073663495
000100 d3 90 e7 3d 4d 12 7f 3d b6 63 c6 3d 9b 8d e6 3c
       0.1130692 0.062273312 0.09686987 0.028143695
000110 7c 79 a9 3d 06 3a 27 bd 15 09 4b bd 3f cb bc 3d
       0.082751244 -0.04082682 -0.04956921 0.092184536
000120 6d 31 8f 3d 35 6a a5 3b b7 25 8f 3d 14 6b 9d 3d
       0.06991849 0.0050480613 0.069896154 0.07686439
000130 e2 1f b4 3d 1f d4 05 be 5a 2d fb bc f7 7e 12 3d
       0.08795144 -0.13069199 -0.030661274 0.035765614
000140 90 fc 41 bd 32 ff b9 bc 12 2d dd bd ab 0a 4b bd
       -0.047360003 -0.022704694 -0.10799612 -0.04957072
000150 b8 ee 71 3c 4a 6f e1 3d cf 74 e4 bc f1 cd 58 bc
       0.014766388 0.11007555 -0.02788773 -0.013232694
000160 86 69 86 bd a2 10 05 bd b9 e5 d0 bd 02 6e fa bd
       -0.06563096 -0.032486565 -0.10200066 -0.122280136
000170 bd eb 7b 3b c0 a2 a0 3c 87 46 31 3d 96 fb f9 bd
       0.0038440072 0.019608855 0.04328015 -0.12206189
000180 f1 05 05 be 93 64 41 bd 1c 29 d0 bd fe 64 a4 3d
       -0.12990548 -0.047215056 -0.10164091 0.08027075
000190 78 e0 a5 3c a5 24 f4 ba 33 6a 1c bd 91 86 d5 bd
       0.020248637 -0.0018626644 -0.038187217 -0.10426057
0001a0 52 50 1b 3d 62 c5 93 bd 0f ed d5 bd 85 8c 09 bd
       0.037918396 -0.07215382 -0.10445606 -0.033581275
0001b0 72 a6 bb bd 4d ff fe bd 2f 9e dd bc 4f 96 03 be
       -0.09162606 -0.124510385 -0.027052967 -0.12850307
0001c0 05 68 ef bd 69 ad 7e 3d 52 d5 ab bd e4 ce ee bd
       -0.11689762 0.062177096 -0.08390297 -0.11660555
0001d0 c8 56 94 3d 42 e8 aa bd 6c 20 07 bb cd 21 2d 3d
       0.07243115 -0.08345081 -0.002061869 0.042268563
0001e0 9e d7 e3 3d ea 98 14 bd 4f 38 cc 3b 50 52 69 3d
       0.1112511 -0.036278643 0.0062322984 0.056963265
0001f0 24 e3 df bd 8a 0d 5b 3d 3d 87 0e 3c 9a a2 7d bd
       -0.109319955 0.05347971 0.0086992355 -0.061922647
000200 e3 08 29 3d 87 8a 42 bd ad 0e 87 3d b9 26 04 3e
       0.04126824 -0.04749539 0.06594596 0.12905397
000210 19 fa 78 3d 5b 31 df bd f2 b2 d2 bd 21 59 b1 3d
       0.060785387 -0.10898086 -0.10288037 0.08659578
000220 40 4a aa bd 41 b1 39 bd d1 75 a2 3d e8 2e bc 3d
       -0.08314943 -0.045335058 0.07932628 0.09188634
000230 c3 fc e7 bd 82 f8 4e bd 71 81 14 bc cc 60 86 bd
       -0.11327507 -0.050529964 -0.009064064 -0.06561431
000240 a7 a4 cd bd ff aa ef 3c 4d 9a 27 bd 99 3e f0 bd
       -0.100411706 0.029256342 -0.040918637 -0.117306896
000250 9f 05 b2 3d 48 44 dd 3b 57 f6 87 bd 3a b4 b2 3d
       0.086924784 0.0067525245 -0.066387825 0.08725782
000260 10 91 1a 3d 7b b5 f9 bc 9d 41 fb 3d 40 8b 1b bb
       0.037736 -0.030482044 0.12268374 -0.0023734123
000270 fc e5 49 bc 92 e6 9e bd 3c 01 e9 3c 11 3c 1d bd
       -0.012322899 -0.077588215 0.028442971 -0.038387362
000280 70 da c2 bc 81 a2 ea 3d c1 45 80 3d b6 ae a8 3d
       -0.0237858 0.114567764 0.062633045 0.082364485
000290 69 65 93 bc dc 4f 97 bd d8 f4 5e 3d 37 05 2a bd
       -0.017992692 -0.07388279 0.05443272 -0.04150888
0002a0 0f f5 94 bd b7 fa 78 bd 3f c7 a4 bc d6 a6 e1 3d
       -0.07273304 -0.060785975 -0.02011454 0.110181496
0002b0 09 0e ee 3d 98 f9 c3 3d 71 c5 df 3b d6 a2 6c 3c
       0.11623771 0.095690906 0.006828957 0.01444312
0002c0 1c 71 c9 3d 3b 33 41 bd d7 35 b9 bd c1 70 d0 3d
       0.09836027 -0.047167998 -0.09043472 0.10177756
0002d0 fe ee c5 3c ee 93 e7 3d 8d 74 56 3d b0 0b 22 3d
       0.024161812 0.11307512 0.052357245 0.039561927
0002e0 70 16 91 bd 4b 0d dd bc cb 57 d2 3a 98 82 5f 3d
       -0.07084358 -0.026983878 0.0016047893 0.054567903
0002f0 12 b4 04 3e 40 fd dd bd 8f 62 49 bc 71 b9 10 3d
       0.12959316 -0.10839319 -0.012291565 0.0353331
000300 a7 36 ec bd 52 2d e2 3d 4f 5c fa bd 48 89 07 be
       -0.115338616 0.110438004 -0.12224638 -0.13235962
000310 8c bc dc bd 1e 90 dd 3d 72 4d 91 bd e0 28 36 bd
       -0.1077815 0.10818504 -0.0709485 -0.044472575
000320 ef d3 ff bc 6f 6f 13 3b 74 44 c1 bd 29 3a 57 3d
       -0.031228988 0.002249684 -0.094368845 0.0525457
000330 a6 53 cb bd a4 8a be bd 38 86 96 3d bc a4 7c 3d
       -0.09928064 -0.09303787 0.07349819 0.06168054
000340 b1 1b bf bd e6 0d b3 3d 87 48 70 bd 4e 68 ae bd
       -0.093314536 0.08742885 -0.058662917 -0.08515988
000350 15 d8 b3 bd 15 aa 94 bd cf d2 c9 bc 0f 9b c9 3d
       -0.08781449 -0.07259003 -0.024636654 0.09844028
000360 b3 82 af 3d 5b 5a 6c bd c0 8f d1 3d 73 56 94 3c
       0.08569851 -0.057703357 0.10232496 0.018107628
000370 dd 6e 7c 3d 40 1e 03 3e 15 6c c9 3c 72 40 bc 3d
       0.061629165 0.12804508 0.02458767 0.091919795
000380 e6 d9 a5 bd c7 f4 bb 3b 05 6b 8b 3d 81 e4 ba bd
       -0.080982015 0.005735967 0.06807522 -0.09125615
000390 99 06 d0 3d 6c d5 06 3d 95 d9 17 bd 50 25 ba bc
       0.101575084 0.03291838 -0.037072737 -0.02272287
0003a0 1b b7 40 3d 83 38 f9 bd b8 a2 a6 3d f9 d6 a4 3d
       0.047049623 -0.12168982 0.08136505 0.08048815
0003b0 0f 57 11 bd 60 5b cc bd 27 01 76 3d c0 f9 ff bd
       -0.035483416 -0.09978366 0.060059693 -0.12498808
0003c0 e3 02 ee bb 89 85 02 bd 52 ef 4e 3d d2 af 1d bd
       -0.0072635277 -0.03186563 0.050521202 -0.038497753
0003d0 ca 45 d2 3d ea 1e 39 3d de 48 f1 3d 97 34 72 3d
       0.102672175 0.045195498 0.117814764 0.059132185
0003e0 df 1b 3e 3c f1 cc e5 3c 27 b6 34 3d d5 4b 75 bc
       0.011603325 0.028051825 0.044119027 -0.014971693
0003f0 48 ec f8 bd 04 d3 d4 bd fa 0f 78 3d 92 3c 5f 3d
       -0.12154442 -0.103918105 0.06056211 0.054501124

encoder.0.bias f4 [128]
000000 5a 6f 07 3e 24 e2 bc 3d b8 a8 8d bd b7 a9 f7 3d
       0.13226071 0.092228204 -0.06916946 0.120929174
000010 c9 83 03 bd ba 6d 06 be 71 4b 5b bd da 1a 56 3d
       -0.032108102 -0.13127795 -0.053538743 0.0522717
000020 c6 4c 08 be e0 49 cd 3d 26 a3 9f 3c 75 2b ff ba
       -0.13310537 0.10023856 0.019486975 -0.0019467907
000030 00 e4 ca 3d b1 52 c1 bd 60 5b d4 bd aa 24 1e 3d
       0.09906769 -0.094396 -0.10368991 0.038609184
000040 6a 87 c6 bd 52 26 b6 3d 29 0c 52 3d af 79 9c 3c
       -0.09693797 0.08894028 0.051281128 0.019100992
000050 81 ba 55 3d a3 60 83 bd 59 c1 e4 3d 49 5a e4 bc
       0.052179817 -0.06414916 0.11169691 -0.027875083
000060 7d 91 fb bd fd d3 05 3e a9 c2 10 bd 4d 18 ab bd
       -0.12283609 0.13069148 -0.035341892 -0.083542444
000070 d8 d6 a4 3c c4 fc 48 bd b0 69 4e bd d3 3c 7e bd
       0.020121977 -0.04906918 -0.05039376 -0.062069725
000080 62 15 e8 3d 93 69 14 3d 9a 9d 01 be 47 ca bf 3d
       0.113322034 0.036233496 -0.12657776 0.09364753
000090 58 fc 1d bd f9 77 f5 bd 73 d7 fc bd 35 71 e9 3d
       -0.038570732 -0.119857736 -0.12345781 0.11398546
0000a0 ed 2a f4 bd a5 43 c4 3c c5 09 52 bd 90 48 ca bd
       -0.1192225 0.023958037 -0.05127885 -0.098771214
0000b0 09 5b b5 3d fb ad 79 bd 1e d9 db 3d a3 ac 93 3a
       0.08855254 -0.060956936 0.10734771 0.001126666
0000c0 ad 9a bb bd 57 fd e4 bd 8c fe 52 bd 02 92 92 bd
       -0.091603614 -0.11181133 -0.051512286 -0.07156755
0000d0 35 a7 87 3d 9a c4 fd 3d b1 b0 de bb aa 98 a6 bd
       0.06623689 0.123910144 -0.0067959656 -0.08134587
0000e0 46 bb c6 bd 7c 65 90 bd 37 22 ae bd b3 fa 73 3d
       -0.09703688 -0.070506066 -0.0850262 0.059565257
0000f0 bc 88 a5 3d 58 4c a1 bd 2f 55 c5 bc dc 15 bf 3c
       0.08082721 -0.078758895 -0.02408847 0.023325853
000100 d0 7a 26 3b ae 8c d6 bd ad eb b6 3c a6 84 07 be
       0.0025402792 -0.10476051 0.022329176 -0.13234195
000110 1a 8f 1e 3b ea 47 5f 3d d9 49 cc 3c 21 61 c0 3c
       0.0024194182 0.054511942 0.024937557 0.023483815
000120 68 20 03 3e 4c 12 e6 3d af fb 66 bd 07 f8 38 bd
       0.12805331 0.112339586 -0.056392368 -0.045158412
000130 9f a4 9f 3d d7 d9 ab bd ee 90 3d bd d9 46 8c bd
       0.07795071 -0.08391159 -0.046280794 -0.068494506
000140 c3 d6 07 3c 1f 1e 4e 3c 73 26 34 bd 81 7a 40 3d
       0.008290949 0.012580424 -0.04398198 0.04699183
000150 4e 97 99 bd 9a 85 97 3d ac 71 f7 3d 03 0e 75 3d
       -0.07499562 0.07398529 0.12082228 0.059827816
000160 81 34 77 3d 83 4c d2 bd 60 95 27 3c 8a 21 07 be
       0.060352806 -0.102685 0.010228485 -0.13196388
000170 ed c4 01 be 17 33 68 3d b0 69 6b bd 3b 58 ff 3d
       -0.12672777 0.056689348 -0.05747384 0.124680005
000180 be 7b d6 bd e8 50 db 3c 88 13 c0 bd dc 71 9a 3c
       -0.10472821 0.026771978 -0.09378725 0.01885312
000190 04 72 dc bc 06 06 c8 bd a9 c3 05 3e 0a fa cc 3d
       -0.026909836 -0.09766774 0.1306292 0.10008629
0001a0 3d 96 1f bd b6 74 36 ba 31 39 23 3d a6 82 c4 3d
       -0.038961638 -0.00069601403 0.039849464 0.09595232
0001b0 8a 6b d2 3c ee da ff 3d b6 9c 16 bd b5 45 cd bc
       0.025686044 0.124929294 -0.036770545 -0.025057653
0001c0 72 e4 bd bc f1 c6 3b 3d fa 89 7c 3d a8 d6 fa 3d
       -0.02318022 0.045844022 0.061655022 0.12247974
0001d0 ce ca c2 3d 47 fd fb 3d 00 7e d6 3d 47 f5 3b 3d
       0.09511338 0.12304168 0.10473251 0.04588821
0001e0 b5 63 9f bd 31 be 30 bd 0e b9 7f 3d 18 66 de 3c
       -0.077826895 -0.04315013 0.06243234 0.027148291
0001f0 06 91 e4 3d c0 33 9f 3d 02 08 ac 3c 12 28 29 bc
       0.111604735 0.077735424 0.020999912 -0.010324495

encoder.3.weight f4 [64, 128]
000000 a2 c6 a6 bd d4 40 68 3d 60 8a 08 bd 32 bc 4b 39
       -0.08143355 0.05670245 -0.03333509 0.00019429697
000010 d3 52 91 bd 57 b6 1f bd f8 7f 8c 3d e8 55 c7 3c
       -0.070958756 -0.038992252 0.068603456 0.024332955
000020 cf 57 38 bd 68 e7 01 3c 60 99 24 bb 1e c5 a6 3d
       -0.045005616 0.007928707 -0.0025115833 0.08143066
000030 57 7c 78 bd de d5 f6 bc 3f dc 86 bc 42 9c aa 3d
       -0.060665455 -0.030131277 -0.016462443 0.08330585
000040 eb 27 4a bd 6e ba a4 3d 7c a0 23 bd 6e b8 f7 3b
       -0.049354475 0.08043371 -0.03994797 0.0075598275
000050 c7 9a 16 bd 2c fe 76 3d 66 91 24 3d b5 83 66 3d
       -0.0367687 0.06030099 0.040177725 0.05627795
000060 9d bd fd bc 64 40 20 3c 07 66 1f bd b6 41 64 bc
       -0.030974204 0.009780977 -0.03891566 -0.013931682
000070 ee d2 6d 3d 72 b9 0c 3d 00 82 b2 bd de be 9d b9
       0.058062486 0.034356542 -0.08716202 -0.0003008758
000080 b9 10 7d 3d 71 8b 79 bd 8a 6a 85 3c 5f 87 36 bd
       0.061783526 -0.060923997 0.016286153 -0.044562694
000090 2f 22 9a bd cc 56 ec bb 2d bb ed bb 1d c6 9b bd
       -0.07526051 -0.0072124954 -0.007254979 -0.076061465
0000a0 8a 6a c8 3c 97 d3 85 3d a9 5f 63 bc e4 71 90 3d
       0.024464864 0.06534498 -0.013877788 0.07052973
0000b0 57 08 ab bd ee 42 27 3d 65 bd 96 3d 81 d7 3b bd
       -0.083512 0.040835313 0.07360343 -0.045859817
0000c0 3a 32 1c 3c 71 a3 0f 3d 1c 47 84 bd fa 7a f7 bc
       0.009533459 0.03506798 -0.064588755 -0.030210007
0000d0 ad ef 44 bd ff 06 43 3d c4 bd 10 3c 3c fa 7f 3b
       -0.048080135 0.047614094 0.008834306 0.0039059063
0000e0 2f bd 7f bd af 89 7d bb f3 b3 65 3d 0d 35 be bc
       -0.06243628 -0.0038686802 0.056079816 -0.023218656
0000f0 36 b6 db 3c 66 92 8a bd f1 8e 3e 3d 78 0e 0c bd
       0.026820283 -0.067662045 0.04652304 -0.034193486
000100 12 1f 8f bc 63 50 7b bd 98 3d 40 3d 42 9b 7c bd
       -0.01747087 -0.06135596 0.04693374 -0.061671503
000110 bd d9 90 bc ca 87 a7 bd 00 24 21 bd 07 1f 06 3d
       -0.01768195 -0.081801966 -0.039340973 0.032744434
000120 03 3b aa 3d e1 6a 0c bd 96 68 f8 ba 4c 34 8c bd
       0.08312037 -0.034281615 -0.0018952067 -0.06845912
000130 ee 5f a5 bd 0f a3 71 3d 04 b3 8e 3c 9f 14 b1 bd
       -0.08074938 0.058993395 0.017419346 -0.08646511
000140 84 48 8f bd d8 f8 12 3c 15 b8 91 bc dd 0c 93 3c
       -0.06996253 0.008970462 -0.017787972 0.01795047
000150 35 d5 58 bc 64 df 80 bb ad 6e 80 bd c6 84 f1 3c
       -0.013234426 -0.0039328802 -0.0627111 0.029482257
000160 a6 04 8a bd 91 68 9c bd 85 63 71 bd c1 b5 34 3c
       -0.06739168 -0.07637132 -0.0589328 0.011029662
000170 f0 f0 aa bc 9c f6 ef bc f4 13 0f bd 43 8a 9f bd
       -0.020866841 -0.029292397 -0.03493114 -0.07790043
000180 fa c6 80 3c f5 c0 79 bd d9 cf d6 3c 5d 41 8c 3d
       0.01571988 -0.060975034 0.026222156 0.068484046
000190 dd 49 4b 3c ed a6 a2 bd de ba 50 3c c4 84 23 bd
       0.012407747 -0.07941995 0.012739865 -0.039921537
0001a0 0e 2f ac bd 7a ae 9e bd ad 83 44 bd 5f e3 ae bc
       -0.084074125 -0.077481225 -0.04797714 -0.021348653
0001b0 56 66 b1 3d cd f6 59 3d 49 4c b2 bd c6 c2 b2 3d
       0.08662097 0.053213883 -0.087059565 0.08728556
0001c0 f2 a1 21 bd d6 0e 1e bd eb 18 7a 3d 72 19 9e 3c
       -0.039461084 -0.038588367 0.06105892 0.019299243
0001d0 cc bd a7 bd e1 ac 88 3b 85 2a 36 3d 7d 87 9f 3d
       -0.08190498 0.0041709994 0.044474144 0.07789514
0001e0 46 5e 23 bd 90 05 a3 bd d3 57 88 bd e1 8a 89 3d
       -0.039884828 -0.07960045 -0.06657376 0.06715942
0001f0 d3 23 c5 3c b5 00 f4 bc 66 6b a7 3c 86 5b e8 3c
       0.024064934 -0.029785493 0.020436954 0.028363954
000200 cc fa aa bd 32 d6 5b bd 27 2e 95 bd b3 b3 bc bc
       -0.08348617 -0.05367107 -0.072841935 -0.023034906
000210 2a eb cd 3b c6 ab d4 bb 8d 11 a6 bd b4 ac 84 bc
       0.0062841373 -0.0064902036 -0.08108816 -0.016195633
000220 60 bd 13 3b 33 99 93 bc c6 2b 4e 3c 1f c2 82 bd
       0.0022543296 -0.018017387 0.012583679 -0.06384682
000230 23 c7 6a bd 43 1e a1 3d c1 10 19 3d 0e 3c a1 bc
       -0.057318818 0.078671 0.037369493 -0.019681957
000240 c3 e7 90 bd 02 9b 25 3d d8 e3 96 bd 34 f1 85 3d
       -0.07075455 0.04043103 -0.073676765 0.065401465
000250 66 3a 6a bd 51 28 bb 3b bb ca a5 3d d7 80 1d bd
       -0.0571846 0.005711593 0.080953084 -0.03845295
000260 22 2e 08 bc bf fb 32 bd 4e 44 eb 3c d6 5a 3c bd
       -0.00831178 -0.043697115 0.028719094 -0.045985065
000270 16 fd af bc b3 be 92 3d a1 38 34 bd 1e 65 82 3d
       -0.021482985 0.07165279 -0.043999318 0.06366943
000280 55 1f 98 bd 31 f0 e8 bc 51 17 1b 3d 2c df 80 3d
       -0.07427851 -0.028434845 0.037864033 0.06292567
000290 f4 a8 a0 3b de 51 18 bd c2 37 ea 3c ec 57 01 3d
       0.0049029533 -0.03718745 0.02859104 0.03157799
0002a0 43 e2 d9 bb e4 02 55 bd ac 8c e7 bb da de fc bc
       -0.006649287 -0.05200471 -0.00706633 -0.030867983
0002b0 ad 6b af 3d 6c 24 b4 bc 68 69 8b 3d df a8 b8 bc
       0.085654594 -0.021990024 0.06807214 -0.022541462
0002c0 a3 3e fa 3c d2 d4 b1 3d 64 32 6c 3d 89 7e 23 3c
       0.030547446 0.086831704 0.057665244 0.009978899
0002d0 dc 57 06 3c 7a 23 9b 3d 4a 06 d8 bb d5 7d 95 bc
       0.008199658 0.07575126 -0.0065925466 -0.018248478
0002e0 7a ed 5f 3d a3 df 6d bd ac 4f 69 3c 4f d2 5f bd
       0.054669835 -0.058074605 0.014240187 -0.054643925
0002f0 42 94 9f bd 6f 17 8c 3d 35 79 06 3d b3 62 78 bd
       -0.0779195 0.06840407 0.032830436 -0.060641002
000300 0b 52 55 3d f0 b4 64 3d 50 9e 2f 3d ce 6f 25 bb
       0.052080195 0.055836618 0.042875588 -0.0025243643
000310 59 83 88 bd 28 3b 6b 3d a9 76 0b 3c 86 77 28 3d
       -0.066656776 0.057429463 0.0085121775 0.04112961
000320 0b 1f 75 bc 59 30 9a bd 1d 19 e5 bc 71 78 24 3d
       -0.0149610145 -0.07528753 -0.027966077 0.040153924
000330 e2 b2 51 bd 38 93 6e bd 93 6b 9f bd b1 8b 84 3c
       -0.051195987 -0.058245867 -0.0778419 0.016179891
000340 b1 7f 58 bd c7 aa 26 bc ef eb 9e 3d a8 08 5c 3b
       -0.05285615 -0.010172552 0.077598445 0.0033574495
000350 0d 4a 32 bd fd 91 b1 3d e8 b5 52 bd 71 c2 35 3d
       -0.04352765 0.08670423 -0.05144301 0.044374887
000360 51 ef f7 ba 30 bc f2 3b ca 2c 7d 3d 6e 02 f4 3c
       -0.0018915926 0.0074076876 0.061810292 0.029786315
000370 f0 24 95 bc 9f e7 22 3d 97 5d 3e 3d 9a ae f6 bc
       -0.01820609 0.039771672 0.046475973 -0.030112553
000380 c3 09 32 bc 8b 6d 1a 3d 86 a5 14 3c 5f 9c 63 3d
       -0.010866585 0.037702125 0.009072667 0.05556905
000390 d4 93 72 bd fc 02 df bc d5 a9 91 bd c0 98 4b bd
       -0.05922301 -0.027223103 -0.07112471 -0.04970622
0003a0 79 ba 8b 3d 34 09 d9 3c 2c 74 75 bd 6a 57 aa bd
       0.06822676 0.026493646 -0.059925243 -0.08317454
0003b0 94 eb a2 3d df 35 a0 bc 14 5e 9f 3d 22 3e 95 bd
       0.07955089 -0.019556938 0.07781616 -0.072872415
0003c0 7a 82 87 bd 37 78 96 3d 28 19 6c 3d 7b 87 b4 bd
       -0.06616683 0.07347148 0.05764118 -0.08814903
0003d0 44 83 98 bd 96 f1 70 3c 41 fd 26 bd 0e 3d a0 3c
       -0.07446912 0.014706036 -0.040768865 0.019560363
0003e0 55 e7 6c 3d 47 c9 3a bd dc 60 93 bd 80 c6 f4 3c
       0.057837803 -0.04560211 -0.07196209 0.029879808
0003f0 15 af b8 bc 3a 48 89 bd 78 f2 64 3d e2 4b 81 bd
       -0.022544423 -0.06703229 0.0558953 -0.063133016

encoder.3.bias f4 [64]
000000 ea 29 a4 bd 34 29 c3 bc 00 f5 9a 3c e7 74 ee 3c
       -0.08015807 -0.023823358 0.018915653 0.029108478
000010 db d4 30 bd 39 cd 8e bc 78 0a a5 bc d6 51 6c bd
       -0.043171745 -0.017431842 -0.020146593 -0.057695232
000020 62 a5 7d 3d a0 c9 15 3d 76 53 5b 3c 87 b4 87 bd
       0.0619253 0.036569238 0.013386598 -0.0662623
000030 27 15 6d bd 1a ac ab b8 cb f4 85 3d da 53 c3 bc
       -0.0578815 -8.185972e-05 0.06540831 -0.023843694
000040 05 0a 2d 3d 06 4d 47 bc 5b e8 5a bd 7e 46 6f bd
       0.042245883 -0.01216436 -0.053444248 -0.058416836
000050 61 94 62 bd 07 fa a4 bc 84 30 2a 3d 55 56 83 bd
       -0.055317286 -0.020138754 0.041550174 -0.06412951
000060 f6 28 73 bd 56 e9 3f 3c 70 8f 94 3d 74 b5 2a bc
       -0.059365235 0.0117133465 0.07253921 -0.010419238
000070 8e 56 93 3c 94 39 90 3c 97 6d 4c 3d fb f3 66 3c
       0.017985608 0.01760558 0.0499092 0.014096255
000080 3b 59 ad 3d 43 01 2c 3c cc f8 9e bd bc f9 f1 3c
       0.08464285 0.010498348 -0.07762298 0.029538028
000090 f9 de 50 3c b9 08 9b bd 3b 46 68 bd 33 33 a2 bd
       0.012748473 -0.07570023 -0.056707602 -0.07919922
0000a0 25 e3 29 3d 66 8f 92 3d 00 6d 68 3c 3c d0 95 bd
       0.041476388 0.07156257 0.014186144 -0.07315108
0000b0 a7 31 f0 3a 24 9c 6f 3d 14 4a 6c 3d 88 e5 42 bd
       0.0018325344 0.058498517 0.057687834 -0.04758218
0000c0 f8 a6 06 bd 8f ad 40 bc 71 68 ee bc b8 e7 b4 3d
       -0.032874078 -0.01176013 -0.029102536 0.08833259
0000d0 44 7f 44 3d 90 bd 89 bd 9f 7e e2 3c 6c c2 95 3c
       0.047972932 -0.06725609 0.027648268 0.018281184
0000e0 12 f0 2f 3d fa 40 50 bd 02 c7 bd 3c e9 1e 03 3d
       0.04295356 -0.050843216 0.023166183 0.0320119
0000f0 5c 2e 5d 3d ec 7a ab bd 40 3e 04 bd 27 77 8f bd
       0.05399929 -0.08373055 -0.03228593 -0.070051484

gat_industry.att_src f4 [1, 2, 64]
000000 46 c4 34 be 98 a6 5f 3d 81 35 87 bb 3a d1 04 be
       -0.17652997 0.054602236 -0.004126251 -0.12970439
000010 51 68 45 3b 22 4d 91 3e bb 63 4b bd bb 15 b6 bc
       0.0030121992 0.2837916 -0.049655657 -0.022227159
000020 e2 6a 88 be c8 f8 4c be 05 7d 38 be 80 44 c9 3d
       -0.26644045 -0.20016778 -0.18016441 0.098275185
000030 c0 ce af bc a0 d0 a0 3d 6a 5a 86 be f0 0e 93 3e
       -0.02146089 0.07852292 -0.26240855 0.28722334
000040 10 5e 43 3d a2 03 90 be 4d ee 23 3e 60 8b 0f bd
       0.047697127 -0.28127772 0.16008873 -0.035045028
000050 d5 8c 71 3e 02 38 06 3d 77 39 93 bd 14 88 6f 3e
       0.2358888 0.032768257 -0.07188695 0.23391753
000060 7b 9c 33 3e ca 03 5c bd 69 88 70 be 60 08 93 3e
       0.17540161 -0.05371455 -0.23489536 0.28717327
000070 ef 38 54 3e 23 80 bc 3d e7 18 2c 3e 14 8d c2 3d
       0.20724843 0.09204128 0.16806374 0.09499565
000080 40 8b d6 3d f1 d3 51 bd 62 df 81 3e ca f0 a8 bd
       0.104757786 -0.051227514 0.2536574 -0.08249052
000090 c4 cd 07 3c ed 64 71 3e de 8f 3f be 29 50 0d bd
       0.008288804 0.23573656 -0.18707225 -0.034500275
0000a0 5b 01 64 bd 96 8c de 3d c6 eb 05 3e 24 70 3d 3e
       -0.055665355 0.108666584 0.13078222 0.1849981
0000b0 94 55 e7 3c 4e c4 79 3e ac a9 16 3d a3 5e 06 3d
       0.028239049 0.2439129 0.036782905 0.032805096
0000c0 7d 42 32 3e 1c 73 68 3d a0 fa 57 3d be 94 2d 3c
       0.17408176 0.0567504 0.05272925 0.010594545
0000d0 19 f0 8f 3e ad fc 6e 3e 38 b7 75 bd b4 fe e5 bd
       0.28112867 0.23338576 -0.059989184 -0.112302214
0000e0 8b 09 68 3e a6 c6 3e be 01 41 cd bd d4 7a ef bc
       0.2265989 -0.18630466 -0.10022164 -0.029233374
0000f0 5c 78 57 be e0 32 a0 3d bc 1b 11 3e d0 23 83 3e
       -0.21042007 0.07822204 0.14170736 0.2561326
000100 19 1c 99 bc 39 69 54 3e 9c d4 8e be eb 26 2d 3e
       -0.018690156 0.20743264 -0.27896583 0.16909377
000110 9c 91 17 3d 75 13 96 be 31 55 71 be ce 21 98 bd
       0.0370041 -0.2931172 -0.23567654 -0.07428323
000120 40 fa 70 3e 48 ba 6b 3e a7 fc 6b 3e bc 44 60 be
       0.23532963 0.2302028 0.23045598 -0.2190122
000130 c4 4b 57 be 25 6a 8e be 8f 83 86 be 55 16 9a 3d
       -0.21024996 -0.27815357 -0.26272246 0.07523791
000140 e0 c7 01 3e fc 7a 0d 3e 9b e3 1a bd 8d 92 da bc
       0.12673903 0.13816446 -0.037814718 -0.026681209
000150 01 ae fe bd 17 c1 c4 bd 6c 48 a4 bd f5 5a d8 bc
       -0.12435532 -0.096071415 -0.08021626 -0.02641056
000160 91 8b 11 3d 51 a6 76 be 75 06 8e 3e a0 37 81 be
       0.03553349 -0.24086882 0.277393 -0.2523775
000170 1a 8f 81 3e eb cd 7a be 5b 1f 47 3d 0b 59 bf 3b
       0.2530449 -0.24492614 0.048613887 0.005839472
000180 74 7e 0e 3e 39 ac 70 3d 54 cf c9 3d 11 0b c1 bc
       0.13915426 0.058757994 0.09853998 -0.023564847
000190 5c 73 7a be 09 4f f8 ba 53 08 3b 3e d4 49 5d 3e
       -0.24458069 -0.0018944453 0.18264894 0.21610194
0001a0 31 a4 19 3e b8 a4 2b bd 9a 7a 00 be 31 9d 57 3d
       0.1500404 -0.041905135 -0.12546769 0.052640144
0001b0 be 6b 94 bd 49 37 76 3e dd bc 1a be 8c d9 6d be
       -0.07247113 0.24044527 -0.15111108 -0.23227519
0001c0 ed 73 d9 bd 0c f5 91 3e 6d d1 89 bc 02 44 42 be
       -0.10617814 0.28507268 -0.016823495 -0.18971255
0001d0 4c ed 25 bd a1 37 64 bd ce e6 99 be a7 55 66 be
       -0.040509507 -0.055717114 -0.30058903 -0.22493611
0001e0 04 28 af bd 84 4b 8d 3e 4e ca 94 bd a8 29 01 be
       -0.08552554 0.27596676 -0.07265149 -0.12613547
0001f0 31 83 62 be af 5f 3e 3e 0e 19 23 3e 84 1c d4 3d
       -0.22120358 0.18591188 0.15927526 0.103570014

gat_industry.att_dst f4 [1, 2, 64]
000000 ec 23 8c be e1 7c cf bc 32 30 fc bd 13 9a 78 bd
       -0.27371156 -0.025328102 -0.1231388 -0.06069381
000010 9e 77 14 bc c6 bb 99 3e 2a 8c 35 3e 3e d1 37 be
       -0.009061722 0.30026072 0.1772925 -0.17950913
000020 a1 4b 21 3e d2 6e 67 3e a0 39 0e 3e 01 96 66 3e
       0.15751506 0.22600868 0.1388917 0.2251816
000030 be 37 86 bd 80 6a 22 3e 26 9a 98 3c 06 d4 20 3e
       -0.06553601 0.15860939 0.018628191 0.1570588
000040 86 d8 74 be 61 27 62 3d 1f 9e 46 3c 6d ba 80 3e
       -0.23910722 0.055213336 0.01212266 0.25142232
000050 3f 2b b4 3d 8d a8 0e 3e 62 c7 35 3e c2 5a 6b 3e
       0.08797311 0.13931485 0.1775184 0.2298384
000060 f2 16 d7 3d 2e 1f f3 3c 28 2d 4f 3e d5 f2 87 3e
       0.10502423 0.029677954 0.2023207 0.26552454
000070 5d 96 36 be 0a a9 1b 3e 6f 11 8e be 56 89 34 be
       -0.17830797 0.15201202 -0.27747676 -0.17630515
000080 ab 3e 4d 3e 7b cf 9a bc e1 5f 76 be 31 a7 b7 3d
       0.20043437 -0.018897763 -0.24060012 0.08967436
000090 e0 56 0f 3e 26 07 33 3e e9 5e 13 bb 2f c9 8d be
       0.13997984 0.17483196 -0.002248699 -0.27692553
0000a0 f1 3f 44 3e fc 4e 8c be c1 04 88 3d 1d fd 8e be
       0.19165017 -0.2740401 0.06641532 -0.27927485
0000b0 f9 1b 42 be fb 16 89 3e ca f2 e4 3d 33 f7 c7 bb
       -0.18955983 0.26775345 0.11179121 -0.0061024665
0000c0 c2 46 81 3e e8 ea 7c be bf 53 6b 3e f8 48 fa 3d
       0.25249296 -0.24698985 0.22981165 0.12220949
0000d0 a1 e0 ef 3d f1 da 8f 3e 94 30 09 3e e3 84 07 be
       0.117127664 0.28096727 0.13397437 -0.13234286
0000e0 e0 40 d8 bc 17 02 34 bc 33 ca c7 3c 62 42 15 3e
       -0.026398122 -0.010986826 0.024388408 0.14576104
0000f0 10 1b 89 3e 54 11 14 be 94 d9 6f bd 1f 96 a6 3d
       0.2677846 -0.14459735 -0.058557108 0.08134102
000100 8e 50 1a be 4f 8a 1d bc 3a 9b 41 bd 67 93 31 be
       -0.15069792 -0.009615495 -0.047267176 -0.17341386
000110 53 19 13 be 32 fd 78 3d 1a 40 eb bd 2b 44 5b 3e
       -0.14365129 0.06078834 -0.11486836 0.21412723
000120 5d 9f 8d 3e 7c cc 29 3e e2 84 e9 3d f1 99 81 3e
       0.27660647 0.16581911 0.114022985 0.2531276
000130 0a 54 6f 3e b4 b9 30 3d e0 67 4a be 44 24 73 3e
       0.23371902 0.04314585 -0.19766188 0.23744303
000140 19 37 25 3e ba c9 4b be 8c b1 16 3e e7 8d 87 bd
       0.161343 -0.19901171 0.14716166 -0.066188626
000150 1b 86 98 be 86 78 7f 3c 1b d5 3c 3e b2 5c 51 3e
       -0.29789814 0.0155927 0.18440668 0.20445517
000160 23 45 34 3d 29 7b 3b 3e fe 1f 28 bc 42 b7 e2 bd
       0.044011246 0.183087 -0.010261534 -0.1107011
000170 ca 8e 9a 3d ba 7a eb 3d 04 fa 21 be 37 d8 53 3e
       0.07546766 0.114980176 -0.1581803 0.20687948
000180 94 bb 86 3e a8 bc 4a 3c ad 28 73 bd b2 5a 1c 3e
       0.26314986 0.012374081 -0.059364963 0.15268973
000190 b3 60 22 3e 7e 50 68 3e db 87 99 be 37 49 93 3e
       0.158572 0.22686955 -0.29986462 0.28766796
0001a0 75 a5 15 3e 13 95 3d bc 90 91 5a 3e f4 c4 b1 3d
       0.14613898 -0.011571187 0.2134459 0.08680144
0001b0 0d f6 c8 bc f5 4d e4 bd c8 77 24 be af a8 33 be
       -0.024531389 -0.111476816 -0.16061318 -0.17544816
0001c0 84 5b a6 3d b1 01 1a be e1 8a 53 3e 96 2f 84 be
       0.08122924 -0.15039708 0.20658447 -0.25817555
0001d0 39 db 6c be 86 ce 7c 3e 1f b0 28 be c2 9e 4e be
       -0.23130502 0.24688157 -0.16473435 -0.20177749
0001e0 84 de b5 bd 7d 69 3d be 82 69 a1 bd 23 e7 60 bd
       -0.08880332 -0.18497272 -0.07881452 -0.05490793
0001f0 b3 56 4b 3e bb 2a 8b 3e a2 05 6e bc 78 59 9a be
       0.19857292 0.27181038 -0.01452771 -0.30146384

gat_industry.bias f4 [64]
000000 00 00 00 00 00 00 00 00 00 00 00 00 00 00 00 00
       0.0 0.0 0.0 0.0
000010 00 00 00 00 00 00 00 00 00 00 00 00 00 00 00 00
       0.0 0.0 0.0 0.0
000020 00 00 00 00 00 00 00 00 00 00 00 00 00 00 00 00
       0.0 0.0 0.0 0.0
000030 00 00 00 00 00 00 00 00 00 00 00 00 00 00 00 00
       0.0 0.0 0.0 0.0
000040 00 00 00 00 00 00 00 00 00 00 00 00 00 00 00 00
       0.0 0.0 0.0 0.0
000050 00 00 00 00 00 00 00 00 00 00 00 00 00 00 00 00
       0.0 0.0 0.0 0.0
000060 00 00 00 00 00 00 00 00 00 00 00 00 00 00 00 00
       0.0 0.0 0.0 0.0
000070 00 00 00 00 00 00 00 00 00 00 00 00 00 00 00 00
       0.0 0.0 0.0 0.0
000080 00 00 00 00 00 00 00 00 00 00 00 00 00 00 00 00
       0.0 0.0 0.0 0.0
000090 00 00 00 00 00 00 00 00 00 00 00 00 00 00 00 00
       0.0 0.0 0.0 0.0
0000a0 00 00 00 00 00 00 00 00 00 00 00 00 00 00 00 00
       0.0 0.0 0.0 0.0
0000b0 00 00 00 00 00 00 00 00 00 00 00 00 00 00 00 00
       0.0 0.0 0.0 0.0
0000c0 00 00 00 00 00 00 00 00 00 00 00 00 00 00 00 00
       0.0 0.0 0.0 0.0
0000d0 00 00 00 00 00 00 00 00 00 00 00 00 00 00 00 00
       0.0 0.0 0.0 0.0
0000e0 00 00 00 00 00 00 00 00 00 00 00 00 00 00 00 00
       0.0 0.0 0.0 0.0
0000f0 00 00 00 00 00 00 00 00 00 00 00 00 00 00 00 00
       0.0 0.0 0.0 0.0

gat_industry.lin.weight f4 [128, 64]
000000 0d f2 57 3c e7 e6 2f bd 67 8c 29 3d ee 0a 54 3d
       0.013180268 -0.042944815 0.041393664 0.051768236
000010 ba 44 e0 3d 8f f5 b4 3d 77 fa 5c bd dd ff d2 3d
       0.109506086 0.08835899 -0.0539498 0.10302708
000020 32 00 08 be c5 f2 09 bd 61 81 d0 3d 0e 04 a2 bc
       -0.13281325 -0.03367879 0.10180927 -0.019777324
000030 8f 4c c5 bd ef 91 21 3e c7 58 3f bd a7 f3 25 be
       -0.09633743 0.15778325 -0.046715524 -0.16206227
000040 7d 9f 06 be 5e 57 60 3d 31 aa 13 bc c6 e5 2e be
       -0.13146777 0.05477082 -0.009012745 -0.17079839
000050 84 98 bd 3d 92 81 b2 bd 92 d2 0e bd 67 3d 1c be
       0.09257606 -0.0871612 -0.034868784 -0.15257798
000060 49 7d a5 3c e4 0c d5 bd d5 b4 95 bc f9 07 cb 3c
       0.020201342 -0.10402849 -0.018274704 0.024784075
000070 da c5 9b bd 03 6c 0d be 3e e6 c1 3d 7e ff 15 be
       -0.076060966 -0.13810734 0.09467743 -0.14648244
000080 4b 1a 8b bd b9 f1 63 3c 90 dc 15 3e e8 34 02 3e
       -0.06792124 0.013912612 0.14634919 0.12715495
000090 b0 22 a1 bd 9e 07 21 3b 4a b3 04 bd 0e 43 95 bd
       -0.07867944 0.002457119 -0.032397546 -0.0728818
0000a0 a6 87 31 3e 64 db 09 bd 57 f9 79 bc 0d 0a ee bd
       0.17336902 -0.033656493 -0.015257201 -0.11623011
0000b0 0c 9b 09 3e b4 fc 63 3d a2 7c 8e bc b2 26 b0 bd
       0.13438052 0.05566092 -0.017393414 -0.086011305
0000c0 0d 1f 05 3e 85 32 8c bd 5b 70 1c 3e 58 2b 7a bd
       0.13000126 -0.06845573 0.15277235 -0.061076492
0000d0 97 74 34 be 2e de 0b 3e 14 7a ef bd ca ea 15 be
       -0.176226 0.13658974 -0.116932064 -0.14640346
0000e0 93 6e 0b 3c 72 2e 33 be aa 82 eb bd 24 94 c1 3d
       0.00851025 -0.17498186 -0.114995316 0.09452084
0000f0 d8 03 c8 bd 55 b2 09 bc 4d 4d b8 bd b6 9a 02 3e
       -0.09766358 -0.008404334 -0.08999119 0.1275433
000100 52 e3 77 bd 8d ed e8 3d 20 5e 97 3d 66 b8 e8 bd
       -0.060519524 0.11373434 0.07391 -0.11363296
000110 dd 31 95 bd 9f 9d eb ba 23 08 cd bc a3 78 1a bd
       -0.07284901 -0.0017976052 -0.025028294 -0.037712704
000120 14 7a 0b be 52 71 01 bc 5e 20 0e be b2 2e de 3c
       -0.13620788 -0.007900553 -0.13879535 0.027121875
000130 3c 3b ae bd 93 92 06 bd 5c 0c 66 3d 80 8f 9b bc
       -0.08507392 -0.032854628 0.05616413 -0.018989325
000140 a3 4e ac 3d cc 6e 8f 3d d0 f6 1a 3b e4 18 19 be
       0.08413436 0.07003555 0.0023645647 -0.14950901
000150 92 a9 2d 3b d2 c6 2a 3d c8 13 8a 3d 16 38 b6 bd
       0.0026498777 0.041693516 0.06742054 -0.08897416
000160 5d 95 0a 3e d6 8b 45 3c 7d fa b6 bd 3b 96 7a 3c
       0.1353354 0.012057265 -0.089344956 0.015294607
000170 0c 9d 2c 3e 0f b6 0f 3c ac 98 d0 bd 16 98 0a be
       0.16856784 0.0087714335 -0.1018537 -0.13534579
000180 a4 50 18 be 62 e7 d4 bd 77 ec 02 3d 89 c7 1f be
       -0.14874512 -0.10395695 0.03196379 -0.1560346
000190 a2 fe 2f be f7 a7 cf 3d 87 8e 02 3e b1 47 dd bc
       -0.17186978 0.101394586 0.12749682 -0.027011724
0001a0 88 d6 01 be f8 64 15 be 4f 6d 8c 39 bf 98 3b bc
       -0.12679493 -0.14589298 0.00026784322 -0.011449992
0001b0 26 6d 00 bd 0a f4 31 3d 31 95 3f 3d f7 3a 2c be
       -0.031354092 0.043445624 0.04677314 -0.16819368
0001c0 da 16 14 be 3c 6e 2d be 77 9b b7 bc 21 95 96 bd
       -0.14461842 -0.16936582 -0.022412999 -0.07352663
0001d0 f1 4f 12 be cf 1f 10 be 66 ea f3 bd dc 78 59 3d
       -0.14288308 -0.14074634 -0.11909942 0.053093776
0001e0 29 a8 e7 bb 4c 90 34 be 3c 22 bc bc 82 25 81 bd
       -0.007069607 -0.1763317 -0.022965543 -0.06305982
0001f0 ca a5 8a bd fa e9 11 bb fc c8 93 3d 9f e0 8a bb
       -0.06769903 -0.0022264705 0.07216069 -0.0042382027
000200 f5 82 f2 bd dc 1f 3a bc 2f 44 15 3e ca 18 e4 3c
       -0.11841384 -0.011360135 0.14576791 0.027843852
000210 e3 8d e5 bd f0 7a 26 3d 2e 6d 33 be 73 6e 96 3b
       -0.11208703 0.040644586 -0.17522117 0.0045908033
000220 89 d3 b9 3d cb 30 15 be 86 bf 44 bd 65 ee 9c 3d
       0.0907355 -0.14569394 -0.048034213 0.07662658
000230 bf cf a0 bd dc 40 49 bc 79 69 3d 3d 07 94 ce 3d
       -0.078521244 -0.01228353 0.046243165 0.10086828
000240 5c fe 0b bd b6 35 19 3c 36 65 96 bd 0a e9 30 bd
       -0.034178123 0.009351185 -0.07343523 -0.043190993
000250 4f df f9 3c 3e b5 26 3e ef be 2a 3e 88 7d db b9
       0.03050199 0.16280076 0.16674398 -0.00041864463
000260 f1 75 59 3d 60 17 3e bd 0f 95 1d 3c 48 28 89 3d
       0.053090993 -0.04640901 0.009618058 0.06697136
000270 5a 00 df 3c 54 87 81 3d 35 9f 2e 3e ab 6a 51 3d
       0.027221847 0.0632464 0.1705292 0.051127117
000280 ed 9b 05 3e c8 37 44 3d 96 52 ee ba 1a 15 b5 3d
       0.13047762 0.04790476 -0.0018182572 0.088419154
000290 6f bc 24 be 48 3b dc 3d 54 5c 73 bd e7 ae 84 3d
       -0.16087507 0.107534945 -0.059414223 0.064786725
0002a0 3f 69 70 bd 95 0c ee 3a 17 89 e1 3d b1 8c db 3d
       -0.05869412 0.0018161709 0.11012476 0.10720194
0002b0 cd 36 b3 3d c9 a7 bd bd 48 09 95 bd f3 5f 07 3e
       0.08750687 -0.09260518 -0.07277161 0.13220195
0002c0 af 98 9d 3b f9 18 17 bd 07 97 0f 3e 73 f6 0c 3e
       0.004809461 -0.03688905 0.14022456 0.13765888
0002d0 c4 9a 35 3c 18 4b 77 bc 23 c8 82 3c ce 73 ed 3d
       0.011084262 -0.015093587 0.015964573 0.115943536
0002e0 41 32 94 3d 47 08 eb 3d 51 8c ca 3c 00 0b c2 bc
       0.07236148 0.11476188 0.024725111 -0.023686886
0002f0 cc b0 1a 3e 6b 1c aa 3d 55 ca 15 bd 57 5f 54 3d
       0.15106505 0.083062015 -0.036569912 0.051848736
000300 09 e6 cb 3d ef 68 cf bd d5 d9 23 3e b7 0d b2 bd
       0.09955985 -0.10127436 0.16001065 -0.08694022
000310 43 32 82 3d b4 a9 20 be 63 06 a2 bd 2b 80 12 3d
       0.06357243 -0.15689737 -0.079113744 0.03576676
000320 7b 4d 12 bd cd 55 15 be 37 a5 cb bc 96 f4 b6 3d
       -0.035718422 -0.14583512 -0.024859054 0.0893337
000330 61 b1 d1 bd 16 c1 d0 bd a0 d3 2c 3e 7f f8 0d be
       -0.102389105 -0.10193078 0.16877604 -0.13864325
000340 27 b9 e7 bd 6c 66 d6 bc 25 15 d5 3d 7f 48 68 bb
       -0.11314612 -0.026171885 0.104044236 -0.0035443602
000350 b7 9b 13 be b3 df b1 3d a5 9f 1c be 30 ea 8a 3d
       -0.14414869 0.08685245 -0.15295275 0.06782949
000360 b1 74 30 be 59 26 1e 3d 33 e7 07 bd b0 5b bc 3c
       -0.17232014 0.03861079 -0.033179473 0.022992939
000370 cf c9 a1 3d ef e1 3b 3d 92 b1 35 3c 13 bb 4a bd
       0.0789982 0.045869764 0.011089699 -0.049494814
000380 a0 b5 34 be f1 5c df bc 1d 34 05 be 82 cd 1f bd
       -0.1764741 -0.027265998 -0.13008161 -0.039014347
000390 5e 6c b4 3d 9d 4a 50 bd ea d3 28 bd 53 9e ec bd
       0.08809732 -0.050852407 -0.041217722 -0.115536354
0003a0 60 46 03 bd f1 7f f6 bd 94 54 82 bd 55 cf a9 bd
       -0.032049537 -0.12036122 -0.06363788 -0.082914986
0003b0 91 d7 6a bd 42 17 22 be 75 f5 1d be bf 04 0b 3e
       -0.057334486 -0.15829185 -0.15425666 0.13576029
0003c0 aa 49 c5 bd 82 4b 29 be 6b 46 2a 3e b0 51 21 be
       -0.09633191 -0.1653271 0.16628425 -0.15753818
0003d0 c1 21 48 bd 41 d2 80 3d b7 17 56 3d f7 04 b4 3d
       -0.048860315 0.06290103 0.05226871 0.087900095
0003e0 cc e4 86 3d 56 a4 8f bd 1e 27 90 3d 85 67 29 3e
       0.06586608 -0.070137665 0.07038711 0.16543396
0003f0 70 5c e6 bd 5b f9 15 be 37 25 33 3e ac b2 79 3d
       -0.112481 -0.14645903 0.17494665 0.06096141

gat_universe.att_src f4 [1, 2, 64]
000000 0b 21 2c be f5 1d 08 be b7 6a 72 be 1a 34 47 3e
       -0.1680948 -0.13292678 -0.23673521 0.19453469
000010 59 c7 d7 3d f6 b4 ff bd e5 01 e1 3d a4 01 8f 3d
       0.105360694 -0.124856874 0.109866895 0.06982735
000020 80 2e 8a bd f2 79 ac 3d a0 64 4f 3e 0d d9 49 bd
       -0.067471504 0.08421697 0.20253229 -0.04927926
000030 77 6e 88 be 3d 2f 2e be 31 28 89 3e ff 68 8c be
       -0.26646778 -0.17010207 0.26788476 -0.27423856
000040 c9 44 dd bc 6d 01 4f 3e 87 29 1f bd c9 64 ae 3d
       -0.027010338 0.20215388 -0.038857963 0.08515317
000050 cb 44 a7 3c 9a 46 96 3e f2 4e 0d be db aa c5 3d
       0.020418545 0.2935074 -0.13799646 0.09651729
000060 6d 38 7f be a2 a0 6b 3e 08 ff 78 be 3c 12 90 be
       -0.24923868 0.23010495 -0.24316037 -0.28138912
000070 b8 89 ca 3d 5d 63 03 bd fc 5f 31 3e 94 18 81 be
       0.09889549 -0.032077182 0.17321771 -0.25214064
000080 6d c4 f3 3d 0c 86 9c 3d 4e 81 24 be c4 73 88 be
       0.119026996 0.07642755 -0.16064951 -0.26650822
000090 83 21 2f 3e 68 1f 4d 3e 37 82 30 3e 5a 70 a2 3d
       0.17102627 0.20031512 0.17237173 0.079315856
0000a0 44 82 b2 3b 28 ce 80 3e c6 7c 53 be dd b8 8f bd
       0.005447658 0.25157285 -0.20653066 -0.07017682
0000b0 39 4b 83 be 6f c1 ec 3c 4b 83 fa bd 34 a5 7a 3e
       -0.25643328 0.02890083 -0.122320734 0.24477082
0000c0 14 65 81 3e 4a 43 87 be 52 cd 73 3e c1 17 35 3e
       0.2527243 -0.26418525 0.23808792 0.17684843
0000d0 1a 32 e2 bd 21 7b 90 3e 19 71 95 be 08 10 61 3d
       -0.11044712 0.2821894 -0.2918785 0.05494693
0000e0 d8 54 62 3e e5 7d d9 bd b4 91 76 bc 70 12 a5 3d
       0.22102678 -0.106197156 -0.015049387 0.08060157
0000f0 cf b9 a4 3d 7c db 90 be b3 e9 6a 3e 84 50 d8 bd
       0.08043253 -0.28292453 0.22940712 -0.10562232
000100 57 54 5b 3e 4e d3 53 be cd db b5 bd 15 58 7a 3d
       0.21418892 -0.20686075 -0.08879814 0.061119158
000110 24 72 60 be 37 04 b1 bd 61 0f 49 be 97 83 3a be
       -0.21918541 -0.08643382 -0.19634773 -0.1821426
000120 74 e9 80 bd 33 2f 95 bd 19 8c b9 3a 90 d1 a9 3c
       -0.06294528 -0.07284393 0.0014156132 0.02072981
000130 fb 4f 9a bd 84 94 b6 bd 97 dc cf 3d bb cd af 3d
       -0.07534786 -0.08915046 0.10149496 0.08584162
000140 30 6c 3f be 20 b3 21 be 4c d0 21 be 5f b6 6c 3e
       -0.18693614 -0.15790987 -0.15802115 0.23116444
000150 86 09 85 3e bc 6e 94 be 9b 94 50 bd b7 ba 15 be
       0.25983828 -0.28990734 -0.05092297 -0.14622007
000160 34 2f 97 be c9 64 e8 bc a5 c3 22 3e 57 dc 40 be
       -0.295282 -0.02836837 0.15894945 -0.18834053
000170 d1 c6 d5 bd ef 5b c4 bd 46 35 14 3e 49 9f 94 be
       -0.10438312 -0.095878474 0.14473447 -0.29027775
000180 cd f2 1c 3e e7 c0 82 be 99 f6 56 be e4 cf 83 be
       0.15326996 -0.25537798 -0.20992507 -0.25744545
000190 6f 87 e3 3d a6 a6 2b be 60 28 1e 3e 51 bc 4a be
       0.11109816 -0.1676279 0.1544509 -0.197984
0001a0 82 0d 85 3e eb 2b b1 bd 15 75 74 be be 50 7e 3b
       0.25986868 -0.08650955 -0.23872788 0.003880545
0001b0 50 13 93 3e 2c 0b 5a be fe a3 5b 3e 73 5f 90 3d
       0.28725672 -0.21293324 0.21449277 0.070494555
0001c0 8a ee 42 3c 45 c6 7b bd 67 f2 41 3d 05 b2 6d 3e
       0.011897692 -0.06146838 0.047350314 0.2321244
0001d0 ce 94 1d 3e f9 2a 3e be b7 62 93 3e 9c 46 1d 3e
       0.15388796 -0.1857108 0.2878625 0.15358967
0001e0 c3 c2 f9 3d 0f e4 8c 3e 16 f4 fd 3d 45 03 7d bc
       0.12195351 0.27517745 0.12400071 -0.015442674
0001f0 b9 ff 03 3e c6 2a f5 3d 04 d4 20 be e3 ea b0 3d
       0.12890519 0.11971049 -0.15705878 0.08638551

gat_universe.att_dst f4 [1, 2, 64]
000000 02 63 04 be 6e 7e 3f 3d 6e d4 8a 3e 46 5d 58 be
       -0.12928393 0.046751432 0.27115196 -0.21129331
000010 02 20 8d be 90 63 b8 bd bd 56 42 3e 6a c0 e1 3c
       -0.27563483 -0.09003365 0.189784 0.02755757
000020 4b 95 80 bd 2b f9 90 3e e3 52 7c be 6b f9 3a 3e
       -0.062784754 0.283151 -0.24640994 0.18259208
000030 2c 5c c0 bd b4 89 92 be 2a c8 97 3d 03 9e 96 be
       -0.093925804 -0.28620684 0.07411225 -0.29417428
000040 b7 78 90 3e 8d 53 87 be 64 44 88 3d 4f 69 98 be
       0.28217098 -0.26430932 0.066536695 -0.29767844
000050 8e 4b 68 be 5f b3 3a be fc 3d 07 3e 7a 03 9a be
       -0.22685072 -0.18232487 0.13207239 -0.30080777
000060 2c 54 87 be 6f f3 22 3e 02 ce 48 3e 8c 9d 2b 3e
       -0.26431406 0.15913175 0.19609836 0.16759318
000070 55 4e 4f bd 26 59 9a be e2 a1 cd 3d 09 84 f3 bd
       -0.050611813 -0.3014614 0.10040642 -0.11890418
000080 61 29 b3 3d 36 b7 fa bd fe e3 74 be 46 e9 aa 3d
       0.08748127 -0.12241976 -0.23915097 0.083452746
000090 c4 1e 0c 3d e6 26 4f 3e b7 aa 6b be 11 4b fc bd
       0.034209028 0.20229682 -0.23014341 -0.12319005
0000a0 33 ce 91 bb 35 f8 89 3e 24 e8 86 be 1d 32 03 3e
       -0.0044496297 0.2694718 -0.26348984 0.12812085
0000b0 c8 43 0d 3e 14 09 50 be 67 2f b0 3d ef 0b 87 bd
       0.13795388 -0.20315963 0.08602791 -0.06594073
0000c0 5e 7f 46 be 49 cc cd bc ec fd 2d be ca 7f de 3c
       -0.19384524 -0.025121825 -0.16991395 0.027160544
0000d0 b8 a4 5a 3e 45 37 8a be c5 1f 90 be f3 40 d8 3d
       0.21351898 -0.26995292 -0.28149238 0.10559263
0000e0 d5 2d 40 bd 80 2e 31 3d 9d ec 78 bd dc 4e 3c be
       -0.04691871 0.043257236 -0.060772527 -0.18389457
0000f0 7d ea 80 3d ce 59 0b be 8f f0 98 3e 6a b8 0f be
       0.06294725 -0.13608477 0.29871032 -0.14035192
000100 c5 f1 20 be 41 4f 29 be c3 90 2a 3d 2b 43 2a be
       -0.15717228 -0.16534139 0.04164196 -0.16627185
000110 47 60 99 3d f8 ec 81 3e 4b 0a 6c be 93 83 5c be
       0.074890666 0.25376105 -0.23050801 -0.21534567
000120 d1 74 a1 3d b6 1a 1c be f1 8b 89 3e 3e b3 3b be
       0.07883609 -0.15244564 0.2686458 -0.18330094
000130 1e 82 6c bd bb 81 ae 3b 02 32 0d 3d b7 09 0f be
       -0.057741277 0.0053255237 0.03447152 -0.1396855
000140 63 2f 8c be b4 33 0c be 47 1c 28 be 54 5a 77 3e
       -0.27379903 -0.13691598 -0.16417037 0.24155551
000150 e0 c0 ac bd 9b d7 99 3e 0b 33 93 3e bf e8 4c 3e
       -0.084352255 0.30047306 0.2874988 0.2001066
000160 4a bb 62 3e 8f 72 79 3e a0 5a 60 be 3d c8 8f be
       0.22141758 0.24360107 -0.2190957 -0.28082457
000170 ae bd 96 3e be 56 8a be 53 ad 9f 3d c2 27 a0 3d
       0.2944159 -0.27019304 0.07796731 0.07820083
000180 61 30 91 3d e4 7b 21 3e bd fb 4b 3e da 52 c4 3d
       0.07089306 0.15769917 0.1992025 0.09586115
000190 52 39 94 3e b6 c9 05 be 0a 36 fd bd 84 61 08 3e
       0.28949982 -0.13065228 -0.12363823 0.1331845
0001a0 97 6e ea 3d bf c1 67 3e 9a 43 00 be 91 10 ef 3d
       0.114468746 0.22632502 -0.12525788 0.11673082
0001b0 7b 9d 64 be 54 2d 92 3d 04 2d 84 bd ce e5 f6 3d
       -0.22325699 0.07137552 -0.064538985 0.120555505
0001c0 5a 35 40 be 70 8b 86 be 35 fe 17 be 84 8a 30 3d
       -0.18770352 -0.26278257 -0.14843066 0.04310085
0001d0 18 9f cd bd 2c 9a 7b 3e 75 62 8c bd e4 71 98 be
       -0.1004011 0.2457053 -0.06854717 -0.29774392
0001e0 af 9f 8d bc 07 51 5d 3e 07 ec 7d 3e a8 fc 60 bd
       -0.017288057 0.2161294 0.24797069 -0.05492845
0001f0 67 db 96 bd 36 37 0d 3b 7d 27 cd bd d5 24 99 3e
       -0.073660664 0.00215478 -0.100172974 0.29910913

gat_universe.bias f4 [64]
000000 00 00 00 00 00 00 00 00 00 00 00 00 00 00 00 00
       0.0 0.0 0.0 0.0
000010 00 00 00 00 00 00 00 00 00 00 00 00 00 00 00 00
       0.0 0.0 0.0 0.0
000020 00 00 00 00 00 00 00 00 00 00 00 00 00 00 00 00
       0.0 0.0 0.0 0.0
000030 00 00 00 00 00 00 00 00 00 00 00 00 00 00 00 00
       0.0 0.0 0.0 0.0
000040 00 00 00 00 00 00 00 00 00 00 00 00 00 00 00 00
       0.0 0.0 0.0 0.0
000050 00 00 00 00 00 00 00 00 00 00 00 00 00 00 00 00
       0.0 0.0 0.0 0.0
000060 00 00 00 00 00 00 00 00 00 00 00 00 00 00 00 00
       0.0 0.0 0.0 0.0
000070 00 00 00 00 00 00 00 00 00 00 00 00 00 00 00 00
       0.0 0.0 0.0 0.0
000080 00 00 00 00 00 00 00 00 00 00 00 00 00 00 00 00
       0.0 0.0 0.0 0.0
000090 00 00 00 00 00 00 00 00 00 00 00 00 00 00 00 00
       0.0 0.0 0.0 0.0
0000a0 00 00 00 00 00 00 00 00 00 00 00 00 00 00 00 00
       0.0 0.0 0.0 0.0
0000b0 00 00 00 00 00 00 00 00 00 00 00 00 00 00 00 00
       0.0 0.0 0.0 0.0
0000c0 00 00 00 00 00 00 00 00 00 00 00 00 00 00 00 00
       0.0 0.0 0.0 0.0
0000d0 00 00 00 00 00 00 00 00 00 00 00 00 00 00 00 00
       0.0 0.0 0.0 0.0
0000e0 00 00 00 00 00 00 00 00 00 00 00 00 00 00 00 00
       0.0 0.0 0.0 0.0
0000f0 00 00 00 00 00 00 00 00 00 00 00 00 00 00 00 00
       0.0 0.0 0.0 0.0
