gat_artifacts_test/dmfm_wei2022.pt (torch, 201775 bytes, 21 tensors)

batch_norm.weight f4 [56]
000000 98 20 7a 3f 12 24 7f 3f a2 b5 7e 3f 31 ea 7a 3f
       0.97705984 0.99664414 0.994959 0.980136
000010 91 a0 7b 3f 8f 90 7d 3f e6 e0 7b 3f 9b 4c 79 3f
       0.9829188 0.99048704 0.9839004 0.97382516
000020 0b fb 7b 3f bd af 79 3f ca 53 7d 3f a0 6c 81 3f
       0.98429936 0.9753378 0.98955977 1.0111275
000030 e7 06 80 3f 0e 56 7c 3f 55 b4 7f 3f 7f 90 7e 3f
       1.0002106 0.9856881 0.9988454 0.99439234
000040 24 ef 79 3f cf d9 7b 3f 98 b9 7c 3f db 04 7d 3f
       0.97630525 0.98379225 0.98720694 0.98835534
000050 27 87 7e 3f 91 0c 7e 3f 83 28 7d 3f e9 21 7c 3f
       0.99424976 0.99237925 0.9888994 0.9848924
000060 62 a4 77 3f 43 8e 79 3f fa c4 78 3f 1a b8 79 3f
       0.96735203 0.974827 0.9717556 0.9754654
000070 90 4b 7e 3f 97 3a 7e 3f 4c 21 7a 3f 02 6f 7b 3f
       0.9933405 0.9930815 0.97707057 0.9821626
000080 91 84 79 3f 72 7a 81 3f 9b 9b 7e 3f f9 5c 7c 3f
       0.97467905 1.0115492 0.99456185 0.98579365
000090 29 ed 7c 3f 97 69 7e 3f 84 90 7b 3f 6b 0c 7b 3f
       0.9879938 0.9937987 0.9826739 0.98065823
0000a0 a3 ec 82 3f d2 29 7e 3f 28 54 7f 3f 4e 89 7d 3f
       1.0228466 0.9928256 0.9973779 0.99037635
0000b0 52 bc 7f 3f 82 e0 7d 3f 1c c9 7c 3f f1 63 7a 3f
       0.9989673 0.99170697 0.9874437 0.9780875
0000c0 8d c6 7d 3f 14 b0 7e 3f ac af 79 3f b5 64 7f 3f
       0.9913109 0.99487424 0.9753368 0.9976304
0000d0 e0 8d 7e 3f 94 bf 7a 3f 99 18 80 3f a2 c5 7a 3f
       0.99435234 0.97948575 1.0007507 0.97957814

batch_norm.bias f4 [56]
000000 75 5f 01 3c cc da 86 3b 9d dd 62 3c 9b bf b3 b8
       0.007896294 0.004115438 0.013846782 -8.5710744e-05
000010 4f 0e 67 3a c8 3d 82 3c 7c 75 38 3c 49 45 f2 3b
       0.0008814083 0.0158986 0.011258479 0.0073935133
000020 05 ae 61 bc b8 2c b1 3b f9 ac 7c 3b cb 54 d1 3b
       -0.0137744 0.005406942 0.0038555248 0.006388282
000030 7b e9 a9 b9 8a be 86 3b 94 aa 30 3a 4d 45 92 bc
       -0.00032408148 0.0041120695 0.00067392853 -0.01785531
000040 85 69 49 3c 75 e2 32 bb 0d 6c 32 bc 24 72 3c 39
       0.012293224 -0.0027295623 -0.010890019 0.00017971598
000050 15 33 ac bb a0 20 a5 39 c6 13 56 3b 31 7f 4c 3c
       -0.005255113 0.0003149556 0.0032665594 0.012481497
000060 b1 67 ff bb e5 5a 2b 3c de 03 85 bb ba e2 21 3c
       -0.0077943434 0.010458683 -0.004059299 0.009880716
000070 ad 9b 12 3c b6 63 d0 bb 56 75 34 bc d0 b0 69 ba
       0.008948249 -0.0063595427 -0.011014303 -0.0008914592
000080 e7 83 19 bc 99 26 2a bc 94 57 1f bc bd 5e 12 3c
       -0.009369827 -0.010385179 -0.00972547 0.00893372
000090 50 fa 83 3c bd 28 3e 3b 42 dc 9e 3b c8 ee 1b bc
       0.01611057 0.002901598 0.004848034 -0.009517379
0000a0 fb db 5e 3b 79 10 72 3c 76 5a 18 3c fc 91 07 bb
       0.003400563 0.014774435 0.009298911 -0.0020686379
0000b0 b2 ff bd 3b 08 c3 0e 3b 18 3b 04 ba d8 45 f1 bb
       0.0057983035 0.0021783728 -0.0005044206 -0.0073630624
0000c0 2b 55 88 ba 1f 62 00 3c a9 5d 2f 3c d9 97 47 3b
       -0.0010401359 0.007835894 0.010703483 0.0030455498
0000d0 32 28 2c 3c 27 15 b0 bb 7b 0f 39 3c 66 0a bd ba
       0.01050763 -0.0053736153 0.011295195 -0.0014422655

batch_norm.running_mean f4 [56]
000000 e2 e3 9b 3a 91 d7 ae 3a cd 2d c0 3a a7 da 6b 3b
       0.0011893476 0.001333939 0.0014662087 0.0035988481
000010 7e 26 9f 3c 34 5a ac 3c a2 fe b6 3c 03 8b 15 3c
       0.019427534 0.021039106 0.022338215 0.009127381
000020 9e 18 84 3c 4c 9e a4 3c 9e 50 19 3b 3a ee 6d 3b
       0.01612502 0.020095013 0.0023394 0.0036305324
000030 04 bb 61 3b 25 a4 9b 3c 12 c9 13 3b e7 e5 91 3c
       0.0034443745 0.018999169 0.0022550267 0.017809821
000040 b8 a8 4a 3c 55 8e 46 42 85 bf 24 42 15 7c 25 42
       0.012369327 49.638996 41.18703 41.371174
000050 32 98 f4 3e 19 e7 e1 3e c5 88 15 3d 1b 08 e2 3c
       0.47772366 0.44121626 0.036507387 0.027591756
000060 b2 06 22 44 a0 0e fa 43 6d e5 b5 3e c0 85 d3 3f
       648.1046 500.11426 0.355266 1.6525192
000070 25 17 46 40 82 88 6c bd 3b 2b 7e 3f ea 84 e7 3a
       3.0951626 -0.05774737 0.99284714 0.0017663513
000080 36 82 17 bd 72 b1 17 37 e3 2f f2 36 49 98 a1 bd
       -0.036989413 9.041616e-06 7.2177368e-06 -0.07890374
000090 d1 29 ac 3d 24 4a 9e bd 4b fa b6 3c e2 e3 9b ba
       0.08406413 -0.07728985 0.022336146 -0.0011893476
0000a0 3a ee 6d bb 04 bb 61 bb 9a 3b ae 42 70 be a5 42
       -0.0036305324 -0.0034443745 87.11641 82.87195
0000b0 92 c5 d6 3e 78 3b b1 42 f2 62 a2 42 af 9a d3 3e
       0.4194761 88.61615 81.19325 0.41328952
0000c0 d8 42 b5 42 18 13 9d 42 40 84 dd 3e 66 29 c3 42
       90.630554 78.53729 0.4326496 97.58086
0000d0 38 91 8c 42 6a db e2 3e 3f 31 56 40 b4 76 9c 41
       70.28363 0.44308025 3.3467557 19.55796

batch_norm.running_var f4 [56]
000000 d1 56 11 3a b9 c5 33 3a 8a 64 dc 3a 3c a9 78 3b
       0.00055442477 0.0006857771 0.0016814631 0.0037942668
000010 32 3b 6e 39 d2 d9 49 39 3b 38 2e 39 f0 43 db 3e
       0.000227195 0.00019249998 0.0001661488 0.4282527
000020 e5 cb 4d 3f 71 e8 b2 3f eb 60 e9 3a 06 d2 4b 3b
       0.80389243 1.3977185 0.0017805373 0.0031100526
000030 17 14 d6 3b 33 ca 7a 3c 47 df c2 3b 31 9b 6d 3c
       0.0065331566 0.015306997 0.005947027 0.014502333
000040 8c da 6c 3c 75 5b e0 42 47 75 17 44 22 b4 0d 44
       0.0144564025 112.17863 605.83246 566.8146
000050 cd 20 60 42 dc 39 1a 42 be 13 ce 40 70 a7 07 39
       56.032032 38.556503 6.43991 0.00012936979
000060 ba 76 3e 4a cb 72 cf 49 d8 f7 63 3f d0 a1 c3 40
       3.1205585e+06 1.6994174e+06 0.89050055 6.1135025
000070 6e 46 01 43 45 c9 4d 3b 4b d7 d0 38 c2 a1 c9 35
       129.27512 0.0031400484 9.958314e-05 1.5022745e-06
000080 bc 6d 3b 40 59 c7 10 31 2a af 14 30 73 db 6f 3b
       2.9285727 2.1068074e-09 5.409101e-10 0.0036599308
000090 0d de 41 3c af 82 b5 3f 12 33 a8 3f d1 56 11 3a
       0.011832726 1.4180506 1.3140585 0.00055442477
0000a0 06 d2 4b 3b 17 14 d6 3b 38 1d 47 47 4e 01 2d 47
       0.0031100526 0.0065331566 50973.22 44289.305
0000b0 bd 5e 38 3d 67 81 4c 47 3b cc 22 47 b8 68 b4 3c
       0.045012224 52353.402 41676.23 0.02202259
0000c0 9d f4 56 47 e4 89 12 47 e4 d7 39 3c dc 8d 7c 47
       55028.613 37513.89 0.011342976 64653.86
0000d0 f9 de df 46 c3 01 90 3b f4 b8 a2 41 fa a1 02 47
       28655.486 0.0043947413 20.34031 33441.977

encoder.0.weight f4 [128, 56]
000000 70 cf c0 bc ea 78 7a 3d e5 08 9d 3d eb 22 b5 3b
       -0.023536414 0.06115047 0.07667712 0.005527844
000010 c6 d6 77 3d cc e1 e9 bc 93 2c d1 bd 81 f5 5b bd
       0.06050756 -0.028550051 -0.1021358 -0.053700928
000020 cf ef c8 3d e0 83 98 3d f5 29 f0 3d ef df 15 3c
       0.09811365 0.07447028 0.11726753 0.009147628
000030 62 4c 00 be 2d 72 d1 bd b8 03 f6 3c 80 11 fb 3d
       -0.12529138 -0.102268554 0.03003107 0.12259197
000040 59 97 da bd ee 23 a9 bd 3a c7 a8 3d 9a f7 cc bd
       -0.106733985 -0.08258806 0.082411245 -0.10008164
000050 cc 33 72 3c da 91 82 3d e6 f6 03 3e ff 99 66 3d
       0.014782857 0.06375475 0.12887153 0.056299206
000060 94 34 9c bd 00 3f f4 bc d5 91 55 bd a8 76 d8 bd
       -0.07627216 -0.029815197 -0.05214103 -0.10569507
000070 e4 10 b3 bc cc 1d 87 3d 2c 5a ad 3d a2 6b 33 bb
       -0.02185864 0.0659748 0.084644645 -0.0027377387
000080 e2 11 a5 bd 23 1a 01 bc 75 5c be bd d9 98 b9 3d
       -0.080600515 -0.007879767 -0.092949785 0.090623565
000090 3f 36 21 bd 71 d4 97 bd 45 e2 dd bd 5c 5f 01 be
       -0.039358374 -0.07413567 -0.10834173 -0.12634033
0000a0 37 48 80 3d fc 0a 31 bc 59 2a 99 3d 6b 55 95 bd
       0.06263774 -0.010805842 0.0747878 -0.07291683
0000b0 be c2 9a 3d 36 9f 8d bd d5 01 30 bd d2 d6 b4 bc
       0.075566754 -0.06915133 -0.042970497 -0.02207509
0000c0 70 ea e7 bd 12 b2 a1 bd 27 15 2a 3b b0 fe 31 bc
       -0.11324012 -0.07895292 0.002595255 -0.010863945
0000d0 5b 44 90 bd d7 1e 3a 3d d7 20 8e bb fd f2 fc 3d
       -0.07044288 0.045439567 -0.004337411 0.12351034
0000e0 1c c6 f3 bd 26 4e d1 bd e2 8a ab bd 7e 28 29 3d
       -0.11903021 -0.10219984 -0.08376099 0.041298382
0000f0 86 16 72 3d 2d 02 d7 3d da 4c c9 bd 7d 23 60 bc
       0.05910351 0.10498462 -0.098291114 -0.013680336
000100 92 91 00 3d e8 60 29 3d e0 75 ae 3d 74 c8 7a 3d
       0.031388827 0.041352183 0.085185766 0.061226323
000110 aa 20 01 3e 50 7a 95 3d a3 95 fc 3d a0 f3 27 bd
       0.12610117 0.0729872 0.123332284 -0.041003823
000120 8a 2b c1 3d 15 04 45 3c d1 d6 e9 3d ef 90 89 3c
       0.094321325 0.012024899 0.11417926 0.016792743
000130 40 f7 b7 3d 8e 39 54 bd 5d 8e ae 3d c5 1f 92 3b
       0.08982706 -0.0518127 0.085232474 0.0044593536
000140 22 f9 c8 bd 30 9d ed 3d fd fc 8f 3d d3 77 47 bd
       -0.09813143 0.11602247 0.070306756 -0.048698258
000150 4d 30 e7 bd 18 b1 8f bd 24 fd f1 3d dc 24 f4 bc
       -0.112885095 -0.070162 0.11815861 -0.029802732
000160 4a 54 f0 3d fa db a7 3c f6 76 9a 3d e0 b3 21 3d
       0.11734827 0.020490635 0.07542221 0.039478183
000170 3f 2b e5 bc 63 67 2e bd ab 35 b5 bd 8a d6 7f bd
       -0.027974723 -0.042579066 -0.08848127 -0.06246046
000180 ad 6f 00 be 71 2c 36 bd 90 ed 79 bd 98 0b 7c bc
       -0.12542601 -0.044475976 -0.061017573 -0.015383624
000190 44 78 ea bc b9 b9 c3 3c fa 0d 5b 3d f3 73 06 be
       -0.0286218 0.02389227 0.053480126 -0.13130169
0001a0 c3 51 da bc 72 a7 01 be 4b f6 93 bd 18 5d e8 3d
       -0.026650315 -0.12661532 -0.07224711 0.11345881
0001b0 a3 b1 77 bd 55 1e 3f 3d 2b a5 f0 3d 96 93 7c bd
       -0.060472142 0.046659786 0.11750253 -0.061664186
0001c0 ad 50 79 3d c9 a3 04 3e 92 98 e7 3d c6 b1 7b 3d
       0.060867954 0.12953104 0.11308397 0.061448835
0001d0 9d 52 e7 3d e7 b5 d7 bd 1f 95 d2 39 bb d4 15 bd
       0.11295054 -0.10532742 0.00040165425 -0.03657983
0001e0 1b 60 b0 3d 27 16 04 be ca 28 93 bb 64 6a c3 3d
       0.08612081 -0.12899075 -0.0044909464 0.09541777
0001f0 65 c5 01 be 66 21 31 bd 24 94 6d bd 7f 59 a8 bd
       -0.12672956 -0.04324474 -0.058002606 -0.08220195
000200 6f ac 03 be a4 b7 3a 3d f8 d3 00 3e b1 2e 04 3e
       -0.12858747 0.04558529 0.1258086 0.12908436
000210 66 c7 dc 3a f4 24 ce 3d d2 0a 0b bd 8a 5f 2d bd
       0.0016844093 0.10065642 -0.033945866 -0.04232744
000220 a5 ca c4 3d 3e a6 36 bc 5f 41 c8 bc 91 8c ad 3d
       0.09608964 -0.011148034 -0.024445234 0.084740765
000230 f3 1b 44 bd c3 a9 2e bd 43 5c e6 bd 2a 5e af 3d
       -0.047878217 -0.042642366 -0.11248066 0.08562882
000240 e1 f9 f4 3d 87 89 9d 3c 07 6d 28 3d 7d 66 c4 3b
       0.11961723 0.019230617 0.0411196 0.005993663
000250 3a 3c 0b 3d 19 da c6 bd 5c 18 e1 bd 1c 84 94 bd
       0.033992983 -0.097095676 -0.10990974 -0.0725176
000260 06 9e ae bd b9 bd 9e 3b 89 39 08 bc b7 44 4b 3d
       -0.08526234 0.004844394 -0.008314499 0.04962608
000270 8c 91 b0 bd 98 bb 0a bc 9f 9b d1 3d 41 a3 8c 3d
       -0.08621511 -0.008467577 0.102347605 0.06867076
000280 42 79 da 3d 1f 48 11 3d 10 57 b1 bd e2 ca 4d 3d
       0.10667659 0.03546917 -0.08659184 0.050242312
000290 55 13 32 3d 12 2b 37 3d 96 b3 66 bd e6 cf cf bc
       0.043475468 0.04471881 -0.05632361 -0.025367688
0002a0 90 76 f9 3d 54 2a d6 bd 74 30 c3 bc c6 17 bd bd
       0.12180817 -0.10457292 -0.023826815 -0.0923305
0002b0 bf bc c4 3d 81 3b 32 3d 01 af 54 bc 2b 6f 47 bd
       0.09606313 0.04351378 -0.012981177 -0.048690002
0002c0 80 60 d3 bd 96 fe fd 3d 5b 7f f7 bd 1c d0 fc bd
       -0.1032114 0.12402074 -0.12084838 -0.12344381
0002d0 ee 28 80 3d 1d 18 c8 3d 59 73 fb 3c 16 44 b4 bc
       0.06257807 0.09770224 0.03069465 -0.022005122
0002e0 3b db 5e 3d c1 be b9 bd 09 77 ce 3d c0 9a 06 3d
       0.054408293 -0.090695865 0.10081298 0.032862425
0002f0 da 1a ba 3b 21 99 f9 3d e1 17 b2 bd d8 94 0a be
       0.0056794705 0.1218741 -0.08695961 -0.13533342
000300 91 6c 48 bd 24 42 9a 3d a7 b4 64 bd 65 06 96 3d
       -0.048931662 0.075321466 -0.055836346 0.073254384
000310 91 80 82 bd 85 64 5a bd 05 dc 59 3d 5f 6d d3 3d
       -0.06372178 -0.05331852 0.053188343 0.10323595
000320 87 45 fe bd 8e cb d5 3d 0e 05 04 be a3 2c 04 bc
       -0.12415605 0.104392156 -0.12892553 -0.008067283
000330 16 9a aa bb 9b 5f e8 bd 6f 3e 7d 3d 1f 4e 98 bd
       -0.0052063568 -0.1134636 0.06182712 -0.074367754
000340 e8 3b b5 3d 46 ab c3 bd 18 f3 81 bd 58 67 f4 3d
       0.08849317 -0.09554152 -0.063451946 0.11933774
000350 52 80 83 bd 0b b0 04 be 74 91 60 bd 71 39 82 bc
       -0.064209595 -0.1295778 -0.054826215 -0.01589653
000360 5d e4 ff 3d c9 94 96 bd 98 5c d2 bd 95 b4 00 3e
       0.12494729 -0.07352597 -0.10271567 0.12568887
000370 35 42 73 bd f9 30 c9 3c 47 0b 5e 3d c6 d0 2b bc
       -0.05938931 0.024559485 0.054209974 -0.010486787
000380 f7 50 a7 bd 48 57 e8 bc be 43 b7 bb 44 ba d2 3d
       -0.0816974 -0.028361931 -0.0055927923 0.102894336
000390 47 8f 0c bd 0b 8c 4e 3c af 07 ac 3d 12 bb a5 bd
       -0.034316327 0.012606631 0.08399903 -0.080923215
0003a0 8a 3d 9f bd a7 e8 c7 bd bb 3c 85 3d 53 5a f8 ba
       -0.077754095 -0.09761172 0.06505724 -0.0018947817
0003b0 72 15 81 3d de ba a7 3d 21 64 01 be 4a b3 c1 bd
       0.063029185 0.08189939 -0.12635852 -0.09458025
0003c0 a4 ec a3 3d e6 1d 5f bd f0 b6 84 bd ab 14 ed 3c
       0.0800412 -0.054471873 -0.06480205 0.02894052
0003d0 e3 94 07 bd 09 74 0c ba 72 01 d3 3d 1e 46 f8 bd
       -0.033100974 -0.0005357867 0.1030301 -0.12122749
0003e0 06 11 28 bd de fc dd 3d d6 05 3f 3c 82 bd 31 bb
       -0.04103186 0.10839246 0.011659106 -0.0027121012
0003f0 be ec cf bd bb a7 1e 3b f3 3c f5 3d 83 b4 3e 3c
       -0.10152577 0.0024208862 0.11974516 0.011639717

encoder.0.bias f4 [128]
000000 fc 7f c0 3d 30 6b 1a 3d 40 33 26 bc 2a db d7 bd
       0.09399411 0.03769988 -0.010144055 -0.10539849
000010 a7 d9 39 3a 64 4a 0e 3d a6 34 62 bd fd 32 16 3d
       0.00070896227 0.034738913 -0.05522599 0.03666972
000020 19 e9 04 3c fb 03 af bb 8d 89 b9 bd 4a 34 4e 3d
       0.008112215 -0.0053410507 -0.09059439 0.050342835
000030 78 d5 8a bd 6b ca a3 bd b1 2b 82 bd a1 6e a8 3d
       -0.06778997 -0.079975925 -0.0635599 0.08224226
000040 23 29 57 bd e4 6a f9 b9 c7 12 61 3d 08 98 44 bc
       -0.052529465 -0.0004757262 0.054949548 -0.011999138
000050 a7 84 cf bd 39 55 1c bd 97 05 90 3d 13 61 0a 3d
       -0.10132723 -0.038167212 0.07032316 0.033783983
000060 1c 79 a7 3d 89 90 10 3e 0c 54 96 3c 91 b1 03 be
       0.08177397 0.14117636 0.018350624 -0.12860705
000070 e9 d1 f3 bd 10 a9 ee 3d 6e 8a ec bd 0a d7 05 3c
       -0.119052716 0.1165334 -0.11549841 0.008168945
000080 65 f8 b3 3d 95 07 84 3d 4a 13 f0 3d a0 b7 02 be
       0.08787612 0.06446759 0.11722429 -0.1276536
000090 50 0c 9c 3b 88 f8 98 3d b0 f8 c1 bd df d8 25 bc
       0.00476221 0.074692786 -0.094712615 -0.010122507
0000a0 5b eb 61 bd 7b 49 f4 3c cb aa 2c 3d 67 6b 07 be
       -0.055156093 0.029820194 0.04215507 -0.13224564
0000b0 63 fc f6 bd c3 49 87 bc e2 7f eb 3d 78 b3 0d 3c
       -0.12059858 -0.016514665 0.11499001 0.008648746
0000c0 af 47 21 bd ac 1a c0 bd ed 74 8d bd f2 cc 8b bd
       -0.039375003 -0.09380087 -0.069070674 -0.068261996
0000d0 70 49 07 be f2 08 f8 3d ad 9b 4e 3b b3 4b d6 bd
       -0.13211608 0.12111081 0.0031525895 -0.10463657
0000e0 0d bb c7 3d bc 73 85 bd fe 06 a8 bc 09 f3 9d 3d
       0.09752474 -0.06516215 -0.020511147 0.07712371
0000f0 eb 0c 1a 3d 88 7e 8f 3d fa 7a b3 3d 9c 78 d5 bd
       0.037609976 0.07006556 0.0876369 -0.10423395
000100 54 f0 a6 bd b6 52 7f 3d 1f 09 ee bd b5 d6 92 bd
       -0.08151308 0.06233474 -0.116228335 -0.07169858
000110 7f 3b e3 3d 86 d3 ec 3d b8 4c af bd bf 72 9a bc
       0.11095332 0.115637824 -0.08559555 -0.018853543
000120 6c bf 00 3e ab a9 de 3c a1 46 b4 3c 52 89 e7 bc
       0.12573022 0.027180513 0.022006335 -0.028263722
000130 76 c9 c5 3d bc 0e 56 3d d7 64 3e bd 79 33 b3 bd
       0.09657566 0.052260146 -0.046482887 -0.08750052
000140 34 f3 c7 bd cd 68 00 3e 09 d2 b7 bd 60 dc 98 3c
       -0.09763184 0.12539978 -0.08975608 0.01865977
000150 e4 f0 72 bd c4 05 0a bd 09 fc ce bd 69 b4 fa bd
       -0.059311762 -0.033696905 -0.10106666 -0.12241442
000160 df f3 5b bd fc 94 9c bd 60 00 f6 bb e7 73 9f 3c
       -0.05369937 -0.07645604 -0.007507369 0.019464446
000170 29 80 03 3e 8f 9d ee bd 3b 9c cb bc ca ac d3 bd
       0.12841858 -0.11651146 -0.02485477 -0.10335691
000180 95 30 50 bd a9 8d e1 bd a9 ca b1 3d f4 c6 22 bd
       -0.05082758 -0.11013348 0.086812325 -0.039740518
000190 0f 62 8f 3a 5e 16 b3 bd b1 70 d0 bc 8b eb f0 3d
       0.0010939258 -0.087445006 -0.02544436 0.11763676
0001a0 c6 17 ac 3d 43 8a 32 bd ef 6d d6 bd 30 a4 df bd
       0.08402972 -0.043588888 -0.10470187 -0.10919988
0001b0 f2 86 db bd 04 72 8f 3d fa d6 a4 3c 96 ed 5f 3d
       -0.10719098 0.07004169 0.02012204 0.05466994
0001c0 19 b5 e8 3b c3 bc 9a 3d 30 65 d7 bd e5 ae fe 3d
       0.0071016666 0.07555535 -0.10517347 0.12435702
0001d0 2a 56 92 bc 70 15 9a 3c c6 e7 e3 bd 51 08 df 3d
       -0.017863352 0.01880905 -0.11128192 0.10890258
0001e0 d2 b9 c6 bc 9f ea b0 3d e1 b4 ed bb 34 18 7f 3d
       -0.024258528 0.086385004 -0.0072542285 0.06227894
0001f0 f2 88 07 3d f0 0b cb bd 11 e4 ea 3d 2c ab 86 bd
       0.033089586 -0.09914386 0.114692815 -0.06575617

encoder.3.weight f4 [64, 128]
000000 56 97 f2 bc 8a 63 8f bd c4 c7 11 3d 27 68 7c 3c
       -0.029613178 -0.070014074 0.035590902 0.015405691
000010 c9 f7 6b bd c2 57 a0 3d 87 bf e3 3b e0 3e d5 bb
       -0.057609353 0.078292385 0.006950322 -0.0065077394
000020 02 aa 16 bd 5c b5 6a bd 5c 4c 1a 3c 49 56 a1 bd
       -0.036783226 -0.057301864 0.00941762 -0.07877786
000030 47 a4 04 bd 4e 82 15 bd f2 5a 87 bc 0a 3b a3 bd
       -0.03238323 -0.03650122 -0.016522858 -0.07970245
000040 f0 a3 8c 3d c9 d2 95 bc 0f ac cf 3c 4e c2 c6 3c
       0.06867206 -0.018288987 0.025350599 0.024262574
000050 82 6a 12 3d 5a 75 ca 3c 65 40 75 bd 84 55 ea 3c
       0.035746105 0.02471416 -0.059875865 0.02860523
000060 ff 31 66 bd 76 ce 86 bd f9 27 29 bd 8d 7c a2 3c
       -0.056200024 -0.06582348 -0.041297887 0.019834781
000070 d5 e5 68 bc 79 1a 0f bd 89 93 5a bd 32 94 a3 bd
       -0.0142149525 -0.034937356 -0.053363357 -0.079872504
000080 10 05 50 bd f7 6c 9b 3c 60 f8 94 3d f1 3d c3 bc
       -0.050786078 0.018972857 0.07273936 -0.023833247
000090 ec 71 85 37 90 ce 43 bd e7 c7 00 bd f5 a4 91 bd
       1.5907885e-05 -0.047804415 -0.03144064 -0.07111541
0000a0 e5 05 e9 3c e2 9d a6 bd b1 6b 14 bd c9 24 48 bd
       0.028445194 -0.081355825 -0.036235515 -0.048863206
0000b0 ca 76 c8 3b 73 af a4 3d 65 da 9c 3d f9 e9 7f bd
       0.0061176764 0.08041277 0.07658843 -0.062478993
0000c0 fd fe 54 3d ed d5 24 bd 0d 6c a0 3d 91 64 81 3d
       0.05200099 -0.040243078 0.07833109 0.0631801
0000d0 25 c7 0b 3d 50 d8 6b 3d 28 2a 4b 3d 7f b1 3e bb
       0.034125466 0.05757934 0.04960075 -0.0029097495
0000e0 e7 f7 55 3b e5 ae 91 bd 0e be 9d 3d dc a6 7d 3d
       0.0032648982 -0.071134366 0.07702266 0.061926708
0000f0 ad fd 8a 3c 27 db 41 bd df 79 18 bd bb 2b 81 3b
       0.016966665 -0.04732814 -0.0372256 0.0039419807
000100 47 f1 56 3d 44 e6 82 bc 16 e7 da bc a1 ab 3b bd
       0.052476194 -0.01597894 -0.026721518 -0.045817975
000110 4d 1e 19 3d 58 e3 41 bc 5a ab 94 bd c9 92 89 3d
       0.037382413 -0.011833988 -0.07259245 0.0671745
000120 fd 3e ba 3c 6f 4b 81 bd 9f 29 81 bd 35 f0 f3 bc
       0.022735113 -0.06313216 -0.06306767 -0.029777626
000130 f6 33 9c bb b5 7e 5d 3d 67 91 95 bb ab 9c d3 bb
       -0.0047669364 0.054075915 -0.0045644525 -0.0064578853
000140 89 c9 da 3c c8 a3 d7 3c df 92 86 3c 86 80 63 bc
       0.026707428 0.026323214 0.016427455 -0.013885623
000150 2c 20 47 3d d2 f5 90 bd 1c 2b 8e 3c 9b d8 b1 3d
       0.048614666 -0.070781365 0.01735454 0.08683892
000160 1a e2 d3 3c 3a f4 2b bc fb 16 a8 bd 6e e0 81 bd
       0.02586465 -0.01049524 -0.08207508 -0.06341635
000170 00 17 b5 bd 50 3c 96 bd 9a d1 26 bd 95 f9 f1 bc
       -0.088422775 -0.073357224 -0.040727235 -0.029537955
000180 fe c7 b5 bc b8 cc 42 3d 3b a4 b2 3d 72 8f a5 3c
       -0.02219009 0.047558516 0.08722731 0.020210002
000190 4c cc 16 3d 21 86 de bc 32 47 0a bd f7 fb af bd
       0.036815926 -0.027163567 -0.033759303 -0.0859298
0001a0 2a 49 99 3d 10 40 72 3d b4 c9 00 3d 0b d0 22 3d
       0.07484658 0.059143126 0.03144236 0.039749186
0001b0 fc 16 53 bd a0 e6 29 3d b6 fd 77 3b a7 e7 5b bc
       -0.05153559 0.041479707 0.0037840432 -0.013421929
0001c0 2a b6 af bd 21 83 b3 bd 2c ce a9 bb 76 56 85 bd
       -0.08579667 -0.08765245 -0.0051820483 -0.06510632
0001d0 35 91 8e 3d 3e 34 a5 bd 88 15 ee bc 6a fc 3e bd
       0.0696129 -0.08066605 -0.029063001 -0.04662744
0001e0 57 3e 24 bd 0b f4 69 3c 8d 23 4b 3d 96 27 2e 3b
       -0.040098514 0.014279376 0.04959445 0.0026573888
0001f0 ca 2c 7f bc 7c 57 4e bd 70 37 44 bc 91 39 9c bd
       -0.015574643 -0.0503764 -0.011976108 -0.076281674
000200 59 4f 59 bc 1e b3 a0 3d ad a5 29 3d 34 47 79 3d
       -0.013263547 0.07846664 0.041417766 0.06085892
000210 56 38 95 bc 82 77 50 3d 3f 65 f7 3c f7 97 56 3d
       -0.01821534 0.05089522 0.030199645 0.05239102
000220 24 18 75 bd 00 a6 14 bd 12 f6 71 3c ec a6 b9 bc
       -0.059837475 -0.036291122 0.01476814 -0.022662602
000230 71 1c 29 3d 27 22 be bc ab 54 7f 3d 33 34 61 bd
       0.04128689 -0.023209644 0.062336605 -0.05498142
000240 58 f6 7a bd 05 52 9b 3c 70 6a 85 bd 55 ab 1a 3d
       -0.061270088 0.018960008 -0.06514442 0.03776105
000250 95 06 91 3d 30 27 77 bd 7b 5f ae 3d aa b4 c9 bc
       0.070813335 -0.060340106 0.08514305 -0.02462228
000260 7a 2c d1 3c b2 d8 c2 3b 1b 9f 2d bd a7 ed 57 3c
       0.025533903 0.0059462423 -0.042388063 0.013179219
000270 ba 26 18 3d 33 d6 9a 3d 52 77 a7 bd 8f cf b6 3c
       0.037146308 0.075603865 -0.081770554 0.022315769
000280 39 68 47 3d 89 2d 21 bd 98 3f 9c bd 30 ee b7 bd
       0.04868338 -0.039350066 -0.07629317 -0.089809775
000290 da 15 63 bd a3 f5 a3 bc 33 95 91 3d 84 92 c3 bc
       -0.05544076 -0.02001459 0.071085356 -0.023873575
0002a0 9d 9b e5 bb 76 cc 59 bc 25 01 12 3d 55 99 a5 bd
       -0.007007076 -0.013293376 0.035645623 -0.080858864
0002b0 55 b0 89 3d 30 1b 27 3d 5d d0 44 3d e7 d0 91 bc
       0.06723086 0.040797412 0.048050273 -0.017799808
0002c0 43 c0 7e 3d af 22 12 bc 8b c0 80 3d 98 68 e5 bc
       0.062195074 -0.008919402 0.06286725 -0.028003976
0002d0 dd 32 04 bc 4a c4 28 3d 81 1e 95 bd f9 af 27 bb
       -0.008068767 0.04120282 -0.07281209 -0.0025587066
0002e0 5e a0 aa bd 73 87 80 bd 13 1b 4d bd 7a 3d 8f bd
       -0.08331369 -0.06275835 -0.050074648 -0.069941476
0002f0 bc d4 89 3d 2a d3 b2 3d 0c 49 1d 3d 05 83 f3 3c
       0.06730029 0.087316826 0.03839974 0.02972556
000300 ae 13 60 3c be 3d ba 3c df 7e 2d bd 75 54 81 bb
       0.013676567 0.02273452 -0.04235732 -0.0039468356
000310 55 9a 99 3b 7c 6a 0a bd b9 96 82 bd 90 c2 bf bd
       0.0046875873 -0.033792958 -0.06376404 -0.09363282
000320 7f 49 93 3d cb db 12 bd 41 03 77 3d 26 dc 5a bd
       0.07191753 -0.035854142 0.060305838 -0.053432606
000330 46 bb e0 3c 9a 2f 91 3a 2f fa 7b bd bd db 58 bd
       0.027433049 0.0011076808 -0.06151789 -0.052943934
000340 32 d7 43 3d 04 9e 02 3d d8 cf cc bc dc 67 11 bc
       0.047812648 0.031888977 -0.025001451 -0.00887486
000350 3d 6f 44 bd 0c 49 fb 3a 03 1b 20 bd ab 23 66 bd
       -0.047957648 0.001917155 -0.03908826 -0.05618636
000360 be 2e ad 3d ba 19 94 3d ea 42 84 3c 29 43 8d bd
       0.08456181 0.072314695 0.016145188 -0.068975754
000370 4a 22 f6 3b 1d 19 62 bd 9a 04 84 3d 62 0a b5 3a
       0.007511412 -0.05519973 0.0644619 0.0013812298
000380 6c 60 87 3d a8 d8 60 bd 96 72 13 3d 80 df 86 3d
       0.06610188 -0.05489412 0.03599795 0.06585598
000390 a2 ad 28 3d ff 19 9f bd b4 7d 31 3d 7e 28 9a 3d
       0.041181214 -0.0776863 0.04333277 0.075272545
0003a0 80 79 f7 3c 94 19 3d bd 17 c9 7c bd 00 10 a9 3b
       0.030209303 -0.04616697 -0.06171521 0.005159378
0003b0 b2 ef 89 3d be bd 52 3d 05 4a 84 bd fd 15 af 3d
       0.067351714 0.051450484 -0.064594306 0.08549116
0003c0 d3 fd 87 3c 18 c6 9f 3d 1f ec 9f 3c 98 10 8b bd
       0.016600525 0.07801455 0.019521771 -0.067902744
0003d0 50 3b 5a 3d 37 02 c9 bb 00 4e f2 bc 3e eb 44 3d
       0.05327922 -0.0061342972 -0.029578209 0.048075907
0003e0 4d 35 27 3c 55 2e e9 bb 1c 0b bc 3b c2 eb a9 bd
       0.010205579 -0.007116119 0.005738629 -0.0829692
0003f0 79 ae 7b bd a9 90 5c 3d c8 b8 78 bd d5 f2 11 3b
       -0.061445687 0.053848896 -0.060723096 0.0022269983

encoder.3.bias f4 [64]
000000 f8 3f 65 3d 97 63 8b bb c8 95 07 bd 45 11 35 3c
       0.05596921 -0.0042538154 -0.033101827 0.011051481
000010 55 d9 76 3d 1a 52 4a bd ee 53 5f 3d 42 0e 6b bd
       0.060265858 -0.049394704 0.0545234 -0.057386644
000020 61 d3 92 3d 87 94 a9 bc 59 96 35 bd 71 d8 39 bd
       0.071692236 -0.020700706 -0.044332836 -0.04537243
000030 bc e8 5f 3d 9b 8a 00 bd 5d a2 96 3d 78 8a 11 3d
       0.054665312 -0.031382184 0.07355187 0.035532445
000040 e5 05 6f 3d 4e 7f 7d 3d 39 8e 66 bd 87 30 3e 3d
       0.05835523 0.061888985 -0.056287978 0.046432998
000050 63 32 82 bd 97 48 11 3d 5e 18 bd bd f3 af b6 39
       -0.06357267 0.035469618 -0.09233163 0.00034844838
000060 47 c6 34 3d df cf 3d 3d e5 d4 82 bd 12 0b 9e bd
       0.044134405 0.04634082 -0.06388263 -0.07716955
000070 d4 2b d5 3c f1 c0 90 3d b2 a5 75 3c 3e 2b 9f 3d
       0.026021875 0.07068051 0.014993118 0.0777192
000080 82 15 15 3b 06 61 b7 3d 86 89 4e 3d 4a 84 91 3d
       0.0022748415 0.089540526 0.05042412 0.0710531
000090 78 c9 27 3c 0f a9 8f 3c 51 21 f1 3b 23 e6 98 bd
       0.010240905 0.017536668 0.007358708 -0.0746577
0000a0 0f 41 34 bd 67 4b 56 3c 97 85 48 3d 49 c7 7b bd
       -0.044007357 0.013079501 0.048955526 -0.06146935
0000b0 f3 08 a4 3d 09 65 88 bd 75 98 92 bd 25 85 76 bc
       0.080095194 -0.06659896 -0.07157985 -0.015046393
0000c0 5c 85 07 b9 be 89 0d 3c 1e 31 df bc 8b cb 53 bd
       -0.00012924284 0.008638797 -0.0272451 -0.051707786
0000d0 d0 82 1b 3c 8c f0 f1 bc cb 17 4e bc 32 71 9c 3d
       0.009491637 -0.029533647 -0.012578915 0.07638778
0000e0 ee 42 36 bc 65 47 a1 3d 64 e8 d8 3c 03 45 46 3c
       -0.011124356 0.078749456 0.026478 0.012101415
0000f0 9c 56 4e bd f0 e1 53 3d 13 10 bf 39 39 af 5d bd
       -0.050375566 0.051729143 0.00036442335 -0.054122183

gat_industry.att_src f4 [1, 2, 64]
000000 93 e4 d2 bd 83 e4 f7 bd 6b 72 65 be 67 73 3f bd
       -0.10297503 -0.12104132 -0.22406928 -0.046740916
000010 b3 6a 17 3e 4e a7 14 be cc dd 3d 3d cb be 50 be
       0.14786796 -0.14516947 0.0463541 -0.20385282
000020 25 16 73 be bc 64 ff 3d d0 ec 98 be ff 9b 32 3d
       -0.23738916 0.124703854 -0.29868174 0.0436058
000030 c9 3a 8f be 62 66 cc 3d 7e 5d a8 bd 59 77 38 be
       -0.27974537 0.099804655 -0.08220957 -0.18014278
000040 36 92 d2 3d 29 6e 0c be 9a 70 01 3d 9a 20 00 3e
       0.10281794 -0.13713898 0.031601526 0.12512437
000050 fb e3 f9 bd a0 90 70 3d 8d 25 4e 3e 91 51 26 be
       -0.12201687 0.058731675 0.20131512 -0.16242053
000060 2b 74 79 be db 14 05 3e 75 28 5b 3e b0 2e 33 be
       -0.24360721 0.12996237 0.21402152 -0.17498279
000070 39 d4 88 be 34 e2 43 bd 68 ee 8b 3e 98 11 93 3e
       -0.26724413 -0.047823146 0.27330327 0.2872436
000080 d5 e5 ad bd 18 42 26 3e f3 ed 71 be 5e bb 9c 3d
       -0.084911026 0.1623615 -0.23625927 0.07652925
000090 f7 a8 1f 3d 10 b6 0f 3e 57 ee 1b bc 0a 43 36 3e
       0.038979497 0.14034295 -0.009517274 0.17799011
0000a0 28 8f 0a bd 75 6b 69 be b1 ca 39 3e 73 d6 61 3d
       -0.03382793 -0.22794898 0.18143727 0.055136155
0000b0 f9 be 8b be 9d f1 9c 3e d1 67 45 be 37 f0 4b bc
       -0.27294138 0.30653086 -0.19277884 -0.012447408
0000c0 c2 28 3a 3e dd 02 68 3e 55 56 ff bd c6 2c 5b be
       0.1817961 0.22657342 -0.124676384 -0.21403798
0000d0 3c fa 0a 3e 47 86 92 be 42 e4 6a be 2f d7 57 3e
       0.1357202 -0.2861807 -0.22938636 0.2107818
0000e0 27 aa 87 3e 0a fb 2e 3d 48 f2 70 3e 64 63 27 3e
       0.26497003 0.04271988 0.23529923 0.16346508
0000f0 9e e3 cd 3d a5 11 87 3e bb 66 2b 3e 47 32 91 3e
       0.1005318 0.2638065 0.16738407 0.2835867
000100 69 d2 8e bc 25 16 2d bc 0a dd 70 be df f4 74 3e
       -0.017434316 -0.010564362 -0.2352182 0.23921536
000110 4d 46 bc 3c 9a 8f 9f bd 8c 26 93 be bf 54 84 be
       0.02298274 -0.07791062 -0.28740346 -0.25845906
000120 76 08 04 3e 8e 92 87 3e 27 21 b4 3d e0 bc 14 3e
       0.12893853 0.26479 0.08795386 0.14525175
000130 3f 34 95 3e 94 81 25 be 27 0f 90 be af 9c c6 bd
       0.29141423 -0.16162711 -0.2813656 -0.09697854
000140 1b f7 25 be c7 5a 70 be 37 1a 74 3e bd c1 f2 bd
       -0.16207545 -0.23472129 0.23838125 -0.11853359
000150 0a 99 15 3d 7c ea 81 3e 3d 51 0b 3d 47 09 9e 3d
       0.036522903 0.2537421 0.03401302 0.07716613
000160 1c 50 8f be 28 30 61 3e 34 c3 78 be da 99 a3 3d
       -0.27990806 0.21991026 -0.24293214 0.07988329
000170 4f 86 40 bd 0d 21 61 3e d3 77 7a 3e 1d 8a a5 3d
       -0.047003087 0.21985264 0.24459772 0.08082984
000180 2c 93 cc bd b6 ef 97 be 7d ac 92 be 20 42 82 3e
       -0.09989008 -0.29675072 -0.28647223 0.25441074
000190 f1 3b 09 be 58 16 7b 3e d0 bb fe 3d 19 08 8d 3e
       -0.13401772 0.24520242 0.12438166 0.2754524
0001a0 52 3c 35 3e 1d c2 b1 3d c8 c4 2b be b4 41 02 be
       0.17698792 0.08679602 -0.16774285 -0.12720376
0001b0 d1 87 01 be 7d b8 5f 3e bc 49 17 be 37 07 3e be
       -0.12649466 0.2184772 -0.14774221 -0.1855744
0001c0 30 a3 54 be ec 5a 27 3e 14 fc be 3d 42 d2 23 be
       -0.20765376 0.16343278 0.09325424 -0.15998176
0001d0 92 c3 f0 bd 93 fb a8 bd eb 87 9e 3d 29 b1 88 be
       -0.11756052 -0.08251109 0.07740768 -0.26697662
0001e0 c9 bc 17 be e1 d2 10 be 46 17 05 3e 31 df a0 bd
       -0.1481811 -0.14142944 0.1299716 -0.078550704
0001f0 bf b3 f9 bd f6 b0 c4 bd 0d 6e 3e be ea 12 86 3e
       -0.12192487 -0.09604065 -0.18596669 0.26186305

gat_industry.att_dst f4 [1, 2, 64]
000000 e2 ef 91 3e cd bd 35 be 9c 25 45 3e 80 ab ac 3d
       0.2850333 -0.17748185 0.19252628 0.084311485
000010 c4 6a 0d be 01 10 e9 bc 63 45 06 be f8 b0 4c be
       -0.13810259 -0.028450014 -0.13112406 -0.19989383
000020 0c b6 8d be 9e 27 71 be 48 f2 8c 3e 93 e3 7d 3e
       -0.27677953 -0.23550269 0.27528596 0.24793844
000030 ac 92 0b 3e 0e 7f fb bd 60 2f 55 be 24 8f 6c 3e
       0.1363017 -0.12280093 -0.20818853 0.23101479
000040 ca 89 5b 3e 21 99 5d 3e 5e d8 90 be 41 db 98 3e
       0.21439281 0.21640445 -0.28290075 0.29854777
000050 42 8e 3c bd 51 5f 21 be 32 a8 28 bd 47 dc e6 3d
       -0.046034105 -0.15759017 -0.04117603 0.11272483
000060 07 2d cb 3d 2b 55 4b 3e f0 23 8e be 05 7e 2a 3e
       0.09920698 0.19856708 -0.27761793 0.16649635
000070 93 0b 55 be 7e 1c 29 be 6c 6f 00 3e 78 77 7d 3e
       -0.20805196 -0.16514775 0.12542504 0.24752605
000080 c4 84 f6 bd 5d bd 88 3e 3f cd 56 3e c3 4f 84 bd
       -0.12037042 0.26706973 0.20976733 -0.06460526
000090 1c 43 89 3e 56 15 7c 3e 92 b2 40 be bf 29 83 be
       0.26809013 0.24617514 -0.18818119 -0.25617787
0000a0 ea 8b 07 3e a8 72 61 bd 7f d4 e7 bd 01 a8 38 3e
       0.13236967 -0.055040985 -0.11319827 0.18032838
0000b0 da f7 11 3e be 9c 1a 3d 97 5d 8a be bc 6a 48 3d
       0.14254704 0.037747137 -0.27024528 0.048929915
0000c0 55 62 96 3e b8 47 74 bc 28 ba 32 bd 02 7e 99 be
       0.29371896 -0.014909677 -0.043634564 -0.2997895
0000d0 75 6d f0 3d a9 cd b1 3a 5a ee 8f 3e fd bc 01 3e
       0.11739627 0.001356532 0.28111535 0.1266975
0000e0 22 b5 c5 3c 24 52 46 bc b7 82 1b be ee cd 32 be
       0.024134222 -0.012104545 -0.15186583 -0.17461368
0000f0 7a 30 96 bd 21 fa 09 3e 53 4b 86 3e f9 3a a6 3d
       -0.07333465 0.13474323 0.26229343 0.08116717
000100 16 91 0d bd 23 3b 86 be 29 b1 51 3d e4 33 50 3e
       -0.034562193 -0.26216993 0.051194344 0.20332295
000110 68 95 8d be f2 03 12 3e f8 9e 46 3d 8f 32 37 3e
       -0.2765305 0.14259318 0.04849145 0.1789038
000120 56 2d 48 3d 31 d9 4f be 17 9c ad 3d 70 9a 1b bd
       0.04887136 -0.20297696 0.084770374 -0.03798908
000130 05 f3 3b 3e bb 98 cd bd 3d c9 81 be 99 8b 01 3e
       0.18354423 -0.10038897 -0.25348845 0.12650909
000140 b7 4a eb bd 81 6f b3 3c 83 48 3b be 29 f0 51 3e
       -0.1148886 0.021903755 -0.1828938 0.2050177
000150 7d dc 5b 3e e6 d2 73 be 81 c8 d1 bd 6d 90 cd 3d
       0.21470828 -0.2381092 -0.10243321 0.10037313
000160 3e b0 9a be ce 53 5c 3e 98 4e 94 be 0d b1 64 3e
       -0.30212587 0.21516344 -0.28966212 0.22333165
000170 d0 be 86 3e b1 13 24 3e 1b 33 95 be 57 73 07 be
       0.26317453 0.16023137 -0.29140553 -0.13227592
000180 9c 8a 93 3e 33 b5 78 bd 72 2d 96 bd 82 f3 8e 3e
       0.28816688 -0.06071968 -0.07332887 0.27920157
000190 43 e5 2e 3d b4 79 4b be a3 2e e9 3d d4 0a 2e bd
       0.04269911 -0.19870645 0.113858484 -0.042490795
0001a0 36 62 79 3e f1 58 94 be 95 ce 16 be d9 f5 67 bd
       0.24353871 -0.28974107 -0.14727242 -0.056630943
0001b0 e0 72 4f bd c7 2f 03 3d a8 5a 96 be a6 99 1f be
       -0.050646663 0.032027986 -0.2936604 -0.15585956
0001c0 24 17 bd bd 9b d6 0a 3d e1 6d 3c 3e f5 30 c9 bd
       -0.09232929 0.03389607 0.1840129 -0.09823791
0001d0 54 a0 30 3e 6f 52 32 be 0c d7 28 3e 72 4d 35 3e
       0.1724866 -0.17414258 0.16488284 0.17705324
0001e0 5b 72 92 3e 54 01 3a 3e 05 7c 68 be 60 27 f4 bb
       0.2860287 0.18164569 -0.2270356 -0.007450983
0001f0 95 83 d4 3d 7f 79 00 be 3d 7d 5b bc 72 12 6b be
       0.1037666 -0.12546347 -0.013396558 -0.22956255

gat_industry.bias f4 [64]
000000 d1 50 89 3a 87 7b 85 ba e1 d6 01 bb 24 c0 ad b9
       0.0010476356 -0.0010183909 -0.0019811916 -0.00033140287
000010 4a 2b f1 3a 6c ce 45 3b 14 11 1b 3a 8a 79 f6 b9
       0.0018399742 0.0030182851 0.00059153256 -0.0004701133
000020 02 45 b8 3b 8d d2 cd bb 05 3f ef 3b 3c 04 60 bb
       0.0056234607 -0.006281203 0.0073012137 -0.0034182211
000030 fb 4c 99 ba c7 1a f8 3b 0c 8a e0 3b 35 c4 fa 3b
       -0.0011695916 0.0075715515 0.006852394 0.007652784
000040 47 0e 99 3b a8 49 32 3c 87 18 ea 3a 2e 7c c3 3b
       0.0046708914 0.010881819 0.0017860093 0.005965731
000050 71 1c 12 3c 35 4a 2a 3b a0 62 99 3b 27 0c 66 ba
       0.008917914 0.0025984172 0.0046809465 -0.00087756146
000060 88 12 95 ba ee a6 7e 3b 99 b4 9b 3b 46 5b 2c 3b
       -0.0011373321 0.0038856822 0.0047517535 0.002629952
000070 fc a5 c0 3a 8a df 96 3b 50 98 06 3c db 1a ff b9
       0.0014697905 0.0046042847 0.008215025 -0.000486574
000080 e0 ac 81 bb b5 b8 08 3b 83 e5 2d 3b 53 71 b8 3b
       -0.003957376 0.0020862047 0.0026534505 0.0056287437
000090 86 a1 ec 3a 18 e9 5f 3c a5 35 54 3c c7 8d af ba
       0.0018053509 0.013666414 0.012952243 -0.0013393693
0000a0 4d 79 e2 3a 25 f8 8d 3b ba c6 67 ba 53 b3 75 3b
       0.0017278582 0.0043325596 -0.0008841563 0.0037490919
0000b0 4d 0e 16 3a 64 33 86 ba 0d d4 9c b9 30 74 d0 3a
       0.0005724177 -0.0010238704 -0.0002991263 0.0015903767
0000c0 d7 fd 8a 3b 38 ce 24 3c e2 f2 98 bb 49 72 af 3a
       0.004241686 0.010058932 -0.0046676258 0.00133855
0000d0 01 5a ef 3b 5e 31 d5 39 29 ac 7e 3b 12 cb 6e 3b
       0.0073044305 0.00040663307 0.003885994 0.0036436957
0000e0 77 4d fc b9 11 1b a7 3b d5 bd 83 bb b5 92 ed 3a
       -0.000481229 0.005099662 -0.0040204325 0.0018125387
0000f0 02 63 3a 3c 10 4f e2 3a c6 62 06 3a 27 7d 0d 3c
       0.011376144 0.0017265994 0.0005126413 0.008635796

gat_industry.lin.weight f4 [128, 64]
000000 ae f7 fe 3c 66 cc 25 3e 03 4e e1 3d e6 8b 9e 3d
       0.031123962 0.16191253 0.11001208 0.07741527
000010 77 84 b0 3c ee 09 56 bd 77 fa d1 bd c2 ee 0f 3e
       0.02154754 -0.052255563 -0.102528505 0.14055923
000020 78 89 ce 3d bf c8 58 3d ad 0d 31 3e cb 0a bb bd
       0.10084814 0.05292582 0.17290373 -0.09132918
000030 26 24 16 be 9b f8 a7 3d a4 19 bd 3d bc 1b 13 3e
       -0.14662227 0.082017146 0.09233406 0.14366049
000040 9f 06 92 bd c2 18 f6 3b da 2d 8b bd 8e b6 aa 3d
       -0.07130169 0.0075102756 -0.06795855 0.08335601
000050 7e c1 02 bd ea e6 ae bd b9 28 5a 3c 2f 55 05 3e
       -0.03192281 -0.08540137 0.013315373 0.13020776
000060 56 41 eb bd 56 c6 18 be 94 71 34 be e1 08 8b 3d
       -0.11487071 -0.14919409 -0.17621452 0.06788803
000070 c3 93 2f 3e 74 46 c5 bd c9 ca 2b be 45 3e 83 3a
       0.1714621 -0.096325785 -0.16776575 0.0010013065
000080 6a 21 21 3d 61 d5 08 3e 65 20 07 3d 41 32 9a bc
       0.039338507 0.13362648 0.03298988 -0.018822791
000090 55 31 b4 bc eb dc 47 3d 16 8c 35 3d 6d f4 b3 bd
       -0.02199618 0.04879467 0.04432305 -0.08786855
0000a0 68 51 85 3d 83 11 02 3e e8 ca e1 bc 6e 88 ce 3d
       0.06509668 0.12701993 -0.027562574 0.10084616
0000b0 1a d3 90 3d 7f 68 1a bd 98 4d 1f be e9 1a b6 bd
       0.070715144 -0.03769731 -0.15556943 -0.088918515
0000c0 19 54 f4 3c 0e 34 ef bc 9c a9 c8 bd bf 6f b9 bd
       0.029825257 -0.029199626 -0.097979754 -0.09054517
0000d0 a3 05 e6 3d 47 94 26 3e 35 80 35 be 2b 4b 3a 3d
       0.11231544 0.16267501 -0.17724688 0.045481842
0000e0 99 48 24 bd 14 c3 04 3e ad 12 ba bd 94 9f c5 bd
       -0.040108297 0.12965041 -0.090855934 -0.09649578
0000f0 6d 46 cb 3d 20 57 a1 3b bb 2e 96 3d f8 e5 c9 bd
       0.09925542 0.004923716 0.07333132 -0.09858316
000100 d8 e7 16 3c 59 a7 86 bd ee ff 5f bd dc 43 0b 3e
       0.009210549 -0.06574888 -0.054687433 0.13600105
000110 b2 ea 01 be bc b0 07 be 68 56 74 3d c0 af ab 3c
       -0.12687185 -0.13251013 0.059652716 0.020957828
000120 a2 75 9e bd bd 8a 0c 3e 3e 1a 32 3e bb fc 0a bc
       -0.077372804 0.137248 0.17392823 -0.008483107
000130 25 9d ea 3d 91 88 f2 bd 7f 40 87 3c d2 db 02 3d
       0.11455754 -0.11842454 0.016510246 0.03194792
000140 af 9b 80 3a ee 68 d4 3d 7a 0b 21 3d ca 98 18 be
       0.0009812022 0.10371576 0.039317586 -0.14902034
000150 42 79 d6 bd d0 53 1e be 5d f7 cc 3d 25 77 91 bd
       -0.10472347 -0.1546166 0.10008118 -0.07102803
000160 ff c0 ce 3d 3f aa 6b 3d 19 50 ca 3d 02 d5 fd 3c
       0.10095405 0.057535406 0.09878559 0.03098536
000170 fa ff 28 be a3 b7 21 be 73 9a 7d 3d ea 57 16 3e
       -0.16503897 -0.15792708 0.061914872 0.14681974
000180 7c 60 92 3d 7c bd c2 bc 80 9d 29 bd 5f 56 25 3e
       0.07147309 -0.023771994 -0.04140997 0.16146229
000190 bc 94 d0 bd 84 ce 1e 3c c5 82 30 be a3 f2 08 bc
       -0.10184619 0.009692792 -0.17237385 -0.00835863
0001a0 d7 b6 e6 bd 14 da c4 3d 82 ef 84 bd dd ab 1d be
       -0.11265343 0.096119076 -0.06490995 -0.15397592
0001b0 f2 f2 09 be 78 b2 71 3d 40 d4 cd 3c f2 c2 26 be
       -0.13471583 0.05900809 0.025125623 -0.16285303
0001c0 54 e1 aa 3d a3 05 2f bc 4e f9 8a 3d 60 33 2a be
       0.08343759 -0.010682496 0.06785832 -0.1662116
0001d0 f8 41 06 3e 8d cb bd 3c d9 d4 fe 3b c9 9d fc 3d
       0.13111103 0.02316835 0.0077768383 0.12334783
0001e0 c1 2c 2a 3e 66 b5 2f bd 8c b7 43 bd 23 d6 25 3e
       0.16618635 -0.042897604 -0.047782466 0.16194968
0001f0 72 7a a2 3d 95 33 ca bd 80 15 ff 3d cf 33 cc bb
       0.07933511 -0.0987312 0.12455273 -0.006231762
000200 3d fa d0 3c 3f 81 d1 bd a4 57 b6 bd 34 d8 0f 3e
       0.025509948 -0.1022973 -0.08903435 0.14047319
000210 89 b6 d2 bd 03 c1 32 3e b3 35 44 bd 31 83 18 be
       -0.10288722 0.1745644 -0.047902774 -0.14893796
000220 06 6d ed bb ab c9 f8 3c bf ad 31 3c ad 88 27 3e
       -0.0072456626 0.0303696 0.010844647 0.16360731
000230 f4 86 8c bd f6 fc 01 3e 0c 08 24 bc 37 bf be 3d
       -0.06861678 0.12694153 -0.010011684 0.09313815
000240 ac 07 2f 3d 9e bb 30 3d b8 86 33 be 83 0c b7 bd
       0.042731926 0.043147676 -0.1753186 -0.08937933
000250 3c dc 81 bb 85 05 ca 3d 86 8f ef 3d 86 29 a1 3d
       -0.0039630216 0.09864334 0.11697297 0.07869248
000260 f9 4c ae 3c 25 ad 97 bd 52 06 ff 3c 78 1e 70 bd
       0.021276938 -0.074060716 0.031130943 -0.058622807
000270 a2 2b 01 3e 9a 56 24 3d 2a ec b1 bd 7d dc 4e 3d
       0.12614301 0.040121652 -0.08687623 0.050503243
000280 f3 94 18 be 60 91 21 bd e3 0e 23 3e 3d 39 09 be
       -0.1490057 -0.03944528 0.15923648 -0.13400741
000290 78 bd 07 3e a1 9d 0c 3d 74 33 98 3d af 0b b8 3d
       0.1325587 0.034330014 0.07431689 0.089866035
0002a0 34 c2 cf bd 0d fe 62 bd 33 43 20 bd 45 b5 08 be
       -0.10144463 -0.055418063 -0.039126586 -0.13350399
0002b0 ba d8 0f 3e ab 61 2c 3e 0a f8 06 3c 23 48 ed 3d
       0.14047518 0.16834132 0.008237848 0.115860246
0002c0 d1 44 68 3d 84 13 12 3e 94 3c f5 bd 54 50 1b 3e
       0.056706253 0.14265257 -0.11974445 0.15167361
0002d0 28 f5 fa bc c5 c2 92 3d 65 7a e6 bd 31 6e 31 be
       -0.030634478 0.071660556 -0.11253814 -0.17327191
0002e0 aa 51 33 bd da 63 b0 3d d0 ce 7c bd 02 3d e1 3d
       -0.043779053 0.08612795 -0.06172067 0.109979644
0002f0 17 cd f0 bd 2e 99 ea 3d bb 32 5a 3b 23 4f 54 3d
       -0.11757868 0.11454998 0.0033294398 0.051833283
000300 f7 f5 16 bd 6a 49 c0 bd ca 56 fb 3d 1d 7b 2c 3e
       -0.036855664 -0.093890026 0.12272413 0.16843839
000310 d7 59 28 be b9 0f 15 be c9 4d 51 bd 3d 78 10 3e
       -0.16440521 -0.14556779 -0.051099572 0.14108367
000320 e8 7e 96 3d 26 28 26 be d7 c3 7b 3d 43 cd 20 3e
       0.07348424 -0.16226253 0.061466064 0.15703301
000330 3d b4 16 bd ae 1b a0 bd 31 86 72 bc ee ac 01 be
       -0.036792982 -0.078177795 -0.014802502 -0.12663624
000340 bc 5b 25 3e d2 63 da 3d e8 22 0d 3c 18 3d eb bd
       0.16148275 0.106635705 0.008614279 -0.11486262
000350 cd 41 ef bd c9 92 0e be 8c ca 99 3d a5 ef 8d bd
       -0.116824724 -0.13923182 0.07509336 -0.06930474
000360 40 19 c9 bd 0e 34 8a bd dc 91 d2 bc a3 05 12 3e
       -0.09819269 -0.0674821 -0.025704317 0.14259963
000370 d3 a5 2f 3e d8 7c 27 3e 19 35 e8 3d b2 9b 23 bd
       0.171531 0.16356218 0.113382526 -0.039943404
000380 2f 63 1d 3e 00 9c cc bd 13 97 2f 3d 2a 85 f0 3c
       0.15369867 -0.09990692 0.042868685 0.029360373
000390 f1 a3 1e 3e 0c c0 17 3e e7 ff da bd 5b 7c 19 be
       0.15492226 0.14819354 -0.10693341 -0.14988844
0003a0 fb 25 77 bd 2c b5 25 bd 99 14 65 bd e2 54 e4 b8
       -0.060338955 -0.040455982 -0.055927847 -0.00010887698
0003b0 1e e3 ea 3b e0 23 d9 bd 94 a3 af 3d cb 42 9b 3d
       0.0071681878 -0.10602546 0.08576122 0.07581099
0003c0 85 49 6b bd b5 80 9d 3d 18 0d a9 ba e6 45 94 3d
       -0.05744316 0.076905645 -0.0012897579 0.072398946
0003d0 5f b2 f3 bd a3 96 f2 ba 7a eb 73 bd 43 b3 cd bc
       -0.11899256 -0.0018508028 -0.05955074 -0.025109893
0003e0 22 b1 2f bd 67 8d 2d be ea 85 a5 bd aa d1 0c 3e
       -0.042893536 -0.16948472 -0.08082183 0.13751855
0003f0 d1 bb 31 3e 86 af f6 bd 14 52 93 bd fe 02 df bd
       0.17356803 -0.12045197 -0.071933895 -0.108892426

gat_universe.att_src f4 [1, 2, 64]
000000 d8 50 5f be e2 52 84 be 53 14 bc bd 00 bd 65 bd
       -0.21808183 -0.25844485 -0.09183564 -0.056088448
000010 9a 7d 99 3e 39 33 8f 3e 3d 9e a3 3d f6 22 40 bd
       0.2997864 0.27968767 0.07989166 -0.04690834
000020 b5 71 99 3e 46 f3 a9 bd 0e 6f 82 3e 2c 82 57 3d
       0.29969564 -0.08298354 0.25475353 0.052614376
000030 08 3e 93 b6 08 5e eb 3d 64 56 f8 bc 50 c1 75 3e
       -4.388163e-06 0.114925444 -0.030314632 0.23999524
000040 84 b7 5c 3e a6 26 60 be 3c af 12 3e b8 3b 74 be
       0.2155438 -0.21889743 0.14324659 -0.23850906
000050 04 3a 7f 3e 30 bd c9 bd d2 f4 fa bd 9b b6 b2 bd
       0.24924475 -0.09850538 -0.12253727 -0.087262355
000060 01 60 5c be 45 3c 3b 3e e5 65 47 3d 32 3e ce bd
       -0.21520998 0.1828471 0.04868116 -0.100704566
000070 94 34 90 3e 53 b1 67 be 05 5e 76 3e 60 39 2a be
       0.28165114 -0.22626238 0.24059303 -0.1662345
000080 90 35 71 3c 99 d5 62 be e8 10 b1 bc 16 69 65 be
       0.014722243 -0.22151794 -0.021614507 -0.22403368
000090 7b a0 28 bd 83 23 4b 3d 76 91 6d be d5 0b 3c 3d
       -0.04116867 0.049594413 -0.2320002 0.04590972
0000a0 dc 19 75 3d cb 3b 81 3e 7c 38 75 be dc 8b 85 3e
       0.059839115 0.2524093 -0.23947328 0.26083267
0000b0 ad c2 a1 bd 95 ba 05 3c 56 ff 18 3d a1 6e 77 be
       -0.078984596 0.00816216 0.037352882 -0.24163295
0000c0 33 88 20 be cf 41 19 be 10 42 80 bd e7 b7 2f bd
       -0.15676956 -0.1496651 -0.062626004 -0.042899992
0000d0 91 36 4f 3c c8 ea 87 be d3 fb 4f bc 95 fd 87 3e
       0.012647287 -0.2654631 -0.012694317 0.26560655
0000e0 2c c9 9b 3d 66 b5 35 bb 95 30 88 bd fa 26 97 3c
       0.0760673 -0.002772653 -0.06649891 0.018451203
0000f0 2b 06 27 be 64 62 00 3e cd 4c 86 be c9 92 33 3e
       -0.16310947 0.12537533 -0.2623047 0.17536463
000100 56 7a b1 3d 9a a7 27 3e bb 73 6b 3e 2d b5 fd bd
       0.08665912 0.16372529 0.22993366 -0.12388072
000110 42 65 32 be 31 82 b8 3d 52 ae 2d be 6d 0f 0f bc
       -0.1742144 0.09009207 -0.16961029 -0.008731705
000120 1a 28 3e be 08 bd 40 be b6 dc e0 bd 14 8a 9a 3e
       -0.18569985 -0.1882211 -0.10979597 0.3018347
000130 ee 03 b6 bd 58 de b7 3c 6f fe 7d 3e 41 46 b1 3c
       -0.08887468 0.022444889 0.2480409 0.021639945
000140 0b 5c 7b 3e 9d 28 8f 3d ae a8 de bc d7 39 a8 bb
       0.2454683 0.06990168 -0.027180042 -0.005133848
000150 57 27 05 be d4 23 b9 3c 29 38 03 3b ba c0 ce bd
       -0.13003288 0.022600092 0.0020022488 -0.100953534
000160 e1 c6 dd 3c bf 6b 44 bd 1b 76 cf bd 6b 1d bb bc
       0.027072372 -0.047954317 -0.10129949 -0.022841176
000170 ed c7 e1 bd 2d 80 42 be 59 c5 6d 3e b9 3b f3 3d
       -0.11024461 -0.18994208 0.23219813 0.118766256
000180 32 85 ae bd a8 eb 35 3e fc b3 57 bc b6 30 3a 3d
       -0.08521499 0.17765677 -0.01316547 0.04545661
000190 6d 7b af bd 9d 38 8c be 91 1c 09 be a8 a9 49 3e
       -0.085684635 -0.27386943 -0.13389803 0.19693625
0001a0 d5 d5 38 3d d5 13 81 3e ad 23 2f be f5 d4 ab bc
       0.0451258 0.25210443 -0.17103453 -0.02097557
0001b0 3a 86 be bd 89 65 52 3e fa 1d 45 3e 82 d6 8e be
       -0.093029454 0.20546545 0.19249716 -0.2789803
0001c0 57 6f 27 3e cc 5c 25 be 4a 05 7e be 8c 2f b2 bd
       0.16351067 -0.1614868 -0.24806705 -0.08700475
0001d0 14 74 95 3d d3 04 01 be 45 d7 d4 bc 81 89 67 3d
       0.07297531 -0.12599497 -0.025981555 0.05652762
0001e0 9b 7e 1f 3e c7 ee 2d 3e ea 65 36 3e da fc 7c 3e
       0.1557564 0.16985618 0.17812315 0.2470583
0001f0 e5 5b 7b be 3b 46 bd bd a4 24 99 3d 8c 70 10 3e
       -0.24546774 -0.09241911 0.07477692 0.14105433

gat_universe.att_dst f4 [1, 2, 64]
000000 28 fb 47 3e ed fa 1d 3e 8d 18 69 bd 2f fc 5c 3e
       0.19529402 0.15427752 -0.05690818 0.21580575
000010 45 67 95 3d 6b cb 78 be 17 c4 f9 3d c6 92 32 ba
       0.07295088 -0.24296348 0.12195604 -0.0006812032
000020 29 0d 96 3e a1 3e 02 be e9 9e 8a be e9 66 73 bc
       0.29306915 -0.12719204 -0.27074364 -0.014856079
000030 b4 c3 96 3e 2a d9 8d be f9 26 56 be a7 93 2f 3e
       0.29446185 -0.27704746 -0.20913304 0.17146169
000040 08 4a 2c be c1 41 20 3e d0 6a d2 bc e5 92 91 3e
       -0.16825116 0.15650083 -0.025685698 0.28432384
000050 73 51 9d bd 61 8f bc bd 73 e3 59 be e7 1b 7f 3e
       -0.07681551 -0.09207035 -0.21278171 0.24912988
000060 16 04 03 3d b7 81 14 be f6 9b 1b 3e 91 c9 8e 3e
       0.03198632 -0.14502607 0.15196213 0.27888158
000070 18 b2 6a be ba 4a 93 be 2d a9 97 3e 79 9c fd bc
       -0.229195 -0.2876795 0.29621258 -0.030958401
000080 4a 3b 45 be fa cd fd bc 32 2b 19 3c 2f 56 8e bd
       -0.19260898 -0.030982006 0.0093486775 -0.06950032
000090 08 5e 8c 3e d6 a9 8d 3e e7 ba cf bd 70 bc 47 3e
       0.2741549 0.27668637 -0.10143071 0.19505477
0000a0 81 54 82 3d aa a5 42 3e 98 6c 83 be 83 a4 ed 3d
       0.06363774 0.19008508 -0.25668788 0.11603644
0000b0 dc d3 81 3e f3 f6 ca 3d d1 2e 7a be cd 81 49 be
       0.25356948 0.09910383 -0.24431922 -0.19678421
0000c0 24 51 80 3d 43 42 3b bb 55 1d 6c be 4d c2 a6 bd
       0.06265476 -0.002857343 -0.23058064 -0.08142529
0000d0 ee cc 7a be b0 bf 65 be 3e 78 70 bd d8 02 78 be
       -0.24492237 -0.22436404 -0.058708422 -0.24219835
0000e0 6d b3 59 be 70 8d 3c 3e e9 74 72 3d b1 6e 9f bc
       -0.21259852 0.18413329 0.059193525 -0.019461961
0000f0 9d 3a 33 3e 85 d9 96 3d 48 d4 31 3e b0 16 a3 bd
       0.17502828 0.07365707 0.17366135 -0.07963312
000100 3f 79 f4 3d f9 0b 0c be 0c 6f 2d 3e 72 ac f7 3d
       0.11937188 -0.13676442 0.16936892 0.12093438
000110 c3 f0 0b 3d 08 00 8a be e1 c8 76 3d 03 34 94 3e
       0.034165155 -0.2695315 0.060250167 0.28945932
000120 35 98 c8 bd 40 2d fd 3d 3a 25 8e be 64 22 86 be
       -0.09794656 0.123621464 -0.27762777 -0.26198113
000130 7a 41 9d be 46 8c 59 be e7 4d e3 3c 5c b6 8d be
       -0.30714017 -0.21244916 0.027747108 -0.27678192
000140 10 2a a0 be 2b 7d 65 be b7 3c 85 3e 91 d3 8c 3d
       -0.3128209 -0.22411029 0.26022884 0.068762906
000150 ef 6d a8 bd 08 cd 8f be 23 2c 99 be db d4 2b be
       -0.08224093 -0.28086114 -0.29916486 -0.16780417
000160 0f 68 21 be c3 27 30 3e 6e 42 81 3e ad 9a ac bd
       -0.15762351 0.17202668 0.25245994 -0.084279396
000170 49 df 8b be 1d 83 85 3e e7 e3 87 3e 4c 01 84 be
       -0.2731879 0.26076594 0.26541063 -0.2578224
000180 f9 e4 71 bd bc 3f ee 3b 56 fb ba 3d 70 37 a1 3d
       -0.059056256 0.0072707813 0.0912997 0.07871902
000190 6a c5 7c 3e 39 c9 05 be 3d ab 98 bd 0a d4 9c be
       0.24684682 -0.13065042 -0.07454536 -0.30630523
0001a0 fd 78 83 3e 0a 4b c9 3d bd 2f 77 3e 2b 07 3b 3d
       0.25678244 0.09828766 0.24139304 0.045661133
0001b0 03 af 73 be cc 73 a0 3e 3a 2f 6e be af d4 65 3e
       -0.2379723 0.31338346 -0.23260203 0.22444414
0001c0 1a c1 7d be b0 58 61 be 59 d6 99 3e d1 f3 81 be
       -0.24780694 -0.22006488 0.30046347 -0.2538133
0001d0 a4 24 89 3e a5 e2 4e bd 04 35 fd bc 86 b1 92 bc
       0.26785767 -0.050509114 -0.030909069 -0.017906915
0001e0 85 38 58 be 8c c9 4a 3e ec 17 8e 3e 5d 26 8a bc
       -0.2111531 0.19803447 0.27752626 -0.016863996
0001f0 d1 35 a2 3d b3 0c bf bd 17 13 a3 bd a3 b4 0c 3c
       0.07920421 -0.09328594 -0.079626255 0.008587989

gat_universe.bias f4 [64]
000000 9c aa a3 3b 0c b9 bf bb 46 6a f1 3b 21 30 c8 b9
       0.0049947035 -0.0058509167 0.007367405 -0.00038182831
000010 1e 7a 65 3c cd e2 e4 3b 08 f4 12 bb 04 4e 63 ba
       0.014006166 0.0069850446 -0.0022423286 -0.0008670988
000020 78 b5 f7 3b d5 33 fb 3a 2e c9 a5 3b 38 5e 3e ba
       0.0075594746 0.0019165227 0.005059383 -0.00072619645
000030 30 8d ef b9 8a 58 7f 3b 66 ff 79 3b 96 1d a4 ba
       -0.00045690825 0.0038962686 0.0038146614 -0.0012521024
000040 b3 55 7b 3c fb f7 80 3b 98 85 71 3a de 74 19 b8
       0.0153402565 0.0039358116 0.00092133274 -3.6586884e-05
000050 05 97 ba 3b 38 0e 0f bb dd f6 ca 3b 12 5a aa 37
       0.0056942725 -0.0021828543 0.006193979 2.0307521e-05
000060 4f 0c 16 bb 6c 9e 31 3b e5 9b c7 3a 47 54 60 3a
       -0.002289552 0.0027102483 0.0015228955 0.000855748
000070 63 b3 53 3b 8c c0 cf ba d9 ab 36 3c 3d 3c 52 39
       0.0032302968 -0.001585023 0.01114937 0.00020049601
000080 d4 2c 82 3a 08 b4 09 3b 06 d1 01 3b 8b 7a 54 ba
       0.0009931573 0.0021011848 0.0019808426 -0.00081054185
000090 74 af 09 3c 1a 52 81 bb 87 31 06 3b 7f 55 ed 3b
       0.008403648 -0.003946555 0.0020476298 0.007242858
0000a0 6d 12 28 3b 45 ec 29 3c cc e8 9c 3a b8 33 1c ba
       0.0025645748 0.010371272 0.0011971234 -0.00059586344
0000b0 e3 a0 f8 3a 9f 4b 62 3a 84 7d 64 3a 33 1e cf 3b
       0.0018968846 0.0008632484 0.0008716213 0.0063207387
0000c0 3c cf b4 ba 96 7c e8 3a 83 5f 54 3c 0b 42 0d 3a
       -0.0013794671 0.0017737325 0.012962225 0.00053885643
0000d0 e6 5e 4f 3c 7c 6c 84 3a 05 ca a7 3a e4 dc e4 bb
       0.012656903 0.0010103132 0.0012801295 -0.00698434
0000e0 57 aa c5 3b 51 27 94 3b 23 9b 17 3a 46 fa 85 b8
       0.006032269 0.0045212884 0.000578331 -6.388551e-05
0000f0 e4 b6 b8 39 6d af a8 3a ce 00 c7 b9 58 75 6b 3b
       0.0003523148 0.0012869664 -0.00037956837 0.0035928097
