gat_artifacts_test/gat_regressor.pt (torch, 68261 bytes, 9 tensors)

gat1.att_src f4 [1, 2, 64]
000000 19 09 2c 3e 58 9e 17 3e 33 a9 dd 3d ea b4 55 be
       0.16800345 0.14806497 0.10823288 -0.20869794
000010 ec 70 60 3e b2 80 86 3e b7 17 29 3d a8 d7 7e 3e
       0.21918076 0.26270062 0.04128238 0.24886954
000020 87 2e 71 3e cf 49 14 3e ab 22 10 3e 1f 9a 05 3d
       0.23552905 0.1448128 0.14075725 0.032617684
000030 57 6d ac bd 28 ee 6b be be 42 86 be 34 6d 3f be
       -0.084192924 -0.23040068 -0.26222795 -0.18694001
000040 f0 7e 12 be 13 5a 21 bd f4 62 12 3e 10 48 42 bd
       -0.14306235 -0.039392542 0.1429556 -0.047432005
000050 3a a3 13 3e e0 83 6b 3e bb 37 d5 3c 60 0c 19 3e
       0.14417735 0.22999525 0.02602755 0.14946127
000060 34 e7 1f be 03 92 66 3c 74 37 20 bd 7a ad 09 3e
       -0.1561554 0.014072898 -0.039115384 0.13445082
000070 55 ba 02 3e b8 03 56 3e 52 50 e8 bd 09 9a a2 be
       0.12766393 0.20899856 -0.11343445 -0.31758144
000080 1b 89 eb bd 5f 3f 50 be 51 b1 ff 3a 23 a6 20 3e
       -0.1150076 -0.20336674 0.00195078 0.15688376
000090 8b 55 92 3d fd e7 83 3d 6e 21 62 bd 9f 08 24 be
       0.07145222 0.06440733 -0.055207662 -0.16018914
0000a0 cd b2 5c 3e 69 be 94 be bb 2f a5 be fe fc 8c 3e
       0.21552582 -0.2905152 -0.32262978 0.27536768
0000b0 db a7 75 bd f2 e8 0f 3e ad 7b 33 3d b5 57 09 be
       -0.059974533 0.14053705 0.04381912 -0.13412364
0000c0 cf 0d 96 bd a0 96 97 3e b0 ec 61 3e a8 6a 08 be
       -0.073268525 0.29607105 0.22062945 -0.13321936
0000d0 a4 97 67 be 66 ae f2 bd 75 f8 93 3e 48 3b 2f be
       -0.2261644 -0.1184967 0.28900495 -0.17112458
0000e0 5c 74 29 be 2c 7a ab 3d 07 d6 8f bd 4a 19 ca 3d
       -0.16548294 0.08372912 -0.07023244 0.09868105
0000f0 bd 00 09 3e fa 35 e3 bd 9c 05 86 3e a2 39 28 bd
       0.13379188 -0.110942796 0.26176155 -0.041070588
000100 cd 5a 2e bd 33 e0 f2 3a 2a 0b 4f be b9 97 37 3d
       -0.042567063 0.0018529951 -0.20219103 0.04482243
000110 de 6f 3a 3e 15 e6 47 bd 03 cf f5 3d 2f 39 0b bd
       0.18206736 -0.048803408 0.12002375 -0.03399008
000120 50 6e 98 be 42 c0 05 3e f6 ae 67 3b 74 85 85 be
       -0.29771662 0.13061622 0.0035352088 -0.2607838
000130 a3 06 7d bd 6b 03 1c 3e 68 29 61 3d 01 09 97 bd
       -0.061773907 0.15235679 0.05497113 -0.07374764
000140 9b 16 6e be e6 37 06 3b 48 3b 50 be 95 25 40 3e
       -0.23250811 0.0020480095 -0.20335114 0.18764336
000150 37 e3 41 be e4 0f c0 3c a6 0e 8b be 0f fb 97 be
       -0.18934332 0.023445077 -0.27159613 -0.2968373
000160 cd d8 79 be bb 9a 68 3e 26 f6 45 3e d9 cb 89 be
       -0.24399109 0.22715275 0.1933218 -0.26913336
000170 d0 8f 96 3e a2 79 1b 3d 24 c1 3e 3d f5 46 56 3e
       0.29406595 0.037957795 0.046570912 0.20925505
000180 04 5d 37 bd 29 1e 5b be 99 15 09 be c3 b6 fa 3c
       -0.04476644 -0.21398224 -0.13387145 0.030604726
000190 c7 97 7d be d8 02 cf bd 3d cf 7c 3e 7c 15 6b 3e
       -0.2476493 -0.10107964 0.2468843 0.22957414
0001a0 33 b0 0c 3e 47 6a 2a 3e a7 e8 5f 3d 1f ad 08 3e
       0.1373909 0.16642104 0.054665234 0.1334729
0001b0 4f 4b 1a be 8c 1b bc 3d 20 5c 52 be a7 f6 6d 3d
       -0.1506779 0.09184942 -0.20542955 0.058096554
0001c0 17 0a c7 bc a8 67 59 be 95 f5 07 be 3d 2b 85 3e
       -0.024296803 -0.21230948 -0.13277276 0.2600955
0001d0 9b 48 72 bd 5a 38 00 3e 07 5d d1 bd a6 1c 20 be
       -0.059151273 0.12521496 -0.10222822 -0.15635929
0001e0 47 73 1d be 63 a1 05 be cd 2a 3b be 6b 6a 02 3d
       -0.15376006 -0.13049845 -0.18278046 0.03183977
0001f0 46 40 61 3e 17 18 69 be a6 62 3c 3e b9 f7 75 be
       0.21997175 -0.22763096 0.18397006 -0.2402028

gat1.att_dst f4 [1, 2, 64]
000000 4d ef 03 3d f2 1c af bd 0b 07 95 bd a1 83 d5 bc
       0.032210637 -0.08550443 -0.07276734 -0.026063742
000010 85 24 6d bc 7a 35 88 3d 92 fe 80 ba 7d 43 15 3d
       -0.014474039 0.06650825 -0.0009841493 0.036441315
000020 e8 36 70 3c 49 9d b1 3d f8 02 d8 bd 73 5e fa 3c
       0.014661528 0.08672578 -0.10547441 0.030562615
000030 4e 36 ae 3b 4c 10 0b 3e b9 32 d2 bd 9f db 8f bb
       0.005316532 0.13580436 -0.10263581 -0.0043901945
000040 d5 27 d5 bd 45 0f ae 3c 96 f3 3f bc ab e5 96 bd
       -0.10407988 0.021247515 -0.01171579 -0.073680244
000050 7e cf 05 be 15 9d 22 3e 97 c6 92 3c 55 e7 b0 3d
       -0.13067433 0.15880235 0.01791696 0.08637873
000060 b0 9f 4d 3b 7a 93 4b 3d 5b b7 91 bc 16 7f 29 3e
       0.0031375699 0.04970119 -0.017787626 0.16552386
000070 8a 9b 9d 3d 87 ec f9 3a ab 66 94 3c 86 58 01 be
       0.07695682 0.0019067683 0.018115362 -0.12631425
000080 96 03 82 bd 43 b1 92 bc 71 77 1c bc 1f 85 84 3d
       -0.0634834 -0.01790679 -0.009549961 0.06470703
000090 91 52 bd 3c 34 e8 64 3d bf e9 7d 3d 11 f7 17 3e
       0.02311066 0.05588551 0.061990496 0.14840342
0000a0 8e 57 1d bd 5b 7f b4 3d 1a 46 20 3e 66 b4 ce 3d
       -0.038413577 0.08813354 0.15651742 0.10093002
0000b0 6a c3 89 bd bf 47 36 3d 3c 0d c7 3d df a0 41 3d
       -0.067267254 0.044502016 0.09719321 0.04727256
0000c0 66 42 52 3c 56 8c 69 bc 38 59 c2 bc f3 7c 8d 3c
       0.012833213 -0.01425465 -0.023724183 0.017271494
0000d0 70 41 9e 3c 6d e6 21 3c ca 05 3e bd 86 cb 59 bd
       0.019318312 0.009881598 -0.04639224 -0.05317261
0000e0 f8 df 10 3d 22 2c 0c bc 76 4b 11 3e ee 0f 27 be
       0.035369843 -0.008555444 0.14188942 -0.1631467
0000f0 cb 8f 15 be 07 22 3b 3d e9 44 f8 bd e6 25 b2 bd
       -0.14605634 0.045686748 -0.121225186 -0.08698635
000100 ef 7d c0 3b 43 04 a1 3c 64 3f 06 3e 38 f3 67 bd
       0.0058743875 0.019655352 0.13110119 -0.056628436
000110 97 fc 87 3d e1 d8 25 3c bc e4 f9 bc 8d 94 46 3c
       0.066399746 0.010122509 -0.030504577 0.012120378
000120 73 be 33 bd cd ad 9e 3d 74 0e 09 3e 44 24 a6 3d
       -0.0438828 0.077479936 0.1338442 0.08112386
000130 5e 89 a7 3d 19 35 2e bd 53 f2 10 bd 1a 8c 67 bc
       0.081804976 -0.042531107 -0.03538735 -0.014132524
000140 c2 3d df 3d ba 80 a0 3d b1 ee a4 bd 5d be 08 3e
       0.10900451 0.07837053 -0.08053339 0.13353868
000150 92 4b 0d be 9a a6 ed 3a 48 b3 81 bd 3e 97 80 bb
       -0.13798359 0.0018131316 -0.06333023 -0.0039242795
000160 97 69 5e bb 88 ff 2d bd c5 42 dd 3c 87 bf a0 bc
       -0.0033937448 -0.04248002 0.027009377 -0.019622577
000170 fe e5 48 bc 4c 88 94 bc 85 1f dd bd 8e dd e0 bc
       -0.012261866 -0.018131398 -0.107970275 -0.027449396
000180 e3 85 f5 3d 0b 1b 9e bc d5 87 d3 3b e3 fe d0 bd
       0.119884275 -0.019300004 0.0064554014 -0.10204866
000190 7f 5b 2c 3b 43 a2 05 be 0e 24 1b be f7 51 13 3e
       0.0026299653 -0.13050179 -0.15150473 0.14386736
0001a0 a2 71 80 3c 07 37 4d 3b 84 88 83 ba b6 74 96 3b
       0.015679184 0.0031313316 -0.0010035192 0.0045915497
0001b0 c1 fd 36 3c c9 f2 41 bb a9 14 d1 bd 8b 73 68 bd
       0.011168898 -0.0029594174 -0.10209019 -0.056750815
0001c0 a6 1b 4e 3c 04 fd e7 bd d3 d9 bf 3b f0 8d 8b 3c
       0.012579834 -0.11327556 0.005854824 0.017035455
0001d0 3e 5f ca 3d c2 a6 92 3d 8e 76 9f bc 61 78 bb 3b
       0.09881447 0.07160713 -0.019465711 0.0057211374
0001e0 6f b6 c8 3b 51 bb 94 bc 08 83 c6 b9 b3 8c 69 3d
       0.0061252634 -0.018155726 -0.0003786313 0.057018947
0001f0 c8 9e 2f be 8c 83 54 bc 81 d3 2a 3c 99 ee bf bc
       -0.17150414 -0.012970816 0.010426403 -0.023429202

gat1.bias f4 [128]
000000 d4 b2 8b 3b 4c 7c 80 3b 04 48 4f 3b c7 33 67 3b
       0.0042632613 0.0039210673 0.0031628618 0.0035278664
000010 23 9b 81 3b a6 f9 8a bb d1 d4 34 3b e8 e0 99 bb
       0.0039552613 -0.004241186 0.0027592669 -0.0046960004
000020 38 de 53 3b 55 2a 83 3b ec fb 3f 3b b4 3c 43 3b
       0.0032328498 0.004002849 0.0029294444 0.002979082
000030 41 c9 8a bb ba f1 6c bb 30 4c 81 bb 7e d1 62 3b
       -0.004235417 -0.0036154822 -0.00394585 0.003460973
000040 94 e9 52 3b 97 22 8f bb dd 01 64 3b 82 fa 5c 3b
       0.003218268 -0.004368137 0.003479115 0.003371865
000050 e0 38 79 bb 5a 63 7f bb df 9c 59 3b 0e ae 49 3b
       -0.0038028285 -0.003896913 0.0033205075 0.003077391
000060 5a 48 82 3b a5 9b 7c bb 07 d8 89 3b 1b f2 7d bb
       0.00397591 -0.003854492 0.0042066607 -0.0038749042
000070 74 6e 82 3b d5 d3 87 bb 14 6d 86 bb 70 f7 8e bb
       0.003980452 -0.0041451254 -0.0041023586 -0.004362993
000080 b2 ad 70 3b 8c d6 31 3a f8 8e ed 3b 64 91 6f 3b
       0.0036724624 0.0006783984 0.007249709 0.0036555165
000090 90 55 80 3b e2 9b 7b bb 71 30 86 ba c3 83 9e 3b
       0.00391645 -0.0038392474 -0.0010237825 0.0048374846
0000a0 83 dc 8d bb 98 e0 87 3b 3e 44 93 3b e4 8d 85 bb
       -0.0043292656 0.0041466467 0.004494219 -0.0040757526
0000b0 a0 58 b8 3b 42 9e b3 bb d8 39 69 3b 29 18 95 bb
       0.0056257993 -0.0054815123 0.0035587456 -0.0045499993
0000c0 aa c7 5b ba 8b 9c 7b bb 2f 10 81 3b a5 77 ef bb
       -0.0008383939 -0.0038392867 0.003938697 -0.007307964
0000d0 6f ed e9 bb 84 42 7f 3b 9a 40 bb 3b 8b d1 72 3b
       -0.0071389 0.0038949559 0.005714488 0.0037051167
0000e0 40 5b 87 3b 7a cf 61 bb 78 95 82 3b 61 f4 83 3b
       0.004130751 -0.003445594 0.003985103 0.004026935
0000f0 23 4c 23 3b 27 c9 88 3b 18 96 f9 3a b9 21 97 bb
       0.0024917207 0.00417437 0.0019041924 -0.0046121744
000100 9a 78 80 bb d7 22 5a bb 11 dc 43 bb 93 b0 7d bb
       -0.003920627 -0.0033284926 -0.0029885808 -0.0038709983
000110 04 7b 75 bb 9b 4c 82 3b 52 d6 75 3b f6 77 96 3b
       -0.0037457356 0.0039764172 0.0037511778 0.004591937
000120 3f 7d 80 3b 98 9a 83 3b df 3c 4d 3b b3 48 88 3b
       0.0039211805 0.0040162317 0.00313168 0.004159057
000130 c8 a1 8c 3b d9 3e 8e 3b 4d 83 80 3b 58 1a 8b 3b
       0.0042917468 0.004340988 0.0039219023 0.004245084
000140 c2 eb 6a bb 4a 1f 89 bb f1 ae 77 bb ea 3b 75 3b
       -0.003584609 -0.004184638 -0.0037793482 0.0037419745
000150 54 c3 8b bb fd 09 1a bb 43 bb 84 3b 4c 02 a6 3b
       -0.0042652283 -0.0023504489 0.0040506436 0.005066192
000160 15 fb 7e 3b 96 3d 84 bb 6e 04 fa 3a 9f a6 87 bb
       0.003890698 -0.004035662 0.0019074806 -0.004139736
000170 b7 b9 60 3b 31 b6 b1 3b 57 17 5c bb bc ac 89 3b
       0.0034290382 0.0054233302 -0.0033583248 0.0042014997
000180 2d 44 7d 3b fb 7d 3e 3b 62 80 b6 39 b9 85 6d bb
       0.0038645372 0.002906679 0.00034809398 -0.0036243035
000190 95 6b 80 bb 0e 53 91 3b 8c 3a 84 3b cf 64 84 bb
       -0.003919075 0.0044349497 0.0040352996 -0.0040403376
0001a0 a8 88 99 3b e0 fc 85 bb f7 ca 64 3b d5 f7 86 3b
       0.00468548 -0.004088983 0.0034911016 0.0041188993
0001b0 40 8a 63 3b bd c4 82 3b b3 ca 75 3b 71 cc 81 3b
       0.0034719855 0.003990738 0.0037504851 0.003961139
0001c0 49 5d 8d 3b a6 81 9a bb cb c7 85 bb 76 5e 80 bb
       0.004314099 -0.0047151623 -0.004082655 -0.0039175106
0001d0 ad ce 71 3b fd 18 6f bb fb 00 85 3b 17 b9 7b bb
       0.003689687 -0.00364834 0.004058955 -0.0038409883
0001e0 ce d6 9a 3b a0 8a 97 3b 1c b5 70 3b ee 67 83 bb
       0.0047253137 0.0046246797 0.0036729043 -0.004010192
0001f0 7a 2f a6 3b 14 81 8f 3b ff 58 60 3b 5d be 7e 3b
       0.0050715776 0.004379401 0.0034232733 0.003887079

gat1.lin.weight f4 [128, 56]
000000 4e f5 3b bb 05 b0 13 bb b0 db b8 bb 30 ac 1c bc
       -0.0028680149 -0.0022535336 -0.005641423 -0.009562537
000010 aa f6 b2 ba cb f3 56 ba bf 72 c1 b9 a4 27 34 bc
       -0.0013653834 -0.000819978 -0.0003689732 -0.010995779
000020 69 9e cf bd 5a 07 c5 ba 19 37 3f 3b f2 b2 b5 bb
       -0.10137636 -0.0015032098 0.0029177128 -0.0055450136
000030 c7 d9 51 bc cb d6 9b bc 8c 38 18 bc 73 87 13 bc
       -0.01280827 -0.01902332 -0.009290826 -0.009004462
000040 2e de fd bb 6e 37 32 be b5 67 4e 3c 93 e6 2b 3e
       -0.007747433 -0.17403957 0.012597968 0.16787176
000050 52 bc 87 bd bd 8d b2 3d e3 55 c1 3c 1a 1f fe b9
       -0.06627716 0.08718441 0.023600524 -0.00048469828
000060 87 72 d8 bd d8 4f 51 3c 34 76 89 bd e5 39 da bd
       -0.10568719 0.012775384 -0.067119986 -0.10655574
000070 45 27 3b bd 21 ee 80 ba ff 41 dc 3b 1a 51 8a b8
       -0.045691747 -0.0009836593 0.0067217345 -6.595459e-05
000080 60 dd 6c 3d e4 5d 4b b6 4c c7 74 ba ae 8e d9 ba
       0.057828307 -3.0304009e-06 -0.0009337559 -0.0016598308
000090 59 4a 15 bc f1 e1 1c bc 25 46 32 bd 9b 51 0c 3b
       -0.009111964 -0.009575353 -0.043523926 0.0021410945
0000a0 27 aa b0 3b 49 fa 5e 3c 13 c4 ab 3d 59 0a 05 3e
       0.0053913775 0.013609477 0.083870076 0.12992229
0000b0 e1 1d e6 3c 6c ab 1d be 68 3d 14 be 89 6c 6a 3c
       0.02809042 -0.15397424 -0.1447655 0.014308103
0000c0 37 d4 93 3d 3f aa 2d 3e e4 db e5 3c eb 19 79 bd
       0.07218211 0.16959475 0.028058954 -0.060815733
0000d0 70 e4 f6 bd 4e 3f 8a 3a fd ca aa 3d 03 0b 66 3d
       -0.1205529 0.0010547431 0.08339498 0.056162845
0000e0 fe 60 3e bb b6 c9 de ba c1 2e 81 bb 38 c5 11 bb
       -0.002904951 -0.001699737 -0.003942341 -0.0022242796
0000f0 5f 88 73 bb 24 09 bf b9 4b 14 a8 b9 4d 2a 2c bd
       -0.003716014 -0.0003643717 -0.00032058576 -0.04203253
000100 be a5 40 3d c5 f2 8c bd 36 ee 98 ba e1 71 9a 3a
       0.047033064 -0.06882242 -0.0011667672 0.0011783206
000110 24 5b d3 bb 9d ab 2b bc dc bc da bb bc 11 da bb
       -0.006450074 -0.0104779275 -0.006675346 -0.006654946
000120 3a 33 d2 bb f7 7e f0 3d fb c7 79 3d 0e ba 34 3c
       -0.006414798 0.117429666 0.06098173 0.011030687
000130 14 b5 f1 3d e4 dd c5 bc 6d f2 1c 3c 90 4d 03 b6
       0.11802116 -0.024153657 0.009579283 -1.9565668e-06
000140 15 fe 1b be 80 6f c7 3c 51 6e 04 3c 26 05 bb bd
       -0.15233643 0.02434516 0.008082942 -0.09131841
000150 c7 ac 15 bd 6c 7b 0f b8 db e1 14 bc e2 8f 84 b8
       -0.036541726 -3.4208802e-05 -0.009087051 -6.321051e-05
000160 86 f2 c4 bd 66 4a bd 36 4f a2 81 b5 cf 6b cd 39
       -0.0961657 5.6413e-06 -9.658487e-07 0.0003918097
000170 2d 1b ef bb c6 37 a8 bc 3b 7a a8 3d 55 e9 eb 3a
       -0.007296941 -0.020534407 0.082264386 0.0017998616
000180 ac df 27 3b ee 3d 02 3c d5 c7 72 3d 98 61 86 3d
       0.0025615497 0.0079493355 0.059272606 0.06561583
000190 d6 bf 2c 3d 0f 97 27 be 12 1d a7 bd c1 9b 95 bb
       0.042175137 -0.16366218 -0.081598416 -0.0045656865
0001a0 a1 09 fb bd bc 0b 88 bd 5c 6a 56 3b c2 65 26 3e
       -0.12257696 -0.06642863 0.0032717204 0.16249755
0001b0 1f fd 2e 3e 13 1e c6 bc c1 70 80 bc d5 b3 37 be
       0.17088746 -0.024184262 -0.015678765 -0.17939694
0001c0 a4 08 9a ba cb 53 85 ba 45 73 18 3b 91 a8 cc bb
       -0.0011751843 -0.0010172067 0.0023262065 -0.0062456806
0001d0 b1 b4 15 ba 14 23 20 ba 9a ac 02 bb f0 f3 00 3c
       -0.0005710824 -0.00061087427 -0.0019939304 0.007870659
0001e0 99 c9 ed bd 02 c2 20 bc 43 53 e2 ba e4 1f ce bb
       -0.11610717 -0.00981188 -0.0017267246 -0.0062904228
0001f0 c8 e6 46 bc 0f e6 ee bb 1a 90 5e bb 16 3d 16 bc
       -0.0121399835 -0.0072906087 -0.0033960403 -0.009169837
000200 e8 97 ba bb 32 d4 7c 3d c1 51 30 be e5 5a ac 3d
       -0.005694378 0.061725803 -0.17218687 0.08415774
000210 c8 49 81 3d cc e6 92 bd 47 9a 63 bd a6 1f 5d b9
       0.06312901 -0.07172927 -0.055567052 -0.00021087992
000220 51 60 93 3d a2 06 c0 3d ef 6c 15 3d da c8 86 3d
       0.07196105 0.09376265 0.03648084 0.06581278
000230 01 71 df bd cd 39 dd ba d9 7d 23 3b d5 0e 8e b7
       -0.10910226 -0.0016878188 0.0024946837 -1.6934626e-05
000240 61 5e 60 bc 49 10 dd 39 49 79 6a b6 63 b0 27 bb
       -0.013694377 0.00042164538 -3.4939314e-06 -0.0025587312
000250 03 22 db bb d3 31 08 3c 6d 84 a5 3d 44 e7 da 3a
       -0.006687404 0.00831266 0.08081899 0.0016701003
000260 ca e6 66 3b cf 4b 18 3c 91 92 16 3e 6a 2e 1a be
       0.0035232776 0.009295418 0.14704348 -0.15056768
000270 19 4c 76 3c 54 d4 27 be c9 86 e1 bd db 94 b3 bc
       0.0150327915 -0.1638959 -0.11012036 -0.021921566
000280 25 d3 e2 3d 77 66 89 bd 76 79 fe 3b 9c d4 b8 bd
       0.11075429 -0.06708997 0.007765944 -0.09024927
000290 98 9f 9f bd f8 5a 16 3b 42 eb 72 3d 34 a9 6b 3d
       -0.07794112 0.0022942405 0.05930639 0.05753441
0002a0 a1 99 56 3b db ee 20 3b 5a cf d6 3b f7 d4 55 3c
       0.0032745379 0.0024556431 0.00655548 0.013051263
0002b0 93 54 83 3a 1b 14 a9 39 0f 17 6e 37 35 53 00 bd
       0.0010019712 0.00032249172 1.4191274e-05 -0.031329352
0002c0 15 61 3a 3d 2d 5d e8 3d d0 ac c3 3a d2 fb 8e 3b
       0.04550274 0.11345897 0.0014928821 0.0043635154
0002d0 38 02 17 3b b5 09 dd 3a c8 1c 72 3c 37 54 e4 3b
       0.0023042094 0.0016863855 0.01477737 0.006968047
0002e0 55 69 e7 3a 9a d3 f0 3d a9 1e f8 bd 13 82 e7 3d
       0.0017655293 0.1175911 -0.12115223 0.113041066
0002f0 30 88 15 bd 01 c4 91 3d 1b 3d 04 bd 20 bd bc b8
       -0.03650683 0.07117463 -0.032284837 -8.999766e-05
000300 92 e8 b5 3d b7 b8 28 3e 5f 34 94 3d 76 ae c0 bc
       0.0888225 0.16476713 0.072365515 -0.02352069
000310 79 43 2b 3d 7d f8 41 3b 79 81 8c bd 50 65 90 b7
       0.041812394 0.0029597573 -0.068606324 -1.7213315e-05
000320 05 d4 1f 3e a9 e0 b2 35 06 d1 85 36 c4 59 a1 3b
       0.15608223 1.3327418e-06 3.9880424e-06 0.004924031
000330 82 32 9e 3c cd ef c5 bd fb 9d c2 3d f2 4b 58 bb
       0.019311193 -0.09664879 0.09502789 -0.0033004251
000340 a6 0e ba bb 26 2f c2 ba b6 c7 31 be 5a fe b2 3d
       -0.0056780158 -0.0014815077 -0.1736134 0.0873992
000350 e9 85 6f bd 82 81 ee 3d d6 d5 a8 bd cd 87 57 bd
       -0.058477316 0.116457954 -0.08243911 -0.052619744
000360 6e e6 11 3d af 19 11 3d 1c a5 db 3b bb cf c1 bd
       0.035620145 0.035424884 0.006703032 -0.094634496
000370 6d 9d 1b be d6 44 86 3c c0 f2 00 3e 84 70 cb bd
       -0.15196772 0.016390245 0.12592602 -0.0993357
000380 31 92 6a bb 88 d4 35 bb 14 06 d3 bb 8b ae be 3b
       -0.0035792703 -0.0027745087 -0.0064399336 0.005819147
000390 21 19 91 ba cb 6a aa 3a d0 4a d6 b9 de 65 53 3d
       -0.0011070111 0.0013001797 -0.00040873 0.05161082
0003a0 64 92 bd bd d5 8a fd 3d 6d a1 0c bb 12 72 88 bb
       -0.092564374 0.12379996 -0.0021458522 -0.004163989
0003b0 c2 50 4a bc 37 15 72 bb 46 6e 05 3b 68 6c 52 3c
       -0.012348356 -0.0036938915 0.0020359918 0.012843229
0003c0 40 ec 54 3c 45 c3 03 3e 51 97 a4 ba 57 56 db 3d
       0.0129957795 0.12867458 -0.0012557303 0.107098274
0003d0 80 fb f4 3c de ae ab 3d 14 24 ce 3b df 89 7d 39
       0.02990508 0.08382963 0.006290922 0.00024179321
0003e0 90 70 ea 3d 5a 33 aa bc 01 61 e8 bd 09 a7 02 be
       0.11447251 -0.02077644 -0.11346627 -0.12759031
0003f0 f6 b3 eb 3d 97 25 ed ba e7 0e 04 bb 0c 54 66 b7
       0.11508934 -0.0018092868 -0.0020150484 -1.3728637e-05

gat2.att_src f4 [1, 1, 64]
000000 8e 28 88 be b5 9f 64 3e 01 34 2f be 9e 1e cc 3d
       -0.2659344 0.22326548 -0.17109682 0.09966777
000010 1d f5 f5 3d 83 94 09 3d 73 2e 32 3e 93 0d ad 3d
       0.12009642 0.033588897 0.17400531 0.08449855
000020 e0 63 6d be b2 0e a2 3d e0 e6 42 3e 41 14 4b 3e
       -0.2318263 0.07912959 0.19033384 0.19831945
000030 87 6f c8 3d b5 8c 32 bd e4 29 7b 3e 92 13 54 3e
       0.09786897 -0.04359122 0.24527699 0.2071059
000040 f1 6e 26 bd b5 3b 0a be bd 0a 75 be 01 39 0c be
       -0.040633146 -0.13499339 -0.23929878 -0.1369362
000050 f8 7b 3c 3e 6a ee 0a 3e 17 98 f4 bd b4 74 3e be
       0.18406665 0.1356751 -0.11943071 -0.18599206
000060 62 33 70 3e be 8b 45 3e ef f6 b8 3c 28 0b 40 3e
       0.23457101 0.19291589 0.022578685 0.18754256
000070 de bf cc 3d 73 81 83 3e 05 90 55 3e 3b cc 4e be
       0.09997533 0.256847 0.2085572 -0.20195095
000080 a1 8a 80 be 70 32 59 3e a7 c4 07 be c6 c4 e8 bd
       -0.25105765 0.21210647 -0.1325861 -0.113656566
000090 76 6e 94 3e c1 32 b0 bb 0b 13 4e be 50 ec 49 be
       0.28990525 -0.005377144 -0.20124452 -0.19719052
0000a0 b8 ec 96 be cb 80 82 be 6a 92 26 be 14 84 92 3e
       -0.29477477 -0.25488886 -0.1626679 0.28616393
0000b0 d4 d2 90 3e 74 56 36 be 5f 4d 30 bd 08 fc 48 3e
       0.2828585 -0.17806417 -0.043042537 0.19627392
0000c0 ab d9 8d be 94 93 91 3e e4 4a 35 3d ec f7 a4 bd
       -0.2770513 0.28432906 0.044260874 -0.080551
0000d0 e7 1f ea 3d 59 4e 89 3e 73 93 b9 bd 95 ea 42 be
       0.11431866 0.26817587 -0.09061327 -0.19034798
0000e0 73 8c e8 3d 7e 69 95 3e 38 99 9e be f9 e9 43 be
       0.113549136 0.29182047 -0.30976272 -0.19132222
0000f0 8c f4 5e 3e 1e 4d 32 3e e5 5f fb bd d3 96 ae bd
       0.21772975 0.1741223 -0.1227415 -0.08524861

gat2.att_dst f4 [1, 1, 64]
000000 4d cc 64 be 91 2b 9e bd 50 06 78 3e 64 f7 6c be
       -0.2234356 -0.077231534 0.24221158 -0.23141247
000010 02 ba 83 be a8 30 31 3e 23 3e 3b 3e 4b 06 b1 3d
       -0.2572785 0.17303717 0.18285422 0.086437784
000020 1c a9 2a be a7 38 7b 3d 08 68 95 3e 71 5a 96 3e
       -0.16666073 0.061333325 0.29180932 0.29365876
000030 7c 6b 2c be c5 d4 f0 bd fd 77 0e bd 46 fd fe bd
       -0.16837877 -0.117593326 -0.0347824 -0.12450652
000040 44 8d 8a be 84 c6 96 3e 19 7c 83 3e 2c ab 99 3d
       -0.27060902 0.2944833 0.25680616 0.075033516
000050 2b 8b e3 bc cb a0 d7 bd dd 8c 4f 3e 28 0d d7 bd
       -0.027776321 -0.10528716 0.20268579 -0.10500556
000060 d1 cb 98 be 66 d2 86 bd f1 25 1a bd b9 35 7c be
       -0.29843 -0.06583099 -0.03763384 -0.24629869
000070 7b 7c dd bd 24 bb 78 3e 66 d2 47 3e 2f 22 21 3e
       -0.108147584 0.24290138 0.19513854 0.15735696
000080 0d c2 c1 bd e0 08 94 be f7 68 7b bb 52 f4 87 be
       -0.094608404 -0.2891302 -0.0038362124 -0.2655359
000090 f0 be 86 3e 77 43 72 be 19 19 8d 3e 13 e0 0a be
       0.2631755 -0.23658548 0.2755821 -0.1356204
0000a0 c1 24 15 bd 63 15 71 3e e7 38 fe 3c be a7 6d be
       -0.036412004 0.23543315 0.031032993 -0.2320852
0000b0 df fd 57 be 01 d9 e3 bd 4b c7 7d bd 27 e6 ef 3d
       -0.21092938 -0.111253746 -0.06195764 0.1171382
0000c0 44 70 e2 3c 19 8f 61 3d 43 1e 01 3e 27 51 82 bc
       0.027641423 0.05506811 0.126092 -0.015907837
0000d0 8c 5e 36 be 83 80 17 3e 88 bf 49 3e f0 ee b3 3c
       -0.17809504 0.14795117 0.1970197 0.02196452
0000e0 33 56 0e 3e 0e 39 91 3e 1d 27 30 3d 12 f7 50 3e
       0.1390007 0.28363842 0.04300605 0.2040675
0000f0 00 8b 80 bc 43 2d 0f be ea 61 a9 bd 2a 43 db 3b
       -0.01569128 -0.1398211 -0.08270629 0.006691356

gat2.bias f4 [64]
000000 03 2b 5b bc 0f b9 22 3d 07 6b 73 3d a9 22 1a bd
       -0.013376954 0.039727267 0.05942824 -0.03763071
000010 f5 97 1b bc a6 01 fc 3c bf 21 15 bd 4a 15 07 bd
       -0.009496679 0.030762505 -0.036409136 -0.032979287
000020 fe 8b 85 3c ae 82 05 3d b2 91 97 bc 46 4a e3 bc
       0.016302105 0.03259533 -0.01850209 -0.027745377
000030 71 f7 0e 3d 91 09 14 3d ed 83 9c bc 30 2a ad 3c
       0.034903947 0.036141936 -0.019105876 0.02113828
000040 02 68 b2 bc 86 84 c2 3c 1e ee a2 3c 67 64 51 bc
       -0.02177811 0.023744833 0.019888934 -0.012780285
000050 57 21 00 bd b4 0e 70 bc c1 15 55 bd 4a 7e 11 bc
       -0.031281795 -0.014651943 -0.0520227 -0.008880207
000060 65 57 79 bc 85 1a f2 bc 88 7b c1 bb 8a a6 40 bc
       -0.01521859 -0.029553661 -0.0059046187 -0.011758456
000070 bc 69 d4 bc 9c 86 45 3c 11 01 a1 bc c2 71 0a bd
       -0.025929324 0.012056019 -0.019653829 -0.033799894
000080 09 f7 8b 3c bc d5 84 bc d9 10 2a bc 25 a1 97 bc
       0.017085569 -0.016215198 -0.010379993 -0.018509457
000090 c3 17 61 3c 43 b6 e7 3c 7a f0 49 3c 70 40 55 3c
       0.013738575 0.028285151 0.0123254005 0.013015851
0000a0 c9 cb 20 bb ed 2a 39 bd d9 43 29 3d 00 3e 37 bd
       -0.0024535528 -0.045206953 0.04132447 -0.044736862
0000b0 9e b6 9a 3c 38 b6 87 3c ad 96 39 3d f7 6a 80 bc
       0.018885907 0.01656638 0.04530971 -0.015676005
0000c0 3b d2 96 3d 7c 41 67 bc 96 d8 60 bc 2d e3 12 bd
       0.07364317 -0.014114734 -0.013723513 -0.035861183
0000d0 d1 ce 60 3c 53 2e 6a 3d f8 79 ec bc 12 d1 c8 3c
       0.013721184 0.057173084 -0.028866753 0.024513755
0000e0 32 2b 30 bd ad fd 90 bc 89 92 fd 3c 99 36 1f 3d
       -0.043009944 -0.017699087 0.030953662 0.038870428
0000f0 3b 11 37 3b fe 14 fa bc d6 51 67 bd 60 6a 85 bd
       0.0027933854 -0.030527588 -0.05647453 -0.0651443

gat2.lin.weight f4 [64, 128]
000000 0c d3 0f be e8 77 03 be 5a 18 0d 3e 3c ee d1 b8
       -0.14045352 -0.1283871 0.1377882 -0.00010010271
000010 cb 5f 3d bd 94 5c 39 bd 73 ca ce bd 5a 13 3b 3e
       -0.046233933 -0.045254305 -0.10097208 0.18269101
000020 5e fa 22 3e a5 7d 2f bd 62 94 11 3e ef 98 33 bc
       0.1591582 -0.042844433 0.1421676 -0.010961755
000030 ac 90 05 be 83 ee 8d bd 67 d5 b7 bd a4 13 82 3d
       -0.13043469 -0.06930258 -0.0897625 0.063514024
000040 b6 4e 32 3d 06 30 36 3d 93 a0 e4 3d 54 99 10 3e
       0.043532096 0.044479392 0.111634396 0.1412099
000050 27 8e 28 3c 0b 81 dc 3d 4c 5d ae 3b 5c 42 ab 3d
       0.010287798 0.107668005 0.0053211804 0.083622664
000060 3f 34 24 3e ee fc 73 bd a7 c8 a5 3d 0b dd 29 3e
       0.16035555 -0.059567384 0.08094912 0.16588227
000070 a8 94 03 bd 20 aa 29 3d 8b 22 0c be c2 10 4d 3d
       -0.03212419 0.04142201 -0.13685052 0.05006481
000080 85 10 19 3d 3a 78 fc 3d e7 9c b6 bd 9d c4 1f be
       0.03736927 0.12327619 -0.089166455 -0.15602346
000090 83 ac fd 3d 64 0a e5 bd 47 5e 66 bd b2 c5 fe bd
       0.123864196 -0.111836225 -0.056242254 -0.12440051
0000a0 91 ff c4 bd e1 8b 56 bb 3d db 0b be a9 19 26 be
       -0.09619058 -0.0032737183 -0.13657852 -0.16220726
0000b0 46 25 39 bd 2c c8 ef 3d 44 28 b0 bd 11 3d 06 bd
       -0.045201562 0.11708102 -0.0860143 -0.03277308
0000c0 2c 32 50 bc f8 76 bf 3d 80 3e c1 3b 46 11 2e 3e
       -0.012707274 0.09348863 0.005897343 0.16998777
0000d0 60 a6 33 bd 4e 78 bd 3d cb 5e 9e bd a4 49 5f 3d
       -0.04385984 0.09251462 -0.07732924 0.05451359
0000e0 3f 59 5c bd 4a 5c b2 bd 5d 87 61 bd 8b 1b 91 bc
       -0.05379605 -0.08709009 -0.055060733 -0.017713329
0000f0 f2 b3 9a 3d f9 67 fa bd 20 eb ef bd c1 35 e6 bd
       0.07553853 -0.122268625 -0.117147684 -0.112407215
000100 b0 ea 3e bd 07 52 2c 3e 1d 7d ab 3b e3 d0 81 3d
       -0.046610534 0.16828166 0.0052334205 0.0633867
000110 88 d3 04 be 7d 9b fc 3c e8 c7 fa 3d 5e b5 33 3d
       -0.12971318 0.030835861 0.1224516 0.043874137
000120 31 12 a4 bd 01 84 ff bd 57 57 a2 bd 27 4f 3d bd
       -0.08011282 -0.124763496 -0.07926815 -0.046218064
000130 e2 e6 14 3e 8f fd 3f 3d 52 41 f0 bd 1a 8b d7 3d
       0.145412 0.04687267 -0.11731209 0.105245784
000140 71 10 f0 bd bb c2 1d 3e 66 dc 0a be 56 ef 32 be
       -0.11721886 0.15406315 -0.13560638 -0.17474112
000150 f1 af 4f 3c 46 18 91 bc de a1 49 3d ed 82 2b 3e
       0.012676225 -0.01771177 0.049226634 0.16749163
000160 f0 aa 1d 3e 85 9e 6c bd aa ea 8d bc a2 64 07 3d
       0.15397239 -0.057768364 -0.01732381 0.033054955
000170 b9 8e 0f 3d aa 6a 7f 3d 68 56 16 be 20 b0 04 be
       0.03504822 0.062357582 -0.14681399 -0.12957811
000180 3d 84 a7 3c cf bd 44 3d 00 7c 0a 3e ac 2d 28 3d
       0.020448798 0.048032578 0.13523865 0.04105918
000190 b6 5a 03 3e 00 ae f9 bd ee 5b 11 3e fa 88 9e bb
       0.12827572 -0.12191391 0.14195225 -0.004838106
0001a0 61 39 21 3e ef 00 17 be fa 44 82 3d 75 c2 88 3c
       0.15744545 -0.1474645 0.063608125 0.016694287
0001b0 bb 5d 04 be 18 15 86 bd dd f8 9f 3d c9 db 91 bc
       -0.1292638 -0.06546992 0.07811139 -0.017804997
0001c0 80 78 18 3e 93 87 cb 3d 75 88 04 be 83 f2 ab bd
       0.14889717 0.09937968 -0.12942679 -0.08395865
0001d0 d6 2f 0f bd b9 2e c1 bd 4f 7d cc bc 4d 3e 21 3d
       -0.03495773 -0.0943274 -0.024962096 0.039366055
0001e0 6f f9 d2 3c 4c 5c 09 3e c0 82 15 3d 6b 04 29 3e
       0.025753705 0.13414115 0.036501646 0.16505592
0001f0 c7 db f9 3d 88 31 24 3e 83 d0 d7 3c 45 48 b4 3d
       0.12200122 0.1603452 0.026344543 0.08802847
000200 dc bd 93 3d f8 3f 00 3e 6a 32 d7 bc f7 9a 15 be
       0.07213947 0.12524402 -0.026269156 -0.14609896
000210 d4 84 ef bc 96 35 9f 3d 83 1c 3c 3d 99 4e 13 be
       -0.029238142 0.077738926 0.04592563 -0.14385451
000220 2c 85 ae bd c1 18 74 3d 1e ff 0d 3e 9e 32 d7 39
       -0.08521494 0.05959392 0.1386685 0.00041045708
000230 24 89 1c be 55 cf 12 be 4a b0 4c bd 4a 54 1c bd
       -0.1528669 -0.14336903 -0.04997281 -0.03816632
000240 76 de 2b bd 16 ed e9 3d e2 7f a8 3d f3 a5 80 3d
       -0.041960202 0.11422174 0.08227517 0.06281652
000250 84 af 59 bd 25 79 79 3c 9a a0 a1 bd cf 9c b1 bd
       -0.0531459 0.015226637 -0.078919604 -0.08672487
000260 3b 1e 94 3c 00 0b fc 3c 8c 46 9a 3d 58 13 18 3e
       0.018080821 0.030766964 0.07532987 0.14851129
000270 20 03 bf bd eb a0 0c bc 9a c5 d5 bc 56 c0 e1 3a
       -0.09326768 -0.008583288 -0.0260952 0.0017223458
000280 7c b4 d1 3c b2 d2 ff bd 74 62 fc 3d 5a c4 93 bc
       0.025598757 -0.12491359 0.12323466 -0.018037964
000290 ea d1 f9 bc 44 cb b1 bd f0 18 5c bd 33 da a2 3d
       -0.030495603 -0.08681348 -0.05373472 0.079517744
0002a0 db 7a 30 bd 38 3a 5d 3d 83 33 ea bd 83 62 a7 3d
       -0.043085914 0.0540106 -0.11435606 0.081730865
0002b0 74 7a 7e 3d 74 c7 9f bd 16 f4 42 3c aa dc 37 bc
       0.0621285 -0.078017145 0.011899015 -0.011222044
0002c0 18 21 b8 3d b0 ab bb 3b fa bd 9f bd da 30 0f 3e
       0.08990687 0.005727254 -0.07799907 0.13983479
0002d0 78 9e 82 3b f2 2b db 3c d4 3c e7 3d 78 d4 11 3a
       0.003986176 0.026754353 0.11290899 0.00055629713
0002e0 79 40 9c 3d 00 b3 d6 3d 1d 08 1f 3d 4a 17 5b bd
       0.07629485 0.1048336 0.038826097 -0.053489007
0002f0 1d f3 58 3b 49 43 5a 3d ac 7f 05 be 09 88 83 3c
       0.0033103891 0.053286824 -0.13036984 0.016056078
000300 b4 2a 47 bd 2a e1 b9 3d fb 20 25 bd 8e db 42 3d
       -0.04862471 0.0907615 -0.040314656 0.047572665
000310 0e c9 a8 bd 74 df 28 3d 28 66 15 bb 34 04 15 3e
       -0.08241473 0.041228727 -0.0022796486 0.14552385
000320 0e d4 8e 3c e1 3a 1c be 9b aa a1 bc e4 7c ed bd
       0.0174351 -0.15256836 -0.019734671 -0.115960866
000330 8b b4 4f 3d a5 a4 f2 3d f6 db 26 3e a2 35 fe bc
       0.05070929 0.1184781 0.16294846 -0.031031433
000340 2f 37 89 3d 04 85 55 3c 6e 59 86 bd be f7 8e bd
       0.066999786 0.013032202 -0.06560026 -0.06980847
000350 a9 58 c4 bd 94 a0 f0 bd 0e e2 89 bd ef f4 16 be
       -0.09587223 -0.11749378 -0.0673257 -0.14741872
000360 e2 ed f1 3d 2f 87 65 3d 9f ce cd bc d4 2b 9d bd
       0.11812951 0.056037124 -0.025122939 -0.07674375
000370 37 d9 71 3d 72 03 4a 3d d3 09 02 bd b6 85 44 bd
       0.059045043 0.049319692 -0.03174765 -0.04797908
000380 a0 51 b1 3d 22 ce 86 3d 8b 89 7d bd 05 f4 4b bd
       0.08658147 0.065822855 -0.06189875 -0.049793262
000390 21 c7 56 3d 73 67 02 3d dc 0d 1d be f9 94 55 bd
       0.052435998 0.031836938 -0.15337318 -0.052144025
0003a0 ae 72 06 be 98 04 a9 3d 4d a0 c3 bd 3e 3f de 3d
       -0.13129684 0.08252829 -0.09552059 0.10851906
0003b0 22 f0 3b bd f1 be 00 be dc fe c0 bd c6 cf 5f bd
       -0.045883305 -0.12572838 -0.094236106 -0.054641508
0003c0 7a 36 86 bd a7 91 87 3c 5d 95 7f bd b6 42 26 3d
       -0.06553359 0.016548945 -0.062398303 0.040590964
0003d0 02 26 90 bd 9b c8 93 3d 5e 89 84 3c 9e fa fa 3d
       -0.070384994 0.07215997 0.016178783 0.12254833
0003e0 b9 2a fd bd 74 f3 23 3b 3e 32 3f bc 9f eb 00 3e
       -0.12361664 0.0025016936 -0.0116696935 0.12589882
0003f0 58 3f d1 3d 59 cd 12 be 1a 3f f8 bd bf 5f 54 3d
       0.1021716 -0.14336146 -0.12121411 0.051849123

lin.weight f4 [1, 64]
000000 34 cf 43 3d 3d ac a6 bd 57 b8 88 bd 2c 7c 80 3d
       0.047805026 -0.081383206 -0.06675785 0.06273684
000010 40 e4 83 3c 7c c8 e7 bc 8f fc e3 3d 48 c1 07 3d
       0.016100049 -0.02829384 0.11132156 0.03314331
000020 e5 27 54 bc 96 c7 a0 bc 70 42 5d 3c f7 4f 33 3d
       -0.012948965 -0.01962642 0.013504609 0.043777432
000030 00 29 d6 bd 25 b3 ca bd 34 d8 c9 3d c1 33 e9 bd
       -0.10457039 -0.0989745 0.098556906 -0.113868244
000040 c8 f1 e4 3d 32 5c 61 bd 5c fb 10 bd 36 c8 f5 3c
       0.111789286 -0.055019565 -0.035395965 0.030002695
000050 85 62 04 3d d5 78 96 3d e3 20 5d 3d a8 2e 05 3b
       0.032320518 0.07347266 0.05398644 0.0020321999
000060 27 2e 8b 3d 5b b8 5c 3d 0e 6e 54 3d 8a 99 ad 3c
       0.06795912 0.053886753 0.05186277 0.021191377
000070 87 14 07 3e 2f 7c 9b bd c0 1d 06 3e 9b 5c 4d 3d
       0.13191424 -0.075920455 0.13097286 0.050137144
000080 fb fc 82 bd 5b a2 da 3c 3e ce a7 3d 1d e7 a8 3d
       -0.063959084 0.026688745 0.081936345 0.08247206
000090 ae 8d 81 bd fb 0c 1f bd 35 4e 3d bc 42 d2 94 bd
       -0.063258514 -0.03883074 -0.011554291 -0.07266666
0000a0 c2 f5 0d 3b e3 25 c4 3d 1a 7b 4c bd 2e 4b e6 3d
       0.0021661376 0.09577539 -0.049922086 0.11244808
0000b0 dd b9 d8 bd 56 47 e3 bd 77 8f 07 be 61 a6 e9 3d
       -0.105823256 -0.110975906 -0.13238321 0.114086874
0000c0 ac 4c ee bd 94 a5 95 3d a0 39 01 3e 92 4e 3f 3d
       -0.11635718 0.07306972 0.12619638 0.04670579
0000d0 36 be 2e bd ab ca c1 bd f9 82 b1 3d 61 46 77 bc
       -0.042661868 -0.09462484 0.08667559 -0.015092463
0000e0 1b 10 4b 3d 89 ff f2 3d 88 1a 23 bd 46 2e 87 bd
       0.049575906 0.11865146 -0.039820224 -0.06600623
0000f0 50 03 d9 bb b6 4f 80 3d 66 fb a4 3d 42 7b b3 3d
       -0.0066227093 0.06265204 0.08055763 0.08763744
