gat_artifacts_out_plus/gat_regressor.pt (torch, 236358 bytes, 19 tensors)

encoder.0.weight f4 [64, 56]
000000 de de f3 bb c7 81 b0 bc 9f 4d 90 bb 36 b2 c9 3b
       -0.0074423393 -0.021546258 -0.0044037844 0.0061552776
000010 1d 73 39 3b d5 df 94 3b 8c 87 be bc 5c 9c 6d 3d
       0.0028297373 0.0045432844 -0.023257993 0.058010444
000020 9c ba 92 3d 6a 7a a5 3d 90 92 db bc 3e ef 6f 3b
       0.07164499 0.08079989 -0.026803285 0.0036611105
000030 29 52 a6 3c b2 03 66 3b b2 80 ec 3c 5e 76 ce 3b
       0.020302849 0.0035097417 0.02886996 0.0063007316
000040 e0 ba c9 bc 91 c2 14 3d 74 f9 4c 3d ab 4f 8d 3d
       -0.024625242 0.036318365 0.050042585 0.06899961
000050 8d 7d 5a 3c 6c f5 d2 3c d4 90 20 bd 4e 11 3d bd
       0.013335598 0.025751792 -0.03920062 -0.04615908
000060 a3 4a fa bd d7 aa dc bd 85 c4 14 3d 20 43 12 3e
       -0.12221267 -0.107747726 0.036320228 0.14283419
000070 57 8f fa bc d4 bc ec 3c 37 ef 1b 3d 78 c8 00 bd
       -0.030585928 0.028898634 0.03806993 -0.031441182
000080 61 bb 7c 3d 24 d7 4b 3c 38 ee 00 3d d2 e8 0f 3d
       0.061702136 0.01244143 0.031477183 0.035134144
000090 36 85 80 ba 7e 74 43 3d 81 31 d4 3b 59 d7 f3 3b
       -0.0009805325 0.047718517 0.006475628 0.007441443
0000a0 fb f4 6f bb 2d 52 a6 bc 09 ca 2f bd 75 bb 31 bd
       -0.0036614526 -0.020302856 -0.042917285 -0.043391664
0000b0 5d 5b fb 3b c2 dc 31 bd 08 b9 2b bd 47 63 00 3d
       0.0076708035 -0.04342342 -0.041924506 0.03134468
0000c0 b1 97 3a bd 6f ef 3b bd 64 a3 21 bd bb c8 70 bd
       -0.04555482 -0.04588264 -0.039462462 -0.05878518
0000d0 80 23 7e bd 12 68 da bd 9e ce 25 3d b7 3d b0 3c
       -0.062045574 -0.10664381 0.04048025 0.021513803
0000e0 a5 83 9c bd 1d 1a 66 bd 1b 70 91 3d 6d 17 33 3d
       -0.07642297 -0.056177247 0.071014605 0.043723512
0000f0 4f 8d 2d 3d 87 a3 e6 3e 9f 32 70 3e e2 a0 3d 3d
       0.04237109 0.45046636 0.2345681 0.046296008
000100 03 da 43 be 43 8e 04 be 14 2b 93 bc 67 8b c0 3d
       -0.19126134 -0.12944894 -0.017964877 0.09401589
000110 94 76 e7 3c c0 3c 33 be 11 31 73 3d 63 88 52 be
       0.028254785 -0.17503643 0.059372965 -0.2055984
000120 66 e4 8c bd 76 5f 12 bb e6 e3 21 be 3d 48 eb 3c
       -0.06879501 -0.0022334731 -0.15809593 0.02872097
000130 31 e5 dc bc 1f 9d d1 bd d5 c3 0d 3f ae c4 af bd
       -0.026964756 -0.102350466 0.5537694 -0.085824355
000140 d1 56 a1 3e 16 e2 e5 3d bf dc 2e bd 58 92 b4 bd
       0.31511548 0.11224763 -0.04269099 -0.08816975
000150 e8 69 39 be 63 f6 3f 3e f5 ea c9 bd 77 40 22 3e
       -0.18106806 0.18746333 -0.098592676 0.15844904
000160 87 c5 03 3e ac 62 a9 bd 18 8a 9d bd 58 0f 1a 3e
       0.1286832 -0.08270773 -0.07692355 0.15044916
000170 e7 bb 8f bd f9 79 a4 3d 12 93 79 3c 15 15 dd 3c
       -0.070182614 0.08031077 0.015232818 0.026987592
000180 77 b1 a8 bd 45 c1 7a bd fa eb 2e bd 18 7b cd bd
       -0.08236974 -0.061219472 -0.042705514 -0.10033244
000190 1c c3 56 be 01 4a 45 be 9c c8 58 be e3 5d 99 bd
       -0.20972866 -0.19266511 -0.21170276 -0.074886106
0001a0 8f 9d ef bd 71 c7 86 bd 46 eb ca bd 9b 55 1c be
       -0.11699974 -0.06581009 -0.09908156 -0.15267031
0001b0 01 1e 05 be 2f 9f 04 3d 87 e5 27 be 4e a9 bd bd
       -0.12999727 0.03237837 -0.16396151 -0.09260808
0001c0 c5 60 de bd f5 cb 04 be 67 41 14 3e 8f 4c a4 3c
       -0.10858301 -0.12968428 0.14478074 0.020056037
0001d0 cc 77 fc bd 2d 37 83 3e d5 c1 58 3e e0 c7 59 be
       -0.12327537 0.25628033 0.21167691 -0.21267653
0001e0 42 d9 3e 3d 8f 41 d6 bd c2 62 10 be c7 74 8b 3d
       0.046593912 -0.10461723 -0.14100173 0.06809383
0001f0 b2 70 38 3e 54 f9 c2 bd 59 fc 04 3e b0 fc fc bd
       0.1801174 -0.09520212 0.12986888 -0.12352884
000200 2e 1b 59 bd 93 c3 9c 3d 37 59 4c be 5a a6 50 3d
       -0.053004436 0.0765449 -0.19955908 0.050939895
000210 3f df 37 be d2 ed 0c be 60 14 82 bd 4d 4a 49 be
       -0.17956255 -0.13762596 -0.063515425 -0.1965725
000220 53 7c 72 3e 19 18 2e bd ec 3e 18 3c 66 20 4d bd
       0.23680238 -0.04250345 0.0092923455 -0.050079726
000230 49 5f 9b bd 17 d2 26 3e 0e c3 64 be 65 49 22 3e
       -0.075865336 0.1629108 -0.22340032 0.1584831
000240 b3 d8 d9 3e 2f 17 9f be 2d 7c 0c 3c bf 9d 7e 3d
       0.4254814 -0.31072375 0.008574528 0.062162157
000250 a6 2b e2 bd b4 4f 73 bd 24 2e 15 3e 91 16 ae 3d
       -0.110434815 -0.059402183 0.14568383 0.08500398
000260 61 da e9 bd 19 c3 f0 bd ff b0 03 bd 20 c3 1b bd
       -0.114186056 -0.11755962 -0.03215122 -0.038027883
000270 1b 23 ae bd b4 4e 2c bd 4b 66 c3 bd f8 90 6d 3a
       -0.085027896 -0.042067245 -0.09540995 0.00090624345
000280 02 c3 38 3c 71 d1 b1 3c d5 9f ff 3b 11 43 22 bd
       0.011276962 0.021706315 0.007801036 -0.03961474
000290 0b 3b 20 bc 01 09 84 3e 0a f7 88 be 31 89 04 be
       -0.009779702 0.2578812 -0.26750976 -0.1294296
0002a0 ac 1b 8e 3e bb 13 81 3e 15 18 a7 3d 48 aa b0 bc
       0.27755487 0.25210366 0.0815889 -0.021565571
0002b0 f8 a4 c8 bd 14 00 f0 bd 92 21 93 be f3 fb 1f 3c
       -0.0979709 -0.11718765 -0.2873655 0.009764659
0002c0 b3 aa aa bd 2a 98 88 bb aa 77 6b 3e 6a 62 a8 3c
       -0.083333395 -0.00416853 0.22994867 0.02055474
0002d0 1d 5f c6 bc 4b 0d 16 3c 75 c1 4f be 2b aa 39 bd
       -0.024215275 0.009158443 -0.20288642 -0.0453283
0002e0 53 4e 4a 3e a1 da 1b be 33 eb 49 3d 90 b4 e4 bd
       0.19756441 -0.15220119 0.04929657 -0.11167252
0002f0 f3 7c 23 be a7 18 c8 bc a4 0f bd bd 46 71 e9 bd
       -0.15965633 -0.024425818 -0.09231499 -0.11398558
000300 84 d8 b5 3c c4 d1 b7 3e b3 6e 08 3e 5b 39 60 be
       0.02219797 0.35902226 0.13323478 -0.2189688
000310 9e de 0e be 00 59 51 bd fd 8a 04 3e d3 e9 f5 bc
       -0.13952109 -0.051110268 0.12943645 -0.030018723
000320 2a 14 71 be c4 c7 3f 3d e8 9f 22 be 9d 37 46 3e
       -0.23542848 0.04682137 -0.15881312 0.19357152
000330 73 44 11 3d 68 09 3d bd bd 2b a9 bd 1e a6 83 be
       0.03546567 -0.04615155 -0.082602955 -0.25712675
000340 ad 04 7d bd 4d 85 e3 3d 89 f2 be 3c b9 d3 a0 3d
       -0.061772037 0.111094095 0.02330901 0.07852883
000350 cb fc ba bd a9 29 80 3c 0c 50 c4 3d 6c ad 16 bd
       -0.09130248 0.015644865 0.0958558 -0.03678648
000360 6c 39 d5 3c 8e 2a f1 3d 96 8d 20 be 3e be 2a bd
       0.026028357 0.11775695 -0.15679011 -0.041685335
000370 2b 66 29 3d 92 d0 09 be 15 07 94 3d f4 f3 3a bd
       0.0413572 -0.1345847 0.07227913 -0.045642808
000380 2d af 4f 3c 15 e7 0f 3c e7 e4 ae 3c 5c 85 2c bc
       0.0126760425 0.008783122 0.021349384 -0.010529842
000390 36 a0 2f bd c2 47 92 bd 11 da 88 bd 94 e3 9c bc
       -0.0428774 -0.07142593 -0.06682218 -0.019151486
0003a0 0e 35 68 bc 0e 7e c8 bc d8 6f 3a 3c ea 4b 19 3c
       -0.0141728055 -0.02447417 0.011379205 0.009356478
0003b0 1e 47 08 3d a3 86 99 bd 03 91 09 3d cb d3 a0 bd
       0.033270948 -0.07496383 0.03358556 -0.07852896
0003c0 c7 52 8b bd 42 ae af ba 2b 15 ac bc d2 9b 9e bb
       -0.06802898 -0.0013403373 -0.021006187 -0.0048403526
0003d0 60 29 70 bb d4 95 51 bc 33 36 82 3c 32 71 e2 bd
       -0.0036645755 -0.012792069 0.015894985 -0.110567465
0003e0 92 a2 b5 3c f7 b5 4e 3d a3 8e 9c 3c a9 30 ab bc
       0.022172246 0.050466504 0.019110983 -0.020897226
0003f0 7f c0 4f 3d 2f e2 3b 3c aa 37 93 bc 77 5a aa bd
       0.050720688 0.011467501 -0.017970879 -0.08318036

encoder.0.bias f4 [64]
000000 f7 15 fd b5 d6 54 8a 36 0b 0c 13 36 6c 54 ff b5
       -1.8856362e-06 4.1225967e-06 2.1911717e-06 -1.902355e-06
000010 9f 4e 01 33 65 e8 ab b6 03 01 18 b4 92 8f cf b2
       3.010666e-08 -5.1232514e-06 -1.4156471e-07 -2.416326e-08
000020 19 ad 10 36 29 fd 50 b7 c6 c6 44 b5 ea 68 64 b1
       2.1558428e-06 -1.245671e-05 -7.3304943e-07 -3.3238003e-09
000030 11 4c f8 b4 b7 f6 88 34 26 8d 8e b1 18 ac 87 b6
       -4.6248945e-07 2.5511483e-07 -4.1487906e-09 -4.043348e-06
000040 0a 1d d9 b4 77 e0 a0 36 c3 5d e2 35 60 f2 85 b5
       -4.0440528e-07 4.7945027e-06 1.68656e-06 -9.979813e-07
000050 57 ec ff b7 91 f2 37 b6 31 0a 66 b3 0f f2 d8 b2
       -3.0508423e-05 -2.7410317e-06 -5.3560317e-08 -2.5255785e-08
000060 7b 56 8e 35 93 cb b8 30 01 11 92 b3 32 df 2e 35
       1.0604994e-06 1.3445621e-09 -6.801748e-08 6.5144843e-07
000070 92 d8 51 b1 e7 00 ab 37 35 68 ed 35 c6 ea f9 b3
       -3.0536609e-09 2.0385209e-05 1.7688204e-06 -1.1637671e-07
000080 f5 7a 11 b6 f9 2c 8a b6 a0 3a b6 b6 67 00 09 b2
       -2.1678254e-06 -4.117956e-06 -5.4308475e-06 -7.974541e-09
000090 54 79 cd 37 11 cc 7b b7 d1 c4 9b 37 d0 df 01 34
       2.4494402e-05 -1.5008279e-05 1.856909e-05 1.2095484e-07
0000a0 9f 63 08 b3 d4 b6 3f b4 06 18 94 37 ca c8 0d b7
       -3.1755572e-08 -1.7854774e-07 1.7654162e-05 -8.451005e-06
0000b0 86 34 fd 35 72 95 8d b5 dd c1 12 b6 40 9b a3 36
       1.8865255e-06 -1.0548813e-06 -2.1868539e-06 4.875852e-06
0000c0 bd 33 37 b5 92 7c 3e 33 79 5a 87 33 3e 2c 1f b6
       -6.82481e-07 4.435112e-08 6.302884e-08 -2.3718599e-06
0000d0 c0 99 6b 37 2b ec 41 36 d0 4b cb b1 72 03 91 36
       1.4042889e-05 2.889671e-06 -5.9166965e-09 4.321738e-06
0000e0 d2 68 94 b2 da 2a 0c 31 9b b8 15 b3 eb fe 3d 34
       -1.7277134e-08 2.039704e-09 -3.4859664e-08 1.7694735e-07
0000f0 b9 ff 85 35 ed 2a ae 33 6f be 56 36 cd 58 dc 32
       9.983697e-07 8.1103146e-08 3.1999332e-06 2.5651753e-08

encoder.1.weight f4 [64]
000000 e0 6f 48 bd d0 a0 ec 3e b4 a8 86 3e d4 09 d7 3e
       -0.048934817 0.4621644 0.26300585 0.41999686
000010 36 03 a2 bb 7c 32 e6 3e 67 7e 9e 3c c1 e3 ab bb
       -0.0049442304 0.44960392 0.019347383 -0.0052456562
000020 ae 85 c0 3e ab 7b 79 3f 54 d5 5c 3e 27 df 81 3b
       0.3760199 0.9745433 0.21565753 0.0039633694
000030 43 3e 95 3e f9 c4 9f 3c 45 9d e4 bb d3 7e ae 3e
       0.29149064 0.019503104 -0.006976756 0.34081134
000040 93 e1 0d 3f 81 53 24 3f 89 4f 8b 3e 18 7b c3 3e
       0.55422324 0.64189917 0.27209118 0.3817985
000050 7c 8a 5c 3f 8c 33 94 3f 74 c0 49 3c 4e 4f 81 ba
       0.8614881 1.1578231 0.012313951 -0.0009865554
000060 db 73 0e 3f 5f bb 52 bb 03 12 7c bc a4 27 dd 3e
       0.5564553 -0.003215514 -0.015385154 0.43194306
000070 05 16 60 3b cc 4d 82 3f f5 af a9 3e b7 39 4f 3c
       0.0034192812 1.0179992 0.33142057 0.012648038
000080 64 0c 4c 3f 70 20 46 3e ed c5 70 3e db ad 3c 3a
       0.79706407 0.19348311 0.23513003 0.00071975373
000090 8d 14 64 3f 07 42 46 3f a2 55 88 3f 3b 4f 7b 3c
       0.8909386 0.774445 1.0651133 0.015338714
0000a0 3a 07 11 3b 77 f1 17 3d 17 78 5d 3f cb 42 e9 3e
       0.0022129552 0.037095513 0.8651137 0.45558771
0000b0 2e aa f1 3e d4 1d 7c 3f d1 77 cb 3d cd 49 95 3e
       0.4720015 0.98483014 0.099349625 0.29157868
0000c0 0a 61 c5 3d 9c e9 f6 bb 72 59 8f bb d3 a5 8c 3e
       0.09637649 -0.0075351726 -0.0043746764 0.27470264
0000d0 4a 22 80 3f 68 e6 15 3f 84 ec 82 3a 12 00 2b 3f
       1.0010464 0.585547 0.00099887 0.6679698
0000e0 a0 39 4b 3b 3f 10 b3 b5 c1 30 05 3d 19 5f ad bc
       0.003100969 -1.3341268e-06 0.0325172 -0.02116351
0000f0 e0 29 6e 3e e0 40 58 ba e7 1e 54 3f 45 01 af 3c
       0.23258162 -0.0008249413 0.82859653 0.02136291

encoder.1.bias f4 [64]
000000 86 af bb 3c 51 f7 79 be 6d f9 04 be 84 87 87 be
       0.022910845 -0.2441075 -0.12985773 -0.26470578
000010 5b cf e1 bb 0b 5a c7 3d 5c ea d4 ba 60 3d 71 3b
       -0.006891174 0.09733971 -0.0016244161 0.0036810264
000020 88 a3 44 be 1a 1b 74 bd f0 12 45 be 8b 91 e0 bb
       -0.19203007 -0.05959616 -0.19245505 -0.0068532876
000030 e0 31 65 be 3f 5d fe bb 0d e5 8a 3b 64 ea 02 bf
       -0.22382307 -0.0077625806 0.0042387308 -0.511389
000040 25 ad 2a be 12 a1 ff bd b4 71 9b bc 16 19 44 be
       -0.16667612 -0.124818936 -0.018975116 -0.19150195
000050 0e 75 d7 bd 3f 87 c3 be 75 40 d7 bb d4 49 0a 3a
       -0.10520373 -0.38189122 -0.006568963 0.00052752835
000060 07 29 2a be 13 6d 58 bd 50 2f 10 3c 53 7c b6 be
       -0.16617213 -0.052838396 0.008800343 -0.35641727
000070 53 71 21 bc cf a2 95 be b6 11 8b bc a7 d6 c3 bb
       -0.009853679 -0.29225776 -0.016976219 -0.0059765163
000080 fd ba cf be ca a6 0b be 44 63 ae bd 66 8b 82 3b
       -0.40572348 -0.13637844 -0.08515027 0.0039839027
000090 66 26 06 bf ea 8b 90 be 34 f5 00 bf d9 06 5e bb
       -0.5240234 -0.28231746 -0.5037415 -0.0033878593
0000a0 85 21 a0 bc 46 85 ab bc aa 12 e4 bd 65 63 89 be
       -0.019547233 -0.020937573 -0.111363724 -0.26833645
0000b0 7a aa eb bd a1 e9 45 bf 02 6d a5 3d 1a e1 72 bd
       -0.11507125 -0.77309614 0.08077432 -0.059296705
0000c0 d6 4a ad 3c 73 04 d1 3a cc 64 ce 3b f0 96 bf be
       0.021153849 0.001594676 0.006298637 -0.37419844
0000d0 30 6b 2e bf d3 e4 9d be a9 7f 01 bb 01 71 82 be
       -0.68132305 -0.30838642 -0.001975993 -0.2547684
0000e0 ca 0d a3 3a 7d 8f a3 bb 21 0a ac bc eb c0 97 bb
       0.0012440023 -0.0049914704 -0.021000924 -0.004631152
0000f0 69 2c a3 bd 1c 8b 28 3c a6 3b 4c bf 29 50 04 bb
       -0.07967455 0.0102870725 -0.79778516 -0.002018938

encoder.1.running_mean f4 [64]
000000 d3 af 5f b5 c2 8e 9d b5 22 54 56 34 cc 65 fa 35
       -8.332983e-07 -1.173896e-06 1.996091e-07 1.8656078e-06
000010 26 08 a9 b2 c1 00 b3 b3 92 49 16 35 a0 09 67 b4
       -1.9677895e-08 -8.335474e-08 5.5986413e-07 -2.1517053e-07
000020 3e 0b c1 35 97 70 60 36 32 44 ab b5 5c a5 c7 33
       1.4382892e-06 3.3444137e-06 -1.276034e-06 9.296738e-08
000030 5b a8 8c 36 ff 4b 1f 35 d3 40 51 b4 15 19 88 b5
       4.1919243e-06 5.9342705e-07 -1.9488225e-07 -1.014009e-06
000040 e3 9a 3a 36 46 dd 7a 36 37 42 a8 b5 54 f8 80 36
       2.7806316e-06 3.73817e-06 -1.2536246e-06 3.8436065e-06
000050 85 01 5a b5 39 6a 73 b5 77 6f 7b 34 6f e2 fa b4
       -8.121354e-07 -9.067913e-07 2.3416747e-07 -4.673088e-07
000060 16 fa 88 b6 98 0c 31 34 20 3e 6b b5 34 47 82 35
       -4.0822297e-06 1.6488991e-07 -8.7634726e-07 9.706478e-07
000070 78 c0 13 35 23 6f 06 36 1c 0d 47 36 a0 29 17 b4
       5.5041846e-07 2.0032246e-06 2.9660941e-06 -1.4078114e-07
000080 86 8b 43 b6 e1 18 a5 36 c1 ec 0c b6 ab 14 db b4
       -2.9138478e-06 4.9202795e-06 -2.0999435e-06 -4.0806967e-07
000090 f1 4a 2f 37 4f d2 95 36 e6 eb 6d b4 a0 d6 43 35
       1.04482615e-05 4.465029e-06 -2.2158164e-07 7.295548e-07
0000a0 a6 7c ae b4 77 58 fc b5 43 f3 0c b6 5b ea 7b 36
       -3.250072e-07 -1.880121e-06 -2.1003223e-06 3.7538327e-06
0000b0 22 6f 1e 36 97 50 2b 36 00 05 9d b5 bb 6f 71 35
       2.3608522e-06 2.5527895e-06 -1.1698867e-06 8.9942085e-07
0000c0 57 7d 1b b6 4f a0 0f b5 d9 1f 81 b4 38 3b 3a 36
       -2.3169757e-06 -5.350493e-07 -2.4051295e-07 2.775063e-06
0000d0 87 45 81 b5 67 60 5e b6 ac f6 7a b4 51 45 5a 35
       -9.631484e-07 -3.3136691e-06 -2.3372803e-07 8.1312197e-07
0000e0 00 6c 45 b5 ed eb c6 b4 49 9e 40 35 af 28 a5 34
       -7.354538e-07 -3.7052033e-07 7.175591e-07 3.0763246e-07
0000f0 b8 32 4f b6 9f b0 b0 b4 30 e0 50 b5 7b fc 01 35
       -3.0874926e-06 -3.2911063e-07 -7.7812274e-07 4.842365e-07

encoder.1.running_var f4 [64]
000000 29 eb 96 3e 12 bb 24 40 55 9d 6f 3f d0 98 e0 3f
       0.29476288 2.5739179 0.93599445 1.7546635
000010 c5 7c 17 3f e7 03 47 40 28 85 34 3e d9 91 f5 3e
       0.5917476 3.1096132 0.1762892 0.47962835
000020 02 d9 bb 3f 3c ad 52 40 1e 9f b4 3f 95 3d 09 3f
       1.46756 3.2918234 1.4111059 0.5360959
000030 f5 95 9b 3f c2 42 a6 3e b4 c1 3c 3d cc d0 8e 40
       1.2155138 0.32472807 0.046083167 4.462988
000040 10 42 a3 3f 28 3b dc 3f c4 15 a6 3f 39 76 05 40
       1.2754536 1.7205553 1.2975392 2.0853407
000050 9f 26 21 40 60 44 db 40 5b ff 63 3e fa 95 57 3e
       2.5179822 6.8520966 0.22265379 0.21053305
000060 12 86 4f 40 9c 27 a7 3e 6e 1a d5 3d 54 9b 68 40
       3.242558 0.32647407 0.10405432 3.6344805
000070 4b e5 fe 3f 5f 90 c5 40 dc 49 b6 3f 6e 81 95 3e
       1.9913725 6.1738734 1.424129 0.2920031
000080 2f cd 84 40 49 8d 83 3f b8 d4 5e 3f a4 86 3c 3e
       4.150047 1.0277492 0.87043333 0.18410736
000090 a8 7d f3 3f 40 a1 ad 3f c5 70 21 41 e5 aa ba 3e
       1.9022722 1.3564835 10.090032 0.36458507
0000a0 8d 0f 8a 3e 91 22 0d 3f 5b 1f 9b 40 c2 67 2a 40
       0.2696499 0.5513087 4.8475776 2.6625829
0000b0 55 e7 75 40 c8 79 bd 40 db 55 85 3f b4 37 be 3f
       3.8422444 5.921116 1.0416826 1.4860749
0000c0 7f df bf 3f 66 17 84 3e ac 49 de 3d c5 65 89 40
       1.499008 0.25799102 0.108538955 4.293673
0000d0 bd 3c 64 40 2d 11 18 40 d8 9b a2 3d 7b a8 ad 40
       3.5662072 2.3760483 0.07939881 5.4268165
0000e0 be fc 2d 3e 8f a7 e5 3d bc 1c 39 3e 31 26 b5 3e
       0.16990945 0.112136 0.18077368 0.353807
0000f0 55 61 c3 3f 8c e8 a3 3d 1b 29 d2 40 d4 ed f6 3e
       1.5264078 0.08003339 6.5675178 0.48228323

gat_industry.att_src f4 [1, 2, 64]
000000 60 1e 94 bc e8 39 80 bc fc 0b 99 be 83 c3 0f be
       -0.01808089 -0.015652612 -0.29891956 -0.14039426
000010 58 0b e4 bb 51 1d 9e bd 8e 93 ca bc 7b cd 8e bb
       -0.00695936 -0.077204354 -0.024728563 -0.0043579913
000020 cf 70 0f 3e 4a 82 68 3d 2a f4 12 3d 8f c5 8b 3c
       0.14007877 0.05676488 0.035877384 0.017061977
000030 d6 30 89 bd bb 06 8f bc 33 9c 9c ba 50 46 47 bd
       -0.06698768 -0.017459264 -0.0011948406 -0.04865104
000040 57 0e 01 bc 1d 6c c0 3d da 4e 66 be 46 dd 46 3d
       -0.007876954 0.09395621 -0.22491017 0.048550867
000050 03 1d cb bc b0 e8 3c 3e a6 70 00 bc 3e 1c 1c bc
       -0.024794107 0.18448138 -0.0078393575 -0.009528218
000060 cd 1d c8 bc 13 04 32 bd fe c7 7c bc 97 b8 49 be
       -0.024428273 -0.043460917 -0.015428541 -0.19699322
000070 61 41 25 3a a3 63 6b 3e 5c 0a 83 3e 8e 32 ad 3c
       0.00063039927 0.22987227 0.2559384 0.02114227
000080 9e b7 32 3e b1 8b 92 be 2c 20 84 3d e0 b5 9f bb
       0.17452857 -0.286222 0.06451449 -0.004873976
000090 4d fb 6e bd f6 d2 fe bd fa ff b1 be db f9 87 bb
       -0.058345128 -0.12442581 -0.34765607 -0.004149658
0000a0 c6 f8 86 3d c2 b9 81 bd b2 49 1a bf 4b c3 e1 3d
       0.065904185 -0.063342586 -0.602687 0.11023577
0000b0 c3 f0 25 bd f6 8f 04 bf 22 88 bc bd bb be 7f 3d
       -0.04051281 -0.51782167 -0.09205653 0.062437754
0000c0 9e 2a b6 3b 1e 57 ba be 31 c5 c3 bc 10 a5 da 3b
       0.0055592796 -0.3639459 -0.02389774 0.006672509
0000d0 af 4f 1d 3d bc f3 94 bd 05 c8 e3 bc 81 16 d5 be
       0.03840607 -0.07273051 -0.027805338 -0.41618732
0000e0 df 9f a4 bc 1a 10 a8 bc ec 4e 0f 3d a7 e4 b2 bc
       -0.020095764 -0.02051549 0.034987375 -0.021837546
0000f0 ce cd 2a bd 3b 22 1c bc 21 50 4c bd f6 b7 87 bc
       -0.041700177 -0.009529646 -0.049881104 -0.016567212
000100 5e 8e 90 3a fb b4 61 bd 23 ed 1c be 55 30 e7 3c
       0.0011028757 -0.055104237 -0.15324835 0.028221289
000110 cd e8 68 3c 8b a6 da 3d 94 90 ba bc 4f 07 70 bc
       0.01421566 0.10676297 -0.022774018 -0.01465018
000120 19 ab 08 bc fb 5c 1a 3d 6a 59 0f bd 80 37 50 bb
       -0.008341574 0.03768633 -0.03499738 -0.0031771362
000130 c3 80 22 3e 78 ae 00 3c a9 38 95 ba 46 fe 0e 3d
       0.15869431 0.007854097 -0.0011384684 0.034910463
000140 06 94 17 be e0 b5 49 3d c0 db 76 bd 49 60 66 3d
       -0.1480256 0.049245715 -0.060268164 0.05624417
000150 6f 78 89 3d e3 59 91 3a ec 20 b7 3c 91 27 68 bc
       0.06712424 0.001108941 0.022354566 -0.01416959
000160 aa ca 35 3c af 2c 15 3d d6 bd 83 3c fa 48 cd bd
       0.011095682 0.036419567 0.016081732 -0.10023685
000170 a9 10 9c 3c 71 20 ba bc 61 ff 51 3d d8 ba 78 3c
       0.019050913 -0.022720547 0.05126894 0.015181266
000180 29 f2 88 bb 3b 33 84 3d 8f 71 e5 bd 7a 86 10 bd
       -0.0041792584 0.06455084 -0.112033 -0.035284497
000190 5e 12 3f be 43 24 95 bd ed 7a 4e 3d b8 7a e2 3b
       -0.1865935 -0.07282307 0.0504102 0.006911602
0001a0 fa a9 99 bb de b1 6f bd 73 68 ba 3d cb fc 1d be
       -0.0046894522 -0.058519237 0.09101953 -0.15428464
0001b0 de b5 c4 3c 9f 79 c7 bd d6 bc 84 3d 86 ae 57 bd
       0.024012502 -0.09739994 0.0648133 -0.052656673
0001c0 4d 08 bb 3d 2b e1 0d 3c 13 c6 02 bc 56 95 b4 bd
       0.091324426 0.008659641 -0.007981795 -0.08817546
0001d0 60 0a 41 be 28 49 3d bd 05 d2 23 3b ff dc a8 3c
       -0.18851614 -0.046212345 0.0024997008 0.020613192
0001e0 88 3a 52 bd 3f 71 e5 3b 96 40 7b bd a1 ec 4d 3b
       -0.05132535 0.0070020254 -0.06134089 0.003142156
0001f0 65 52 ea 3d ee 89 c6 3c 0d 7a 90 3d be 89 9a 3b
       0.11441497 0.024235692 0.07054529 0.004716127

gat_industry.att_dst f4 [1, 2, 64]
000000 c8 87 8a 3c ed c6 6b be 0c c8 da bd 0a 64 c4 3d
       0.016910449 -0.23025103 -0.10682687 0.095893934
000010 54 53 d4 3c 4e 4e 43 be b9 c9 28 ba 7c 17 98 ba
       0.02591864 -0.1907284 -0.00064387504 -0.0011603679
000020 76 75 da 3d 34 4f d0 be e5 b7 a1 bd 9e a6 83 bc
       0.10666935 -0.40685427 -0.07896403 -0.01607066
000030 e7 42 36 3d 06 cd c2 3c 26 33 03 3d 2f e7 bb 3c
       0.044497397 0.023779403 0.0320312 0.022937385
000040 6e e5 0c 3d 2d b2 c2 3d 8f 72 24 3e 2e dc a4 be
       0.03439849 0.095066406 0.16059326 -0.32199234
000050 93 b3 7d bd 51 b0 45 be 22 24 fc 3c 2d a8 a4 bc
       -0.061938833 -0.1930554 0.030778948 -0.020099724
000060 12 f8 12 bd 53 0d 72 3d b4 47 43 3c b0 1e 68 3e
       -0.03588111 0.05909474 0.011918951 0.22667956
000070 14 a9 98 3c 48 3d 10 3e 4c e2 cb 3c 71 14 1b bd
       0.01863531 0.14085877 0.02488818 -0.03786129
000080 dd bd 3a be 1e 1c 01 3e a6 34 d0 3d cc 88 c7 3c
       -0.1823649 0.12608382 0.10166292 0.024357222
000090 c6 67 71 be f1 e3 b0 bd 96 4c 54 3e 12 60 b6 3c
       -0.23574743 -0.086372264 0.2073234 0.022262607
0000a0 51 de 09 3d 59 de 7e be 8a ab 22 3c 34 7b 09 3d
       0.033659283 -0.24889506 0.009928593 0.03356476
0000b0 b6 44 73 be a8 30 1e 3e e7 83 cf bc 1c ea 50 bc
       -0.2375668 0.15448248 -0.02533145 -0.0127511285
0000c0 c0 b9 20 3b 53 d0 1f 3e bd 2c 86 3c f6 f6 6f 3c
       0.0024524778 0.15606813 0.016378755 0.014646282
0000d0 ad 20 96 be 63 1b e4 bd 11 b2 fc bc 86 1c 30 3e
       -0.29321805 -0.11138036 -0.030846627 0.17198381
0000e0 a8 da dc 3b 76 77 14 3b 28 53 9c bd 96 a7 0e bd
       0.006739933 0.0022654212 -0.07633048 -0.03482779
0000f0 ae 8f a4 be 11 b2 b1 3c 4e d0 39 3e 1b 04 6d 3c
       -0.3214087 0.021691354 0.18145868 0.014466311
000100 df 83 d9 bc a5 65 f1 bb 93 02 15 3d a3 09 01 bc
       -0.026552139 -0.0073668533 0.036379408 -0.007875833
000110 2c 44 ab 3d 71 4d ed 3c 6e 45 6e bc c1 44 c4 3c
       0.08362612 0.028967591 -0.0145429205 0.023958566
000120 f0 cd 89 bc 8d 65 1a 3e c8 3c 47 3e 99 4b a6 3d
       -0.016821831 0.15077801 0.1945678 0.08119888
000130 77 2f 25 3d 8e cc 51 3d af 8d c8 3c 6c 1b bd 3d
       0.04032847 0.05122047 0.024481623 0.09233746
000140 d4 95 c5 3c 90 4e f0 3d 29 a1 ae 3d 48 44 0d be
       0.024119295 0.117337346 0.085268326 -0.13795578
000150 c2 a6 09 be 27 e2 bf 3e db 73 21 3c 03 b3 54 bc
       -0.1344252 0.37477228 0.009854282 -0.012982133
000160 b3 4a 90 3b 46 20 4d 3d df ee 0d 3d e7 77 e6 3d
       0.004403436 0.050079606 0.034651633 0.11253338
000170 1b 66 6f 3d ac d9 ca bd 61 4b 52 bd b0 d1 c3 3d
       0.058446985 -0.09904799 -0.05134142 0.09561479
000180 ab dd 22 3e 81 b0 ec bc 80 49 32 3d 8f b6 a9 bd
       0.15904872 -0.028892757 0.043527126 -0.082867734
000190 82 51 02 3e dc 92 16 3b 94 da 90 bd b7 6a 86 3d
       0.12726405 0.0022975719 -0.070729405 0.06563323
0001a0 a6 f4 e7 bd 86 3e 3d 3c 03 a8 ca bd 63 ab f8 bd
       -0.1132596 0.011550551 -0.09895327 -0.121420644
0001b0 14 39 6d 3e 20 75 90 bd 60 dc 9f bd ea a5 c0 3d
       0.23166305 -0.0705359 -0.07805705 0.094066456
0001c0 8e c9 57 3b cf 44 c2 3c 40 23 2d 3c 78 e1 46 3e
       0.0032926532 0.023714451 0.010567486 0.19421947
0001d0 a3 1f 22 3e f9 bd 92 3d 54 79 89 3b 7f dc db bc
       0.15832381 0.07165141 0.0041953716 -0.02683854
0001e0 0b aa 54 3c 43 d3 58 bd fa c6 af bd c9 34 43 3b
       0.0129799945 -0.05293585 -0.08582874 0.00297861
0001f0 a5 b3 dd 3d b4 09 d5 3c eb 18 cc bd 9a d6 4f bd
       0.1082528 0.026005603 -0.0996569 -0.05074177

gat_industry.bias f4 [128]
000000 be 26 41 bd 10 34 56 bb 8d f7 aa bd 9a b2 c2 bd
       -0.047156088 -0.003268484 -0.08347998 -0.09506722
000010 eb 5f 86 bc 51 e8 94 be e8 ee 5d bc be b6 75 bc
       -0.01640316 -0.29083493 -0.013545729 -0.014997182
000020 0d 36 ae 3d 7c a9 6e be ed 58 df 3d b0 4a 88 3c
       0.08506403 -0.2330684 0.10905633 0.016637176
000030 6c 82 99 bd d1 e1 3e bd 4e cb 1d bc 8a 4a 87 bd
       -0.07495579 -0.046602074 -0.009630991 -0.06606014
000040 bb 1b af bd 85 52 16 be 2b 8c 2d be 6a 3e e7 3c
       -0.08550211 -0.14679916 -0.16948001 0.028228004
000050 34 1a 01 be de d0 00 be 08 66 f1 bc 7f c4 9b 3b
       -0.12607652 -0.12579677 -0.029467598 0.004753649
000060 0a 5b e7 bd 63 69 f3 3c be 12 49 bd 96 c3 bd bd
       -0.11296661 0.029713338 -0.04909014 -0.09265821
000070 28 af 43 bd 3e 20 4d be c0 d7 40 be bd bf 3c 3d
       -0.047774464 -0.2003183 -0.18832302 0.046081293
000080 0b fe 4c be 6c ab 8f be d2 5e 89 bc a5 6d c5 bc
       -0.20018785 -0.28060472 -0.016768847 -0.024100134
000090 38 16 28 be 8a ca cb bd 5b 57 96 be 0e bb 1e bd
       -0.16414726 -0.09950741 -0.29363522 -0.038752608
0000a0 ee 26 75 bd 74 3b de bc fe bc 1d be 98 53 8e bd
       -0.05985158 -0.027127959 -0.15404126 -0.06949538
0000b0 dc 63 06 be c9 ee ec bd a6 7b 8e be c5 6b 88 3c
       -0.13124031 -0.11568982 -0.2782871 0.016652951
0000c0 6c f5 72 bd b9 35 2f be dc da f8 bc 70 df 8f bc
       -0.059316084 -0.17110337 -0.030377798 -0.017562598
0000d0 21 68 25 bd 12 d7 28 be ab 68 99 bc 34 26 c3 bd
       -0.04038251 -0.16488293 -0.018726667 -0.09528771
0000e0 0d 97 13 bd fb c8 bd bc 3d 89 db 3c 58 1a 96 3a
       -0.036032725 -0.023167124 0.026798839 0.0011451943
0000f0 ea 3f 29 bd b5 95 3f bd d5 f3 85 be 31 8c 5d bd
       -0.04132072 -0.04677363 -0.26162592 -0.054088775
000100 92 f3 d4 bb c5 c8 27 3b 54 2f f3 bc e3 96 c7 bc
       -0.0064987624 0.0025601846 -0.029685654 -0.02436394
000110 fb b9 48 bc c5 d5 b6 bd ce eb 16 3c b7 6f f6 bb
       -0.012251372 -0.08927492 0.009211494 -0.0075206417
000120 f9 5d df 3d a7 e7 92 be 64 41 67 bd c7 46 26 bc
       0.10906596 -0.28692362 -0.056458846 -0.010148711
000130 a8 46 64 3a 59 c2 68 3c d0 1c 00 3b b2 4b ba bd
       0.00087080384 0.014206492 0.0019548424 -0.09096469
000140 cf a4 89 bd 04 dc e8 bd 8b 09 d3 3c 43 c3 3c bc
       -0.06720888 -0.1137009 0.025761386 -0.011521163
000150 61 b6 75 bd 15 10 1a be 02 e6 01 3b 99 78 9f bb
       -0.059988383 -0.15045197 0.0019820933 -0.0048666713
000160 68 e3 22 bd b0 7b 0a bd 15 c9 cd bb 57 4f 14 bd
       -0.039767653 -0.033809364 -0.0062800744 -0.036208477
000170 db d1 e4 bb b3 74 11 be d6 bc a3 bd e4 42 26 bc
       -0.0069830245 -0.14204673 -0.07995002 -0.010147784
000180 b6 00 1a bc 6b 0d e8 bd 32 98 31 bd 55 21 ea bb
       -0.009399584 -0.11330684 -0.043358035 -0.007145087
000190 40 69 13 be 6c 79 c9 3c a9 ae 00 3d 67 4e b1 3c
       -0.14395618 0.024594031 0.03141657 0.02164383
0001a0 4e 65 01 bd c8 b1 69 bc 6e 26 8c bb a9 5f 5c bd
       -0.031590752 -0.014263578 -0.004277042 -0.053802166
0001b0 b3 85 4d be 99 83 39 bd 6f 7f a5 bd 8c 75 4c bc
       -0.20070533 -0.045291517 -0.08080947 -0.012479197
0001c0 02 09 11 ba 1e a5 6b bc cd c2 78 bb 47 66 08 be
       -0.00055326533 -0.014382629 -0.0037957907 -0.13320266
0001d0 78 69 1c be 9a 76 da 3b b9 c9 9b bb 11 15 0d bc
       -0.15274608 0.0066669704 -0.004754272 -0.00861098
0001e0 81 b4 a4 bb 83 60 68 3c 09 c5 66 bd 31 ec b5 ba
       -0.0050264006 0.014183166 -0.05634025 -0.0013879595
0001f0 38 b5 22 bd 80 34 e3 39 76 16 0a be 07 28 aa 3c
       -0.039723605 0.0004333593 -0.1348513 0.02077104

gat_industry.lin.weight f4 [128, 64]
000000 a4 a9 32 bd 8a 33 3d bc 42 ca 88 bc fe d2 22 3d
       -0.043618813 -0.011547932 -0.016698007 0.039752
000010 8c 9a 85 3b 72 03 90 3c 55 ce 00 bc 32 bb 0f 3c
       0.0040772613 0.017579768 -0.007861693 0.008772658
000020 2a 7a ea 3c 40 0c 0b bc a1 8d a0 3c 32 e0 90 3b
       0.028622705 -0.008486807 0.019598784 0.0044212574
000030 5b ab a1 bd ea 9b 19 3c af 77 7e bc 92 7e 57 bc
       -0.078940116 0.009375552 -0.0155314645 -0.013152735
000040 d9 9b 28 bd c0 2b e5 bc 8b a0 40 bb ef 63 e5 3b
       -0.041164253 -0.027974963 -0.0029392566 0.0070004384
000050 39 98 41 bd 26 a7 3d 3d df bb 61 3c c4 4d 92 bb
       -0.04726431 0.046301983 0.013777702 -0.004464837
000060 0e 2c 53 bd 3f 46 29 bc 99 b3 31 bb 34 28 17 3c
       -0.051555686 -0.010331689 -0.0027115105 0.009225894
000070 0a 93 a2 bb c7 9b 14 3d ea bd f8 bc 6c de 47 3b
       -0.004961376 0.036281373 -0.030363996 0.0030497564
000080 23 45 42 bd 30 17 23 bd bd 3c 81 3c 64 a3 7d bc
       -0.047429215 -0.039817035 0.015776033 -0.01548085
000090 50 33 74 bd 61 0b 32 3a 58 de bc 3c 3a 9a 92 bc
       -0.059619248 0.0006791857 0.02305524 -0.017895807
0000a0 a6 44 8f bb 92 c0 2a bd bc 46 1b 3c 06 11 30 bd
       -0.004372197 -0.041687556 0.009477314 -0.042984985
0000b0 34 c4 04 3d 3d fd 12 3d c2 ef 44 bc ef df 78 3c
       0.032413676 0.035886038 -0.012020053 0.015190109
0000c0 07 a6 25 3d bb fb aa bb 47 be 61 bb 75 b7 c0 bc
       0.04044154 -0.005217997 -0.003444569 -0.02352498
0000d0 09 1a 93 3c c2 90 c5 bc 18 ce b7 3b 55 1f d5 bc
       0.01795675 -0.024116877 0.005609285 -0.026015917
0000e0 2f c6 90 3c fd 7d 3a bb b3 a4 46 bb f5 9a 4c 3c
       0.017672626 -0.0028456443 -0.003031057 0.0124881165
0000f0 3e 7e a0 bc 4d ee e7 3b a5 02 3c bd db 15 0a 3d
       -0.019591447 0.007077968 -0.04590096 0.03371225
000100 f0 4b 77 3d c9 a6 f1 3d fe 9c 56 3e b9 ce a0 bd
       0.060375154 0.1179939 0.20958325 -0.07851929
000110 54 db 45 3c e6 fd 20 3e 63 ea 56 3c 79 0d 90 3c
       0.012076218 0.15721855 0.013117406 0.01758455
000120 1e fe 28 bd 69 5e ac 3d d4 03 8d 3d 2a 5a d3 3b
       -0.04125797 0.08416445 0.06885496 0.0064499574
000130 18 12 01 3e ba 06 da bc e4 61 70 3c dd 36 da bd
       0.12604558 -0.026614536 0.014671776 -0.106549956
000140 4e 53 60 3d 27 3c 3f bd f3 f2 34 be d7 b6 bf 3d
       0.054766946 -0.046688225 -0.17670803 0.09361046
000150 a2 f8 ff 3d f5 df 53 bb c1 7a 9d bc 6b 30 9a 3c
       0.12498595 -0.0032329534 -0.019223573 0.018821916
000160 7e 2b 62 bd 1f 1e 95 bc b8 b8 50 3b 8f 7b 5b be
       -0.05521726 -0.01820284 0.0031848382 -0.21433853
000170 eb 32 85 3a df 47 24 bd a7 89 cf 3c ec 1f ab ba
       0.001016227 -0.040107604 0.025334192 -0.0013055778
000180 8a 29 95 bd 55 ba 3e 3e 83 86 78 3d 90 37 98 3c
       -0.072833136 0.18625768 0.060675155 0.018581182
000190 55 74 b8 3d 22 9d 18 3d 58 0f a9 bd 62 bd 05 ba
       0.090065636 0.03725923 -0.0825488 -0.00051017676
0001a0 2b 69 58 bc 9d 71 3e 3d 7f 8e 1a 3d 35 c8 04 bd
       -0.013208668 0.04649507 0.03773355 -0.032417495
0001b0 5d 0a a3 3d 59 01 49 be e5 0c 9e 3d d3 52 e1 bd
       0.07960961 -0.1962942 0.07717303 -0.110021256
0001c0 56 c8 53 bd f4 d9 fa 3b 32 cd d5 3a c8 fa b1 3b
       -0.051704727 0.0076553766 0.0016311763 0.005431507
0001d0 fb 66 dd bc 71 5f 81 bd 6b 43 f7 3b 71 c1 44 be
       -0.027026644 -0.06317032 0.0075458786 -0.19214417
0001e0 48 dc 51 3c ee 67 ac bb fe 56 48 3c 55 ac ab 3c
       0.012808867 -0.005261413 0.012227772 0.020956198
0001f0 4f 99 13 3e c7 06 c4 3b ae b0 89 3c ce 17 84 3a
       0.14413951 0.0059822532 0.01680788 0.0010077895
000200 46 8d fb bc 89 e0 64 3d 84 e4 38 3e c2 4f 38 bc
       -0.030707013 0.055878196 0.18055922 -0.0112494845
000210 53 a7 19 3d 34 04 cc 3d fa 2c 48 3b 8b 92 1d 3c
       0.03751309 0.09961739 0.0030544386 0.009617458
000220 88 14 0b be fb 10 d8 bb f0 7e 82 3c 4b 8a c1 3c
       -0.13582051 -0.006593821 0.01592967 0.023625514
000230 63 89 70 bd c4 8c 92 3c 75 81 1d ba 51 50 3b be
       -0.058724772 0.017889388 -0.00060083653 -0.18292357
000240 ee 2f 0c 3e ec 47 3c bd 1b a2 bc bd 87 ab 96 bd
       0.13690159 -0.045967028 -0.09210607 -0.07356935
000250 00 be 35 3e 81 99 43 bd b0 aa 33 3c d7 9e a1 bb
       0.1774826 -0.047753815 0.010965988 -0.0049322653
000260 bd eb 98 bc bb 37 a9 ba ab 26 a3 3c 08 46 10 bd
       -0.018667096 -0.0012910286 0.0199159 -0.035223037
000270 8c 44 aa 3c 4a d0 47 bb 77 09 73 3e 31 47 84 bc
       0.020784639 -0.003048914 0.2373408 -0.016147228
000280 2c 01 c1 bd 93 46 bb 3d e4 15 b4 3d f8 73 ba 3c
       -0.09424052 0.0914432 0.08793238 0.022760376
000290 29 dd 98 be de 7c 7d 3e 86 94 d8 bd 4c 2b ed b9
       -0.29856232 0.24754664 -0.105752036 -0.0004523642
0002a0 5d 9e d1 bb 27 37 03 bd cc 69 06 be 1e 0e e2 3c
       -0.006397052 -0.03203502 -0.13126296 0.027594622
0002b0 8f fa 97 bd f9 14 cd bb 01 62 47 3d e0 88 af bd
       -0.07420837 -0.0062586037 0.04867745 -0.08571029
0002c0 4d a1 b1 bc 6a e5 47 3c 8e 49 58 3a b0 0c 35 bb
       -0.02168336 0.012200693 0.00082507066 -0.002762597
0002d0 4b f1 97 bd 08 00 47 be e3 22 a3 3b 2c 06 83 be
       -0.0741907 -0.19433606 0.004978524 -0.25590646
0002e0 2e 1e b0 3c 91 ff 4e bb ad cf 3e 3d 7d 20 f1 bb
       0.021498766 -0.0031585435 0.046584774 -0.0073586092
0002f0 1d db e7 3d e7 d0 e0 bb 09 37 94 3d 47 3b 9c 3b
       0.113210894 -0.0068608406 0.072370596 0.0047678086
000300 d8 0f 69 bd 71 3a 14 3d 54 05 ea bc 3a 22 b7 3d
       -0.056899875 0.036188547 -0.028566994 0.08942075
000310 3c b7 94 bc 45 e5 7c 3d 89 4a 9d bb e9 8d 54 ba
       -0.01815378 0.061742086 -0.004800145 -0.00081083045
000320 f5 4b e7 bc 54 61 14 bd aa 07 ad bd 44 be 59 bc
       -0.028234461 -0.03622563 -0.084487274 -0.013289992
000330 1e 84 fd bc 31 91 d5 3c 0d bf 25 39 6f 35 db bd
       -0.030946787 0.02607021 0.00015806798 -0.10703551
000340 40 9b 55 bd c1 5f 83 3d a5 20 28 bd f3 8b 92 bd
       -0.05215001 0.06414748 -0.041046757 -0.071555994
000350 6d 6a eb bc 2f dd c8 3c eb 0d 76 3c 8b 21 7c bc
       -0.028737271 0.024519531 0.015017967 -0.015388857
000360 93 08 26 bd d3 cc 5c ba 43 a0 e1 3a 32 1b a7 3d
       -0.04053552 -0.0008422855 0.0017213899 0.08159484
000370 c2 26 64 bb 36 f6 d4 bc 96 79 a1 3d d6 98 b2 bc
       -0.003481314 -0.025996309 0.07884519 -0.021801393
000380 ac b0 80 3d 34 b8 c9 bd 59 a6 c5 bc 4c 1c 74 3a
       0.062836975 -0.09849587 -0.024127172 0.0009312078
000390 14 8b 0b be 35 ab a0 3d d8 b5 b8 3d c0 22 76 bb
       -0.13627273 0.07845155 0.09019059 -0.0037557334
0003a0 80 b9 53 3b d4 dc 3c bd bf ea 85 3d eb 65 95 bd
       0.0032306612 -0.046109036 0.06538915 -0.0729483
0003b0 86 38 4d 3d 7e ef 26 3e d9 52 b1 bd ad a9 a2 bc
       0.050102733 0.16302297 -0.0865838 -0.019856298
0003c0 cc e6 b0 3c 66 3b 02 39 94 55 0a 3a 16 04 61 bd
       0.021594428 0.00012419894 0.00052770344 -0.054935537
0003d0 0f c1 aa 3c 57 b1 60 bd 86 ee c1 ba 69 60 93 3d
       0.02084401 -0.054856624 -0.0014795817 0.07196123
0003e0 de 97 c9 ba 9c 15 e3 bb f0 4a 0b 3c 38 f6 88 ba
       -0.0015380343 -0.0069300663 0.008501753 -0.0010449355
0003f0 58 72 5a bd 91 b2 89 bc c5 39 88 bd 5b 48 37 3d
       -0.053331703 -0.01680878 -0.06651644 0.044746738

gat_universe.att_src f4 [1, 2, 64]
000000 af 1f dc bb 14 ec e2 3c a8 57 f9 3c 39 ca 57 3b
       -0.006717644 0.027700461 0.030437306 0.003292693
000010 00 8a 80 3c 0f aa 81 bd 64 5c 41 3c 41 e5 e3 3b
       0.015690804 -0.06331264 0.011801813 0.0069548194
000020 00 9f a1 3d ca 5f 16 bd 30 b9 18 3d d4 e8 2b 3c
       0.07891655 -0.036712445 0.037285984 0.010492522
000030 fb a3 73 3b 2e f7 f7 bb 5f 8c c5 3b ef 9d e6 3b
       0.0037176597 -0.007567308 0.0060286964 0.00703787
000040 87 34 06 3c 82 31 28 3d 76 d5 84 3c bd 5e 2f 3e
       0.008191234 0.04106284 0.016215067 0.17125984
000050 b8 bb c8 3b 43 7f 04 3e 62 3b 44 bc ca 97 74 3c
       0.0061258934 0.12939171 -0.011977049 0.014928767
000060 ca f1 f0 3d 69 f2 41 3d eb fe 45 3b b6 0b c4 3c
       0.117648676 0.04735032 0.0030211757 0.023931365
000070 b2 eb 42 bb c0 60 05 be 3b 4e 01 3b be 87 2d bb
       -0.0029742536 -0.13025188 0.0019730467 -0.0026478614
000080 33 24 92 3d ad a4 8b bc 70 9d 7f 3c 65 89 d8 ba
       0.07135811 -0.017046297 0.015601501 -0.0016520439
000090 a0 33 3f 3e 4d 7a 97 3d 71 ef 18 be 91 c2 dd bb
       0.18672037 0.07396374 -0.1493509 -0.006767579
0000a0 28 47 1d bc 1b a3 5d 3c 0b 61 e7 bd 7b e8 f2 bb
       -0.0095994845 0.013527657 -0.11297806 -0.0074129677
0000b0 8c 73 a1 bb 89 67 09 be 00 9d 1c bc ba 33 3d 3c
       -0.0049271043 -0.13418402 -0.009558916 0.011547977
0000c0 24 32 d6 3d 80 63 53 3e d6 20 0c bc 12 3b da 3d
       0.10458782 0.20643425 -0.008552751 0.10655798
0000d0 95 bd 35 3c 9c 68 ae bd 66 0a 94 3c 96 46 0a 3d
       0.011092563 -0.085160464 0.018071365 0.033758722
0000e0 da 3f f3 3b e1 e0 49 bb 6a 58 25 3d 7e 17 9a 3a
       0.007423383 -0.0030804204 0.04036752 0.0011756269
0000f0 98 9f 18 bd 8d c3 11 bb 6b e2 ee bd 22 97 af bb
       -0.037261575 -0.0022241801 -0.116642796 -0.0053585926
000100 2b 8a 2d bc 71 15 b5 3b 89 71 9b 3b 86 48 01 bc
       -0.010592024 0.0055262377 0.004743759 -0.007890826
000110 16 ba a9 3c ee 08 40 3a 0e 79 8b bb 30 4b 64 39
       0.020718616 0.00073255494 -0.004256374 0.00021771784
000120 69 3f 20 3e fa 7e c6 bb 4c 3b ad bc 41 af 6e 3c
       0.15649189 -0.0060576173 -0.021146439 0.014568151
000130 be 11 cf 3a fa 6f 3a bc 9f e7 8c bb 4e e2 19 3c
       0.0015798134 -0.011379236 -0.0043000723 0.009392334
000140 a8 2c 99 3d 50 f8 93 3d 4d cd df bc 7e 8d 95 3d
       0.07479221 0.07225096 -0.027319575 0.07302378
000150 6b f6 08 3e 4e c7 5f 3d a8 5d bd 3a b9 2e d3 39
       0.13375251 0.05463343 0.0014447467 0.00040279867
000160 30 7f ca 3a b7 aa a6 ba 2d 6f 20 3b 56 a6 0a bc
       0.0015449282 -0.0012715672 0.0024480328 -0.008462509
000170 3d 8c 11 3d 88 73 08 be 82 7a 16 3d d5 6e c0 3b
       0.035534132 -0.13325322 0.036737926 0.005872587
000180 d6 3e 9d 3b 31 ed e4 38 8d 55 f6 ba 54 87 61 bb
       0.0047987504 0.000109160675 -0.0018793807 -0.0034412937
000190 08 e7 04 3e c9 2e e6 3b 8f 6f 52 be 93 2d e0 3c
       0.12978756 0.00702462 -0.20550369 0.027365481
0001a0 97 07 e0 bc 11 fc c8 bb d6 2c 4a bd 0e cc 26 3e
       -0.02734737 -0.0061335643 -0.049359165 0.16288778
0001b0 45 cd ae b8 d5 07 0d bd dc 55 47 3b f1 17 83 3b
       -8.335201e-05 -0.034431297 0.0030416166 0.004000657
0001c0 f9 33 b7 bc 88 28 4a 3c 6c b4 ba 3b f4 ea d7 3c
       -0.02236365 0.012338765 0.0056977775 0.026357152
0001d0 2c fe 0a 3e 82 3e 1d bc 3d 60 3b 3c 4e bf 34 bd
       0.13573521 -0.009597423 0.011436519 -0.044127755
0001e0 04 ab 3a 3c ed 88 bf bb be c4 95 3b a9 f8 ff ba
       0.011393312 -0.0058451802 0.0045705726 -0.0019529063
0001f0 ab a3 04 bd ff 12 2b 3c c6 31 b2 bd 83 ca 49 bb
       -0.03238265 0.010441541 -0.087009 -0.0030790872

gat_universe.att_dst f4 [1, 2, 64]
000000 73 53 7e 3b 9f 90 00 bc 9c 68 11 bb 37 0d ad bc
       0.0038807064 -0.00784698 -0.0022187596 -0.021124465
000010 2c 60 a5 bb c0 e5 8b 3b e8 46 0f ba 31 79 65 bb
       -0.005046865 0.0042693317 -0.0005465583 -0.0035014863
000020 7e a1 d4 3a 2e da 00 bc 6b 00 3a 3c 46 31 5e bb
       0.0016222445 -0.007864518 0.011352639 -0.003390388
000030 5a 5f ad 3b a1 63 45 3b d2 cc b1 ba c4 44 17 ba
       0.005290908 0.0030119198 -0.001356507 -0.000577044
000040 20 9e 76 bc fd f5 9a bc ee be 0f bc 8d e5 10 bd
       -0.015052348 -0.018916124 -0.0087735485 -0.035375167
000050 6b e3 d8 39 66 eb 47 bd 89 e8 3f ba 89 42 81 bb
       0.0004136817 -0.048808478 -0.0007320722 -0.003944699
000060 f1 b5 0a bd ee f3 6c bc 6c 6a 64 3b b1 27 6f bc
       -0.03386492 -0.014462454 0.0034853471 -0.0145968655
000070 9b c3 43 ba f9 39 6d 3d 76 d3 60 bc 50 16 d1 3b
       -0.0007467807 0.057916615 -0.013722291 0.0063808337
000080 10 4f 0e bd f0 d9 47 3b 41 2e db 3b a6 23 90 ba
       -0.03474337 0.003049489 0.0066888635 -0.0010996952
000090 17 b0 2b bd 71 35 eb 3a a8 24 91 3b b8 09 f1 3a
       -0.04191598 0.0017945004 0.0044294186 0.0018389737
0000a0 2c 65 05 bc d6 d8 1a 3b 53 5b 57 3c 95 32 03 bd
       -0.008141797 0.002362778 0.013144332 -0.03203066
0000b0 9e e5 42 3b 19 89 9d 3c dd b4 ad 3b b7 b8 b1 3c
       0.0029738913 0.019230412 0.0053011016 0.021694524
0000c0 cc 8a ce bc 86 48 00 bd a7 83 b4 3b bd 12 b5 3b
       -0.025212668 -0.031319164 0.0055088582 0.0055259154
0000d0 f4 a7 48 bc 74 ef 31 3c 1b 2b 0e 3b 6f e8 84 bc
       -0.012247074 0.010860313 0.0021693173 -0.016224114
0000e0 1f 8d 16 3b 2a 1d 9b 3b 49 63 0b bc ac 2f 2a 3b
       0.0022972298 0.0047337012 -0.008507558 0.0025968356
0000f0 43 19 24 3c 5f 65 43 3b b7 4d 40 3c 6c 38 74 3b
       0.0100157885 0.002981506 0.011737279 0.0037265075
000100 72 d1 cf 3b 80 03 85 3a 59 98 44 bd 97 db 9a 3c
       0.0063421065 0.0010148138 -0.047996853 0.018903537
000110 09 d1 e5 ba c2 b4 96 bc ed 7d 7c 3c 4a c2 96 3b
       -0.0017533611 -0.018396739 0.015410882 0.004600798
000120 11 bf d5 3d 44 b5 de bd d9 6f 17 bb 2b 5a 41 bb
       0.10436834 -0.108744174 -0.0023107438 -0.0029503207
000130 32 72 37 3d 31 9a 8b 3c 5a e5 19 3c a9 01 85 bb
       0.04478664 0.017041298 0.009393061 -0.004059036
000140 c2 de 68 bd 55 a7 aa bd 0a af 70 3b da 7c 98 3b
       -0.056853063 -0.08332697 0.0036725425 0.0046535553
000150 4d 16 c5 bd fa c6 a5 bd 43 ba b4 38 44 fe 87 3b
       -0.09623394 -0.080945924 8.617763e-05 0.004150184
000160 71 63 e7 bc 51 3e 3b 3b 59 e0 3c 3c 8e bd a5 ba
       -0.02824566 0.002857108 0.011528098 -0.0012644993
000170 47 86 9e bc 90 3c cb bc e9 34 67 bc ce 10 18 3b
       -0.019351138 -0.024809152 -0.014111736 0.0023203376
000180 00 ec a4 3c e7 23 55 3c 0c 33 b9 bc 87 9d 0e bc
       0.020132065 0.013009048 -0.022607349 -0.00870455
000190 0e c0 d0 bd de 3f 16 3d f6 eb ce 3d cb 9f 82 bc
       -0.101928815 0.036682002 0.101036 -0.015945336
0001a0 de 37 88 3c fd 89 b3 bc 8d 20 95 3d 3a 31 26 3c
       0.016628202 -0.021916384 0.07281599 0.010143572
0001b0 82 4d ec bc 16 8b 1d 3d d1 ba 3b bd 6d 7b 8c bc
       -0.028845552 0.03846272 -0.04583246 -0.017148698
0001c0 ce 34 38 3c 3e 7b 5a bc 6d 33 11 3c 23 76 84 bd
       0.011243058 -0.013335047 0.0088623585 -0.06467845
0001d0 62 77 d2 bd c0 0f 85 39 1b 64 36 bc 86 eb ca 3c
       -0.10276677 0.00025379471 -0.011132265 0.02477051
0001e0 e1 89 d1 bc 05 fb c3 3b df 01 99 bc de 80 a9 3b
       -0.025578441 0.0059808516 -0.01867765 0.005172833
0001f0 fe 4c 23 bd a1 64 cc bb 62 7c 15 b9 2c c2 24 3c
       -0.039868347 -0.006237582 -0.00014256084 0.01005606

gat_universe.bias f4 [128]
000000 ea 8d 59 bc 77 8b 1d bc 0d cd 8c bd 77 fa 23 bd
       -0.013278464 -0.009615771 -0.06875048 -0.040033784
000010 7f 54 e0 3b ce 63 2f be ec 69 af bc 27 a7 bb ba
       0.00684601 -0.17127916 -0.021412812 -0.0014316783
000020 0e 5c 40 3e b3 10 1a be b3 92 53 3e ac e2 3e 3d
       0.18785116 -0.15045433 0.2066143 0.04660289
000030 39 68 bc 38 53 f0 ad bc 33 71 71 bc e4 d8 92 bb
       8.9839516e-05 -0.02123276 -0.014736461 -0.004481422
000040 94 62 c6 bd 5a 2e 03 be a2 00 7a bd 5c a3 9b 3d
       -0.09686771 -0.1281065 -0.06103576 0.07599518
000050 b5 b4 cc bd b1 d6 2d be 7e f4 ac bc 4b e4 64 3a
       -0.09995405 -0.1697643 -0.021112677 0.0008731528
000060 c3 60 08 bd 82 70 02 3e e8 8f a2 bc c1 47 96 3d
       -0.033295404 0.12738231 -0.01984401 0.07337905
000070 60 79 91 bb a3 a1 00 3e 95 62 13 be 0d cb a1 3d
       -0.004439518 0.1256166 -0.14393075 0.07900057
000080 e8 65 29 be b9 b5 f0 bd cf 1f 95 3d db 4b 97 bc
       -0.1654278 -0.11753411 0.07281458 -0.018468788
000090 9f f4 19 be 02 96 32 3d 83 d3 0b be f8 29 9b bb
       -0.15034722 0.04360009 -0.13654904 -0.0047352277
0000a0 3e b6 43 bb 1b 62 31 bd 79 10 16 be e6 2a 28 bd
       -0.0029863263 -0.04330645 -0.14654721 -0.041056536
0000b0 36 e3 e0 bd 32 f2 28 bd 20 58 f6 bd e0 d6 c9 3d
       -0.10980837 -0.0412466 -0.12028527 0.09855437
0000c0 39 3c 71 bd f3 58 8a 3d 1e 38 a8 bc 83 0a 38 3e
       -0.058895323 0.06755247 -0.020534571 0.1797276
0000d0 2d 1f a1 3b a5 5f ba bd 5d 3b e5 bc 54 a5 05 3e
       0.0049170465 -0.09100274 -0.027982408 0.13051349
0000e0 06 66 cd bb bb d8 23 bc f2 f5 91 3d 32 e7 c7 bb
       -0.0062682657 -0.010000403 0.071269885 -0.0061005587
0000f0 7f 5d c6 bd eb 3c 4b bc 88 d0 cc bd 96 ec d0 bc
       -0.09685802 -0.012404661 -0.10000712 -0.025503438
000100 1b e0 78 bc cc 09 8c 3c fd 87 e0 bd 39 3a 71 bd
       -0.01519015 0.017094515 -0.10963438 -0.058893416
000110 06 0b ef 3b 53 c0 f0 bd 90 80 df 3b 1c a9 a1 3b
       0.0072950153 -0.11755433 0.0068207458 0.0049334895
000120 8d 29 6f 3e 12 8c 25 be 10 53 f3 bc 5a ca 2b 3c
       0.23355694 -0.16166714 -0.029702693 0.010485256
000130 0f 1d 2e 3d e2 a9 89 bb 27 2b 00 3c 98 ac 6e 3c
       0.04250818 -0.00420116 0.007822788 0.014567517
000140 fa e4 64 bd ba cf 12 be b5 ce 03 bd ed 18 8b 3d
       -0.05588243 -0.14337054 -0.032179553 0.067918636
000150 11 47 ef bd 61 a5 db bd 84 7a ff b8 eb 73 86 ba
       -0.11683477 -0.10724903 -0.00012182168 -0.0010257935
000160 a1 bd e3 bd aa e0 0b 36 f8 0c 1a 3c e4 d7 90 bc
       -0.11120153 2.0843386e-06 0.009402506 -0.01768107
000170 47 e7 c5 3b a7 86 18 be b6 35 2f bc dd c5 92 3b
       0.0060395333 -0.14895116 -0.010693958 0.0044791535
000180 8b 37 63 bd 93 8d 4a bd 49 c7 9f bb 2e 9b c0 bb
       -0.05547289 -0.049451422 -0.0048760516 -0.005877874
000190 b7 71 11 be b1 b8 74 bd 2b 60 ca 3d e3 91 e2 3b
       -0.14203535 -0.059746448 0.09881624 0.0069143637
0001a0 aa 09 26 3c b8 d0 0d bd be dc 9e bc 3e 9c 74 3d
       0.01013414 -0.034622878 -0.019392367 0.059719317
0001b0 11 6d 0f be 5f 32 ce bd 75 b3 d3 bd 20 33 d3 bc
       -0.1400645 -0.10068201 -0.10336963 -0.025781214
0001c0 6b e8 e3 bc 73 ad 3b 3c 31 c9 6f 3b 20 df 9d bd
       -0.027820786 0.011454928 0.0036588425 -0.07708573
0001d0 e1 27 f7 bd bc 00 cf bd f0 7e 1d 3c 41 65 22 3d
       -0.12068153 -0.10107562 0.009612784 0.039647344
0001e0 e8 6a 24 bc b4 8a 24 3c af 43 36 bd a9 15 33 bb
       -0.010035254 0.010042835 -0.04449814 -0.0027326143
0001f0 00 53 17 be 51 74 e9 bb a0 76 fc bd 85 cb ac 3b
       -0.14777756 -0.0071244617 -0.123273134 0.005273285
